…
I0512 13:07:09.073385  4306 net.cpp:294] The NetState phase (0) differed from the phase (1) specified by a rule in layer accuracy
I0512 13:07:09.073487  4306 net.cpp:51] Initializing net from parameters: 
name: "CaffeNet"
state {
  phase: TRAIN
  level: 0
  stage: ""
}
layer {
  name: "data"
  type: "Data"
  top: "data"
  top: "label"
  include {
    phase: TRAIN
  }
  transform_param {
    mirror: false
    crop_size: 64
    mean_file: "/home/user1/GTSRB/input/mean_64.binaryproto"
  }
  data_param {
    source: "/home/user1/GTSRB/input/train_lmdb_64"
    batch_size: 256
    backend: LMDB
  }
}
layer {
  name: "conv1"
  type: "Convolution"
  bottom: "data"
  top: "conv1"
  param {
    lr_mult: 1
    decay_mult: 1
  }
  param {
    lr_mult: 2
    decay_mult: 0
  }
  convolution_param {
    num_output: 96
    kernel_size: 11
    stride: 4
    weight_filler {
      type: "xavier"
    }
    bias_filler {
      type: "constant"
      value: 0
    }
  }
}
layer {
  name: "relu1"
  type: "ReLU"
  bottom: "conv1"
  top: "conv1"
}
layer {
  name: "pool1"
  type: "Pooling"
  bottom: "conv1"
  top: "pool1"
  pooling_param {
    pool: MAX
    kernel_size: 3
    stride: 2
  }
}
layer {
  name: "norm1"
  type: "LRN"
  bottom: "pool1"
  top: "norm1"
  lrn_param {
    local_size: 5
    alpha: 0.0001
    beta: 0.75
  }
}
layer {
  name: "conv2"
  type: "Convolution"
  bottom: "norm1"
  top: "conv2"
  param {
    lr_mult: 1
    decay_mult: 1
  }
  param {
    lr_mult: 2
    decay_mult: 0
  }
  convolution_param {
    num_output: 256
    pad: 2
    kernel_size: 5
    group: 2
    weight_filler {
      type: "xavier"
    }
    bias_filler {
      type: "constant"
      value: 1
    }
  }
}
layer {
  name: "relu2"
  type: "ReLU"
  bottom: "conv2"
  top: "conv2"
}
layer {
  name: "pool2"
  type: "Pooling"
  bottom: "conv2"
  top: "pool2"
  pooling_param {
    pool: MAX
    kernel_size: 3
    stride: 2
  }
}
layer {
  name: "norm2"
  type: "LRN"
  bottom: "pool2"
  top: "norm2"
  lrn_param {
    local_size: 5
    alpha: 0.0001
    beta: 0.75
  }
}
layer {
  name: "conv3"
  type: "Convolution"
  bottom: "norm2"
  top: "conv3"
  param {
    lr_mult: 1
    decay_mult: 1
  }
  param {
    lr_mult: 2
    decay_mult: 0
  }
  convolution_param {
    num_output: 384
    pad: 1
    kernel_size: 3
    weight_filler {
      type: "xavier"
    }
    bias_filler {
      type: "constant"
      value: 0
    }
  }
}
layer {
  name: "relu3"
  type: "ReLU"
  bottom: "conv3"
  top: "conv3"
}
layer {
  name: "conv4"
  type: "Convolution"
  bottom: "conv3"
  top: "conv4"
  param {
    lr_mult: 1
    decay_mult: 1
  }
  param {
    lr_mult: 2
    decay_mult: 0
  }
  convolution_param {
    num_output: 384
    pad: 1
    kernel_size: 3
    group: 2
    weight_filler {
      type: "xavier"
    }
    bias_filler {
      type: "constant"
      value: 1
    }
  }
}
layer {
  name: "relu4"
  type: "ReLU"
  bottom: "conv4"
  top: "conv4"
}
layer {
  name: "conv5"
  type: "Convolution"
  bottom: "conv4"
  top: "conv5"
  param {
    lr_mult: 1
    decay_mult: 1
  }
  param {
    lr_mult: 2
    decay_mult: 0
  }
  convolution_param {
    num_output: 256
    pad: 1
    kernel_size: 3
    group: 2
    weight_filler {
      type: "xavier"
    }
    bias_filler {
      type: "constant"
      value: 1
    }
  }
}
layer {
  name: "relu5"
  type: "ReLU"
  bottom: "conv5"
  top: "conv5"
}
layer {
  name: "pool5"
  type: "Pooling"
  bottom: "conv5"
  top: "pool5"
  pooling_param {
    pool: MAX
    kernel_size: 3
    stride: 2
  }
}
layer {
  name: "fc6"
  type: "InnerProduct"
  bottom: "pool5"
  top: "fc6"
  param {
    lr_mult: 1
    decay_mult: 1
  }
  param {
    lr_mult: 2
    decay_mult: 0
  }
  inner_product_param {
    num_output: 4096
    weight_filler {
      type: "xavier"
    }
    bias_filler {
      type: "constant"
      value: 1
    }
  }
}
layer {
  name: "relu6"
  type: "ReLU"
  bottom: "fc6"
  top: "fc6"
}
layer {
  name: "drop6"
  type: "Dropout"
  bottom: "fc6"
  top: "fc6"
  dropout_param {
    dropout_ratio: 0.5
  }
}
layer {
  name: "fc7"
  type: "InnerProduct"
  bottom: "fc6"
  top: "fc7"
  param {
    lr_mult: 1
    decay_mult: 1
  }
  param {
    lr_mult: 2
    decay_mult: 0
  }
  inner_product_param {
    num_output: 4096
    weight_filler {
      type: "xavier"
    }
    bias_filler {
      type: "constant"
      value: 1
    }
  }
}
layer {
  name: "relu7"
  type: "ReLU"
  bottom: "fc7"
  top: "fc7"
}
layer {
  name: "drop7"
  type: "Dropout"
  bottom: "fc7"
  top: "fc7"
  dropout_param {
    dropout_ratio: 0.5
  }
}
layer {
  name: "fc8"
  type: "InnerProduct"
  bottom: "fc7"
  top: "fc8"
  param {
    lr_mult: 1
    decay_mult: 1
  }
  param {
    lr_mult: 2
    decay_mult: 0
  }
  inner_product_param {
    num_output: 43
    weight_filler {
      type: "xavier"
    }
    bias_filler {
      type: "constant"
      value: 0
    }
  }
}
layer {
  name: "loss"
  type: "SoftmaxWithLoss"
  bottom: "fc8"
  bottom: "label"
  top: "loss"
}
I0512 13:07:09.073554  4306 layer_factory.hpp:77] Creating layer data
I0512 13:07:09.073618  4306 db_lmdb.cpp:35] Opened lmdb /home/user1/GTSRB/input/train_lmdb_64
I0512 13:07:09.073635  4306 net.cpp:84] Creating Layer data
I0512 13:07:09.073640  4306 net.cpp:380] data -> data
I0512 13:07:09.073654  4306 net.cpp:380] data -> label
I0512 13:07:09.073663  4306 data_transformer.cpp:25] Loading mean file from: /home/user1/GTSRB/input/mean_64.binaryproto
I0512 13:07:09.074880  4306 data_layer.cpp:45] output data size: 256,3,64,64
I0512 13:07:09.091738  4306 net.cpp:122] Setting up data
I0512 13:07:09.091756  4306 net.cpp:129] Top shape: 256 3 64 64 (3145728)
I0512 13:07:09.091760  4306 net.cpp:129] Top shape: 256 (256)
I0512 13:07:09.091761  4306 net.cpp:137] Memory required for data: 12583936
I0512 13:07:09.091769  4306 layer_factory.hpp:77] Creating layer conv1
I0512 13:07:09.091784  4306 net.cpp:84] Creating Layer conv1
I0512 13:07:09.091787  4306 net.cpp:406] conv1 <- data
I0512 13:07:09.091795  4306 net.cpp:380] conv1 -> conv1
I0512 13:07:09.259784  4306 net.cpp:122] Setting up conv1
I0512 13:07:09.259804  4306 net.cpp:129] Top shape: 256 96 14 14 (4816896)
I0512 13:07:09.259806  4306 net.cpp:137] Memory required for data: 31851520
I0512 13:07:09.259821  4306 layer_factory.hpp:77] Creating layer relu1
I0512 13:07:09.259829  4306 net.cpp:84] Creating Layer relu1
I0512 13:07:09.259831  4306 net.cpp:406] relu1 <- conv1
I0512 13:07:09.259835  4306 net.cpp:367] relu1 -> conv1 (in-place)
I0512 13:07:09.259943  4306 net.cpp:122] Setting up relu1
I0512 13:07:09.259949  4306 net.cpp:129] Top shape: 256 96 14 14 (4816896)
I0512 13:07:09.259951  4306 net.cpp:137] Memory required for data: 51119104
I0512 13:07:09.259953  4306 layer_factory.hpp:77] Creating layer pool1
I0512 13:07:09.259958  4306 net.cpp:84] Creating Layer pool1
I0512 13:07:09.259959  4306 net.cpp:406] pool1 <- conv1
I0512 13:07:09.259963  4306 net.cpp:380] pool1 -> pool1
I0512 13:07:09.259996  4306 net.cpp:122] Setting up pool1
I0512 13:07:09.260000  4306 net.cpp:129] Top shape: 256 96 7 7 (1204224)
I0512 13:07:09.260002  4306 net.cpp:137] Memory required for data: 55936000
I0512 13:07:09.260004  4306 layer_factory.hpp:77] Creating layer norm1
I0512 13:07:09.260010  4306 net.cpp:84] Creating Layer norm1
I0512 13:07:09.260011  4306 net.cpp:406] norm1 <- pool1
I0512 13:07:09.260026  4306 net.cpp:380] norm1 -> norm1
I0512 13:07:09.260601  4306 net.cpp:122] Setting up norm1
I0512 13:07:09.260609  4306 net.cpp:129] Top shape: 256 96 7 7 (1204224)
I0512 13:07:09.260612  4306 net.cpp:137] Memory required for data: 60752896
I0512 13:07:09.260613  4306 layer_factory.hpp:77] Creating layer conv2
I0512 13:07:09.260622  4306 net.cpp:84] Creating Layer conv2
I0512 13:07:09.260623  4306 net.cpp:406] conv2 <- norm1
I0512 13:07:09.260627  4306 net.cpp:380] conv2 -> conv2
I0512 13:07:09.265446  4306 net.cpp:122] Setting up conv2
I0512 13:07:09.265456  4306 net.cpp:129] Top shape: 256 256 7 7 (3211264)
I0512 13:07:09.265460  4306 net.cpp:137] Memory required for data: 73597952
I0512 13:07:09.265466  4306 layer_factory.hpp:77] Creating layer relu2
I0512 13:07:09.265470  4306 net.cpp:84] Creating Layer relu2
I0512 13:07:09.265472  4306 net.cpp:406] relu2 <- conv2
I0512 13:07:09.265476  4306 net.cpp:367] relu2 -> conv2 (in-place)
I0512 13:07:09.266084  4306 net.cpp:122] Setting up relu2
I0512 13:07:09.266093  4306 net.cpp:129] Top shape: 256 256 7 7 (3211264)
I0512 13:07:09.266095  4306 net.cpp:137] Memory required for data: 86443008
I0512 13:07:09.266098  4306 layer_factory.hpp:77] Creating layer pool2
I0512 13:07:09.266101  4306 net.cpp:84] Creating Layer pool2
I0512 13:07:09.266103  4306 net.cpp:406] pool2 <- conv2
I0512 13:07:09.266108  4306 net.cpp:380] pool2 -> pool2
I0512 13:07:09.266139  4306 net.cpp:122] Setting up pool2
I0512 13:07:09.266144  4306 net.cpp:129] Top shape: 256 256 3 3 (589824)
I0512 13:07:09.266146  4306 net.cpp:137] Memory required for data: 88802304
I0512 13:07:09.266149  4306 layer_factory.hpp:77] Creating layer norm2
I0512 13:07:09.266154  4306 net.cpp:84] Creating Layer norm2
I0512 13:07:09.266155  4306 net.cpp:406] norm2 <- pool2
I0512 13:07:09.266158  4306 net.cpp:380] norm2 -> norm2
I0512 13:07:09.266280  4306 net.cpp:122] Setting up norm2
I0512 13:07:09.266286  4306 net.cpp:129] Top shape: 256 256 3 3 (589824)
I0512 13:07:09.266288  4306 net.cpp:137] Memory required for data: 91161600
I0512 13:07:09.266290  4306 layer_factory.hpp:77] Creating layer conv3
I0512 13:07:09.266296  4306 net.cpp:84] Creating Layer conv3
I0512 13:07:09.266299  4306 net.cpp:406] conv3 <- norm2
I0512 13:07:09.266304  4306 net.cpp:380] conv3 -> conv3
I0512 13:07:09.272392  4306 net.cpp:122] Setting up conv3
I0512 13:07:09.272411  4306 net.cpp:129] Top shape: 256 384 3 3 (884736)
I0512 13:07:09.272413  4306 net.cpp:137] Memory required for data: 94700544
I0512 13:07:09.272423  4306 layer_factory.hpp:77] Creating layer relu3
I0512 13:07:09.272429  4306 net.cpp:84] Creating Layer relu3
I0512 13:07:09.272433  4306 net.cpp:406] relu3 <- conv3
I0512 13:07:09.272439  4306 net.cpp:367] relu3 -> conv3 (in-place)
I0512 13:07:09.272581  4306 net.cpp:122] Setting up relu3
I0512 13:07:09.272588  4306 net.cpp:129] Top shape: 256 384 3 3 (884736)
I0512 13:07:09.272590  4306 net.cpp:137] Memory required for data: 98239488
I0512 13:07:09.272593  4306 layer_factory.hpp:77] Creating layer conv4
I0512 13:07:09.272599  4306 net.cpp:84] Creating Layer conv4
I0512 13:07:09.272601  4306 net.cpp:406] conv4 <- conv3
I0512 13:07:09.272605  4306 net.cpp:380] conv4 -> conv4
I0512 13:07:09.277978  4306 net.cpp:122] Setting up conv4
I0512 13:07:09.277990  4306 net.cpp:129] Top shape: 256 384 3 3 (884736)
I0512 13:07:09.277992  4306 net.cpp:137] Memory required for data: 101778432
I0512 13:07:09.277997  4306 layer_factory.hpp:77] Creating layer relu4
I0512 13:07:09.278002  4306 net.cpp:84] Creating Layer relu4
I0512 13:07:09.278004  4306 net.cpp:406] relu4 <- conv4
I0512 13:07:09.278007  4306 net.cpp:367] relu4 -> conv4 (in-place)
I0512 13:07:09.278125  4306 net.cpp:122] Setting up relu4
I0512 13:07:09.278131  4306 net.cpp:129] Top shape: 256 384 3 3 (884736)
I0512 13:07:09.278132  4306 net.cpp:137] Memory required for data: 105317376
I0512 13:07:09.278134  4306 layer_factory.hpp:77] Creating layer conv5
I0512 13:07:09.278141  4306 net.cpp:84] Creating Layer conv5
I0512 13:07:09.278143  4306 net.cpp:406] conv5 <- conv4
I0512 13:07:09.278158  4306 net.cpp:380] conv5 -> conv5
I0512 13:07:09.282562  4306 net.cpp:122] Setting up conv5
I0512 13:07:09.282570  4306 net.cpp:129] Top shape: 256 256 3 3 (589824)
I0512 13:07:09.282573  4306 net.cpp:137] Memory required for data: 107676672
I0512 13:07:09.282579  4306 layer_factory.hpp:77] Creating layer relu5
I0512 13:07:09.282583  4306 net.cpp:84] Creating Layer relu5
I0512 13:07:09.282585  4306 net.cpp:406] relu5 <- conv5
I0512 13:07:09.282589  4306 net.cpp:367] relu5 -> conv5 (in-place)
I0512 13:07:09.282703  4306 net.cpp:122] Setting up relu5
I0512 13:07:09.282708  4306 net.cpp:129] Top shape: 256 256 3 3 (589824)
I0512 13:07:09.282711  4306 net.cpp:137] Memory required for data: 110035968
I0512 13:07:09.282712  4306 layer_factory.hpp:77] Creating layer pool5
I0512 13:07:09.282717  4306 net.cpp:84] Creating Layer pool5
I0512 13:07:09.282719  4306 net.cpp:406] pool5 <- conv5
I0512 13:07:09.282722  4306 net.cpp:380] pool5 -> pool5
I0512 13:07:09.282749  4306 net.cpp:122] Setting up pool5
I0512 13:07:09.282753  4306 net.cpp:129] Top shape: 256 256 1 1 (65536)
I0512 13:07:09.282755  4306 net.cpp:137] Memory required for data: 110298112
I0512 13:07:09.282757  4306 layer_factory.hpp:77] Creating layer fc6
I0512 13:07:09.282768  4306 net.cpp:84] Creating Layer fc6
I0512 13:07:09.282769  4306 net.cpp:406] fc6 <- pool5
I0512 13:07:09.282773  4306 net.cpp:380] fc6 -> fc6
I0512 13:07:09.288343  4306 net.cpp:122] Setting up fc6
I0512 13:07:09.288362  4306 net.cpp:129] Top shape: 256 4096 (1048576)
I0512 13:07:09.288363  4306 net.cpp:137] Memory required for data: 114492416
I0512 13:07:09.288369  4306 layer_factory.hpp:77] Creating layer relu6
I0512 13:07:09.288374  4306 net.cpp:84] Creating Layer relu6
I0512 13:07:09.288378  4306 net.cpp:406] relu6 <- fc6
I0512 13:07:09.288383  4306 net.cpp:367] relu6 -> fc6 (in-place)
I0512 13:07:09.288969  4306 net.cpp:122] Setting up relu6
I0512 13:07:09.288977  4306 net.cpp:129] Top shape: 256 4096 (1048576)
I0512 13:07:09.288980  4306 net.cpp:137] Memory required for data: 118686720
I0512 13:07:09.288981  4306 layer_factory.hpp:77] Creating layer drop6
I0512 13:07:09.288985  4306 net.cpp:84] Creating Layer drop6
I0512 13:07:09.288988  4306 net.cpp:406] drop6 <- fc6
I0512 13:07:09.288991  4306 net.cpp:367] drop6 -> fc6 (in-place)
I0512 13:07:09.289008  4306 net.cpp:122] Setting up drop6
I0512 13:07:09.289012  4306 net.cpp:129] Top shape: 256 4096 (1048576)
I0512 13:07:09.289014  4306 net.cpp:137] Memory required for data: 122881024
I0512 13:07:09.289017  4306 layer_factory.hpp:77] Creating layer fc7
I0512 13:07:09.289023  4306 net.cpp:84] Creating Layer fc7
I0512 13:07:09.289026  4306 net.cpp:406] fc7 <- fc6
I0512 13:07:09.289029  4306 net.cpp:380] fc7 -> fc7
I0512 13:07:09.361898  4306 net.cpp:122] Setting up fc7
I0512 13:07:09.361918  4306 net.cpp:129] Top shape: 256 4096 (1048576)
I0512 13:07:09.361920  4306 net.cpp:137] Memory required for data: 127075328
I0512 13:07:09.361927  4306 layer_factory.hpp:77] Creating layer relu7
I0512 13:07:09.361932  4306 net.cpp:84] Creating Layer relu7
I0512 13:07:09.361934  4306 net.cpp:406] relu7 <- fc7
I0512 13:07:09.361938  4306 net.cpp:367] relu7 -> fc7 (in-place)
I0512 13:07:09.362088  4306 net.cpp:122] Setting up relu7
I0512 13:07:09.362094  4306 net.cpp:129] Top shape: 256 4096 (1048576)
I0512 13:07:09.362097  4306 net.cpp:137] Memory required for data: 131269632
I0512 13:07:09.362098  4306 layer_factory.hpp:77] Creating layer drop7
I0512 13:07:09.362102  4306 net.cpp:84] Creating Layer drop7
I0512 13:07:09.362103  4306 net.cpp:406] drop7 <- fc7
I0512 13:07:09.362107  4306 net.cpp:367] drop7 -> fc7 (in-place)
I0512 13:07:09.362120  4306 net.cpp:122] Setting up drop7
I0512 13:07:09.362124  4306 net.cpp:129] Top shape: 256 4096 (1048576)
I0512 13:07:09.362126  4306 net.cpp:137] Memory required for data: 135463936
I0512 13:07:09.362128  4306 layer_factory.hpp:77] Creating layer fc8
I0512 13:07:09.362131  4306 net.cpp:84] Creating Layer fc8
I0512 13:07:09.362133  4306 net.cpp:406] fc8 <- fc7
I0512 13:07:09.362138  4306 net.cpp:380] fc8 -> fc8
I0512 13:07:09.362859  4306 net.cpp:122] Setting up fc8
I0512 13:07:09.362864  4306 net.cpp:129] Top shape: 256 43 (11008)
I0512 13:07:09.362866  4306 net.cpp:137] Memory required for data: 135507968
I0512 13:07:09.362869  4306 layer_factory.hpp:77] Creating layer loss
I0512 13:07:09.362874  4306 net.cpp:84] Creating Layer loss
I0512 13:07:09.362875  4306 net.cpp:406] loss <- fc8
I0512 13:07:09.362877  4306 net.cpp:406] loss <- label
I0512 13:07:09.362882  4306 net.cpp:380] loss -> loss
I0512 13:07:09.362891  4306 layer_factory.hpp:77] Creating layer loss
…
I0512 13:07:09.363353  4306 net.cpp:294] The NetState phase (1) differed from the phase (0) specified by a rule in layer data
I0512 13:07:09.363452  4306 net.cpp:51] Initializing net from parameters: 
name: "CaffeNet"
state {
  phase: TEST
}
layer {
  name: "data"
  type: "Data"
  top: "data"
  top: "label"
  include {
    phase: TEST
  }
  transform_param {
    mirror: false
    crop_size: 64
    mean_file: "/home/user1/GTSRB/input/mean_64.binaryproto"
  }
  data_param {
    source: "/home/user1/GTSRB/input/validation_lmdb_64"
    batch_size: 50
    backend: LMDB
  }
}
layer {
  name: "conv1"
  type: "Convolution"
  bottom: "data"
  top: "conv1"
  param {
    lr_mult: 1
    decay_mult: 1
  }
  param {
    lr_mult: 2
    decay_mult: 0
  }
  convolution_param {
    num_output: 96
    kernel_size: 11
    stride: 4
    weight_filler {
      type: "xavier"
    }
    bias_filler {
      type: "constant"
      value: 0
    }
  }
}
layer {
  name: "relu1"
  type: "ReLU"
  bottom: "conv1"
  top: "conv1"
}
layer {
  name: "pool1"
  type: "Pooling"
  bottom: "conv1"
  top: "pool1"
  pooling_param {
    pool: MAX
    kernel_size: 3
    stride: 2
  }
}
layer {
  name: "norm1"
  type: "LRN"
  bottom: "pool1"
  top: "norm1"
  lrn_param {
    local_size: 5
    alpha: 0.0001
    beta: 0.75
  }
}
layer {
  name: "conv2"
  type: "Convolution"
  bottom: "norm1"
  top: "conv2"
  param {
    lr_mult: 1
    decay_mult: 1
  }
  param {
    lr_mult: 2
    decay_mult: 0
  }
  convolution_param {
    num_output: 256
    pad: 2
    kernel_size: 5
    group: 2
    weight_filler {
      type: "xavier"
    }
    bias_filler {
      type: "constant"
      value: 1
    }
  }
}
layer {
  name: "relu2"
  type: "ReLU"
  bottom: "conv2"
  top: "conv2"
}
layer {
  name: "pool2"
  type: "Pooling"
  bottom: "conv2"
  top: "pool2"
  pooling_param {
    pool: MAX
    kernel_size: 3
    stride: 2
  }
}
layer {
  name: "norm2"
  type: "LRN"
  bottom: "pool2"
  top: "norm2"
  lrn_param {
    local_size: 5
    alpha: 0.0001
    beta: 0.75
  }
}
layer {
  name: "conv3"
  type: "Convolution"
  bottom: "norm2"
  top: "conv3"
  param {
    lr_mult: 1
    decay_mult: 1
  }
  param {
    lr_mult: 2
    decay_mult: 0
  }
  convolution_param {
    num_output: 384
    pad: 1
    kernel_size: 3
    weight_filler {
      type: "xavier"
    }
    bias_filler {
      type: "constant"
      value: 0
    }
  }
}
layer {
  name: "relu3"
  type: "ReLU"
  bottom: "conv3"
  top: "conv3"
}
layer {
  name: "conv4"
  type: "Convolution"
  bottom: "conv3"
  top: "conv4"
  param {
    lr_mult: 1
    decay_mult: 1
  }
  param {
    lr_mult: 2
    decay_mult: 0
  }
  convolution_param {
    num_output: 384
    pad: 1
    kernel_size: 3
    group: 2
    weight_filler {
      type: "xavier"
    }
    bias_filler {
      type: "constant"
      value: 1
    }
  }
}
layer {
  name: "relu4"
  type: "ReLU"
  bottom: "conv4"
  top: "conv4"
}
layer {
  name: "conv5"
  type: "Convolution"
  bottom: "conv4"
  top: "conv5"
  param {
    lr_mult: 1
    decay_mult: 1
  }
  param {
    lr_mult: 2
    decay_mult: 0
  }
  convolution_param {
    num_output: 256
    pad: 1
    kernel_size: 3
    group: 2
    weight_filler {
      type: "xavier"
    }
    bias_filler {
      type: "constant"
      value: 1
    }
  }
}
layer {
  name: "relu5"
  type: "ReLU"
  bottom: "conv5"
  top: "conv5"
}
layer {
  name: "pool5"
  type: "Pooling"
  bottom: "conv5"
  top: "pool5"
  pooling_param {
    pool: MAX
    kernel_size: 3
    stride: 2
  }
}
layer {
  name: "fc6"
  type: "InnerProduct"
  bottom: "pool5"
  top: "fc6"
  param {
    lr_mult: 1
    decay_mult: 1
  }
  param {
    lr_mult: 2
    decay_mult: 0
  }
  inner_product_param {
    num_output: 4096
    weight_filler {
      type: "xavier"
    }
    bias_filler {
      type: "constant"
      value: 1
    }
  }
}
layer {
  name: "relu6"
  type: "ReLU"
  bottom: "fc6"
  top: "fc6"
}
layer {
  name: "drop6"
  type: "Dropout"
  bottom: "fc6"
  top: "fc6"
  dropout_param {
    dropout_ratio: 0.5
  }
}
layer {
  name: "fc7"
  type: "InnerProduct"
  bottom: "fc6"
  top: "fc7"
  param {
    lr_mult: 1
    decay_mult: 1
  }
  param {
    lr_mult: 2
    decay_mult: 0
  }
  inner_product_param {
    num_output: 4096
    weight_filler {
      type: "xavier"
    }
    bias_filler {
      type: "constant"
      value: 1
    }
  }
}
layer {
  name: "relu7"
  type: "ReLU"
  bottom: "fc7"
  top: "fc7"
}
layer {
  name: "drop7"
  type: "Dropout"
  bottom: "fc7"
  top: "fc7"
  dropout_param {
    dropout_ratio: 0.5
  }
}
layer {
  name: "fc8"
  type: "InnerProduct"
  bottom: "fc7"
  top: "fc8"
  param {
    lr_mult: 1
    decay_mult: 1
  }
  param {
    lr_mult: 2
    decay_mult: 0
  }
  inner_product_param {
    num_output: 43
    weight_filler {
      type: "xavier"
    }
    bias_filler {
      type: "constant"
      value: 0
    }
  }
}
layer {
  name: "accuracy"
  type: "Accuracy"
  bottom: "fc8"
  bottom: "label"
  top: "accuracy"
  include {
    phase: TEST
  }
}
layer {
  name: "loss"
  type: "SoftmaxWithLoss"
  bottom: "fc8"
  bottom: "label"
  top: "loss"
}
I0512 13:07:09.363523  4306 layer_factory.hpp:77] Creating layer data
I0512 13:07:09.363560  4306 db_lmdb.cpp:35] Opened lmdb /home/user1/GTSRB/input/validation_lmdb_64
I0512 13:07:09.363576  4306 net.cpp:84] Creating Layer data
I0512 13:07:09.363581  4306 net.cpp:380] data -> data
I0512 13:07:09.363585  4306 net.cpp:380] data -> label
I0512 13:07:09.363590  4306 data_transformer.cpp:25] Loading mean file from: /home/user1/GTSRB/input/mean_64.binaryproto
I0512 13:07:09.363730  4306 data_layer.cpp:45] output data size: 50,3,64,64
I0512 13:07:09.368968  4306 net.cpp:122] Setting up data
I0512 13:07:09.368986  4306 net.cpp:129] Top shape: 50 3 64 64 (614400)
I0512 13:07:09.368989  4306 net.cpp:129] Top shape: 50 (50)
I0512 13:07:09.368991  4306 net.cpp:137] Memory required for data: 2457800
I0512 13:07:09.368994  4306 layer_factory.hpp:77] Creating layer label_data_1_split
I0512 13:07:09.369002  4306 net.cpp:84] Creating Layer label_data_1_split
I0512 13:07:09.369005  4306 net.cpp:406] label_data_1_split <- label
I0512 13:07:09.369009  4306 net.cpp:380] label_data_1_split -> label_data_1_split_0
I0512 13:07:09.369014  4306 net.cpp:380] label_data_1_split -> label_data_1_split_1
I0512 13:07:09.369107  4306 net.cpp:122] Setting up label_data_1_split
I0512 13:07:09.369117  4306 net.cpp:129] Top shape: 50 (50)
I0512 13:07:09.369119  4306 net.cpp:129] Top shape: 50 (50)
I0512 13:07:09.369120  4306 net.cpp:137] Memory required for data: 2458200
I0512 13:07:09.369122  4306 layer_factory.hpp:77] Creating layer conv1
I0512 13:07:09.369130  4306 net.cpp:84] Creating Layer conv1
I0512 13:07:09.369133  4306 net.cpp:406] conv1 <- data
I0512 13:07:09.369138  4306 net.cpp:380] conv1 -> conv1
I0512 13:07:09.370721  4306 net.cpp:122] Setting up conv1
I0512 13:07:09.370733  4306 net.cpp:129] Top shape: 50 96 14 14 (940800)
I0512 13:07:09.370735  4306 net.cpp:137] Memory required for data: 6221400
I0512 13:07:09.370744  4306 layer_factory.hpp:77] Creating layer relu1
I0512 13:07:09.370749  4306 net.cpp:84] Creating Layer relu1
I0512 13:07:09.370754  4306 net.cpp:406] relu1 <- conv1
I0512 13:07:09.370757  4306 net.cpp:367] relu1 -> conv1 (in-place)
I0512 13:07:09.370880  4306 net.cpp:122] Setting up relu1
I0512 13:07:09.370887  4306 net.cpp:129] Top shape: 50 96 14 14 (940800)
I0512 13:07:09.370889  4306 net.cpp:137] Memory required for data: 9984600
I0512 13:07:09.370892  4306 layer_factory.hpp:77] Creating layer pool1
I0512 13:07:09.370896  4306 net.cpp:84] Creating Layer pool1
I0512 13:07:09.370899  4306 net.cpp:406] pool1 <- conv1
I0512 13:07:09.370903  4306 net.cpp:380] pool1 -> pool1
I0512 13:07:09.370936  4306 net.cpp:122] Setting up pool1
I0512 13:07:09.370940  4306 net.cpp:129] Top shape: 50 96 7 7 (235200)
I0512 13:07:09.370942  4306 net.cpp:137] Memory required for data: 10925400
I0512 13:07:09.370944  4306 layer_factory.hpp:77] Creating layer norm1
I0512 13:07:09.370950  4306 net.cpp:84] Creating Layer norm1
I0512 13:07:09.370952  4306 net.cpp:406] norm1 <- pool1
I0512 13:07:09.370956  4306 net.cpp:380] norm1 -> norm1
I0512 13:07:09.371582  4306 net.cpp:122] Setting up norm1
I0512 13:07:09.371590  4306 net.cpp:129] Top shape: 50 96 7 7 (235200)
I0512 13:07:09.371592  4306 net.cpp:137] Memory required for data: 11866200
I0512 13:07:09.371594  4306 layer_factory.hpp:77] Creating layer conv2
I0512 13:07:09.371601  4306 net.cpp:84] Creating Layer conv2
I0512 13:07:09.371604  4306 net.cpp:406] conv2 <- norm1
I0512 13:07:09.371608  4306 net.cpp:380] conv2 -> conv2
I0512 13:07:09.374779  4306 net.cpp:122] Setting up conv2
I0512 13:07:09.374792  4306 net.cpp:129] Top shape: 50 256 7 7 (627200)
I0512 13:07:09.374795  4306 net.cpp:137] Memory required for data: 14375000
I0512 13:07:09.374802  4306 layer_factory.hpp:77] Creating layer relu2
I0512 13:07:09.374806  4306 net.cpp:84] Creating Layer relu2
I0512 13:07:09.374809  4306 net.cpp:406] relu2 <- conv2
I0512 13:07:09.374814  4306 net.cpp:367] relu2 -> conv2 (in-place)
I0512 13:07:09.375484  4306 net.cpp:122] Setting up relu2
I0512 13:07:09.375494  4306 net.cpp:129] Top shape: 50 256 7 7 (627200)
I0512 13:07:09.375496  4306 net.cpp:137] Memory required for data: 16883800
I0512 13:07:09.375499  4306 layer_factory.hpp:77] Creating layer pool2
I0512 13:07:09.375515  4306 net.cpp:84] Creating Layer pool2
I0512 13:07:09.375519  4306 net.cpp:406] pool2 <- conv2
I0512 13:07:09.375521  4306 net.cpp:380] pool2 -> pool2
I0512 13:07:09.375555  4306 net.cpp:122] Setting up pool2
I0512 13:07:09.375560  4306 net.cpp:129] Top shape: 50 256 3 3 (115200)
I0512 13:07:09.375562  4306 net.cpp:137] Memory required for data: 17344600
I0512 13:07:09.375563  4306 layer_factory.hpp:77] Creating layer norm2
I0512 13:07:09.375568  4306 net.cpp:84] Creating Layer norm2
I0512 13:07:09.375571  4306 net.cpp:406] norm2 <- pool2
I0512 13:07:09.375572  4306 net.cpp:380] norm2 -> norm2
I0512 13:07:09.375699  4306 net.cpp:122] Setting up norm2
I0512 13:07:09.375706  4306 net.cpp:129] Top shape: 50 256 3 3 (115200)
I0512 13:07:09.375710  4306 net.cpp:137] Memory required for data: 17805400
I0512 13:07:09.375711  4306 layer_factory.hpp:77] Creating layer conv3
I0512 13:07:09.375722  4306 net.cpp:84] Creating Layer conv3
I0512 13:07:09.375726  4306 net.cpp:406] conv3 <- norm2
I0512 13:07:09.375732  4306 net.cpp:380] conv3 -> conv3
I0512 13:07:09.381162  4306 net.cpp:122] Setting up conv3
I0512 13:07:09.381172  4306 net.cpp:129] Top shape: 50 384 3 3 (172800)
I0512 13:07:09.381175  4306 net.cpp:137] Memory required for data: 18496600
I0512 13:07:09.381181  4306 layer_factory.hpp:77] Creating layer relu3
I0512 13:07:09.381186  4306 net.cpp:84] Creating Layer relu3
I0512 13:07:09.381187  4306 net.cpp:406] relu3 <- conv3
I0512 13:07:09.381192  4306 net.cpp:367] relu3 -> conv3 (in-place)
I0512 13:07:09.381310  4306 net.cpp:122] Setting up relu3
I0512 13:07:09.381316  4306 net.cpp:129] Top shape: 50 384 3 3 (172800)
I0512 13:07:09.381319  4306 net.cpp:137] Memory required for data: 19187800
I0512 13:07:09.381320  4306 layer_factory.hpp:77] Creating layer conv4
I0512 13:07:09.381326  4306 net.cpp:84] Creating Layer conv4
I0512 13:07:09.381328  4306 net.cpp:406] conv4 <- conv3
I0512 13:07:09.381333  4306 net.cpp:380] conv4 -> conv4
I0512 13:07:09.386580  4306 net.cpp:122] Setting up conv4
I0512 13:07:09.386590  4306 net.cpp:129] Top shape: 50 384 3 3 (172800)
I0512 13:07:09.386593  4306 net.cpp:137] Memory required for data: 19879000
I0512 13:07:09.386597  4306 layer_factory.hpp:77] Creating layer relu4
I0512 13:07:09.386601  4306 net.cpp:84] Creating Layer relu4
I0512 13:07:09.386603  4306 net.cpp:406] relu4 <- conv4
I0512 13:07:09.386606  4306 net.cpp:367] relu4 -> conv4 (in-place)
I0512 13:07:09.387197  4306 net.cpp:122] Setting up relu4
I0512 13:07:09.387205  4306 net.cpp:129] Top shape: 50 384 3 3 (172800)
I0512 13:07:09.387207  4306 net.cpp:137] Memory required for data: 20570200
I0512 13:07:09.387209  4306 layer_factory.hpp:77] Creating layer conv5
I0512 13:07:09.387215  4306 net.cpp:84] Creating Layer conv5
I0512 13:07:09.387217  4306 net.cpp:406] conv5 <- conv4
I0512 13:07:09.387223  4306 net.cpp:380] conv5 -> conv5
I0512 13:07:09.391893  4306 net.cpp:122] Setting up conv5
I0512 13:07:09.391909  4306 net.cpp:129] Top shape: 50 256 3 3 (115200)
I0512 13:07:09.391912  4306 net.cpp:137] Memory required for data: 21031000
I0512 13:07:09.391921  4306 layer_factory.hpp:77] Creating layer relu5
I0512 13:07:09.391926  4306 net.cpp:84] Creating Layer relu5
I0512 13:07:09.391927  4306 net.cpp:406] relu5 <- conv5
I0512 13:07:09.391930  4306 net.cpp:367] relu5 -> conv5 (in-place)
I0512 13:07:09.392067  4306 net.cpp:122] Setting up relu5
I0512 13:07:09.392076  4306 net.cpp:129] Top shape: 50 256 3 3 (115200)
I0512 13:07:09.392079  4306 net.cpp:137] Memory required for data: 21491800
I0512 13:07:09.392082  4306 layer_factory.hpp:77] Creating layer pool5
I0512 13:07:09.392091  4306 net.cpp:84] Creating Layer pool5
I0512 13:07:09.392093  4306 net.cpp:406] pool5 <- conv5
I0512 13:07:09.392096  4306 net.cpp:380] pool5 -> pool5
I0512 13:07:09.392129  4306 net.cpp:122] Setting up pool5
I0512 13:07:09.392134  4306 net.cpp:129] Top shape: 50 256 1 1 (12800)
I0512 13:07:09.392137  4306 net.cpp:137] Memory required for data: 21543000
I0512 13:07:09.392138  4306 layer_factory.hpp:77] Creating layer fc6
I0512 13:07:09.392153  4306 net.cpp:84] Creating Layer fc6
I0512 13:07:09.392154  4306 net.cpp:406] fc6 <- pool5
I0512 13:07:09.392158  4306 net.cpp:380] fc6 -> fc6
I0512 13:07:09.396881  4306 net.cpp:122] Setting up fc6
I0512 13:07:09.396893  4306 net.cpp:129] Top shape: 50 4096 (204800)
I0512 13:07:09.396896  4306 net.cpp:137] Memory required for data: 22362200
I0512 13:07:09.396900  4306 layer_factory.hpp:77] Creating layer relu6
I0512 13:07:09.396906  4306 net.cpp:84] Creating Layer relu6
I0512 13:07:09.396908  4306 net.cpp:406] relu6 <- fc6
I0512 13:07:09.396911  4306 net.cpp:367] relu6 -> fc6 (in-place)
I0512 13:07:09.397044  4306 net.cpp:122] Setting up relu6
I0512 13:07:09.397049  4306 net.cpp:129] Top shape: 50 4096 (204800)
I0512 13:07:09.397052  4306 net.cpp:137] Memory required for data: 23181400
I0512 13:07:09.397053  4306 layer_factory.hpp:77] Creating layer drop6
I0512 13:07:09.397058  4306 net.cpp:84] Creating Layer drop6
I0512 13:07:09.397059  4306 net.cpp:406] drop6 <- fc6
I0512 13:07:09.397063  4306 net.cpp:367] drop6 -> fc6 (in-place)
I0512 13:07:09.397081  4306 net.cpp:122] Setting up drop6
I0512 13:07:09.397085  4306 net.cpp:129] Top shape: 50 4096 (204800)
I0512 13:07:09.397089  4306 net.cpp:137] Memory required for data: 24000600
I0512 13:07:09.397089  4306 layer_factory.hpp:77] Creating layer fc7
I0512 13:07:09.397095  4306 net.cpp:84] Creating Layer fc7
I0512 13:07:09.397097  4306 net.cpp:406] fc7 <- fc6
I0512 13:07:09.397101  4306 net.cpp:380] fc7 -> fc7
I0512 13:07:09.468911  4306 net.cpp:122] Setting up fc7
I0512 13:07:09.468930  4306 net.cpp:129] Top shape: 50 4096 (204800)
I0512 13:07:09.468932  4306 net.cpp:137] Memory required for data: 24819800
I0512 13:07:09.468938  4306 layer_factory.hpp:77] Creating layer relu7
I0512 13:07:09.468943  4306 net.cpp:84] Creating Layer relu7
I0512 13:07:09.468946  4306 net.cpp:406] relu7 <- fc7
I0512 13:07:09.468950  4306 net.cpp:367] relu7 -> fc7 (in-place)
I0512 13:07:09.469643  4306 net.cpp:122] Setting up relu7
I0512 13:07:09.469652  4306 net.cpp:129] Top shape: 50 4096 (204800)
I0512 13:07:09.469655  4306 net.cpp:137] Memory required for data: 25639000
I0512 13:07:09.469656  4306 layer_factory.hpp:77] Creating layer drop7
I0512 13:07:09.469661  4306 net.cpp:84] Creating Layer drop7
I0512 13:07:09.469662  4306 net.cpp:406] drop7 <- fc7
I0512 13:07:09.469666  4306 net.cpp:367] drop7 -> fc7 (in-place)
I0512 13:07:09.469687  4306 net.cpp:122] Setting up drop7
I0512 13:07:09.469691  4306 net.cpp:129] Top shape: 50 4096 (204800)
I0512 13:07:09.469693  4306 net.cpp:137] Memory required for data: 26458200
I0512 13:07:09.469694  4306 layer_factory.hpp:77] Creating layer fc8
I0512 13:07:09.469702  4306 net.cpp:84] Creating Layer fc8
I0512 13:07:09.469703  4306 net.cpp:406] fc8 <- fc7
I0512 13:07:09.469707  4306 net.cpp:380] fc8 -> fc8
I0512 13:07:09.470428  4306 net.cpp:122] Setting up fc8
I0512 13:07:09.470435  4306 net.cpp:129] Top shape: 50 43 (2150)
I0512 13:07:09.470437  4306 net.cpp:137] Memory required for data: 26466800
I0512 13:07:09.470439  4306 layer_factory.hpp:77] Creating layer fc8_fc8_0_split
I0512 13:07:09.470443  4306 net.cpp:84] Creating Layer fc8_fc8_0_split
I0512 13:07:09.470445  4306 net.cpp:406] fc8_fc8_0_split <- fc8
I0512 13:07:09.470448  4306 net.cpp:380] fc8_fc8_0_split -> fc8_fc8_0_split_0
I0512 13:07:09.470451  4306 net.cpp:380] fc8_fc8_0_split -> fc8_fc8_0_split_1
I0512 13:07:09.470475  4306 net.cpp:122] Setting up fc8_fc8_0_split
I0512 13:07:09.470479  4306 net.cpp:129] Top shape: 50 43 (2150)
I0512 13:07:09.470481  4306 net.cpp:129] Top shape: 50 43 (2150)
I0512 13:07:09.470482  4306 net.cpp:137] Memory required for data: 26484000
I0512 13:07:09.470484  4306 layer_factory.hpp:77] Creating layer accuracy
I0512 13:07:09.470492  4306 net.cpp:84] Creating Layer accuracy
I0512 13:07:09.470494  4306 net.cpp:406] accuracy <- fc8_fc8_0_split_0
I0512 13:07:09.470496  4306 net.cpp:406] accuracy <- label_data_1_split_0
I0512 13:07:09.470500  4306 net.cpp:380] accuracy -> accuracy
…
