…
I0512 15:13:40.966441 23903 net.cpp:294] The NetState phase (0) differed from the phase (1) specified by a rule in layer accuracy
I0512 15:13:40.966543 23903 net.cpp:51] Initializing net from parameters: 
name: "CaffeNet"
state {
  phase: TRAIN
  level: 0
  stage: ""
}
layer {
  name: "data"
  type: "Data"
  top: "data"
  top: "label"
  include {
    phase: TRAIN
  }
  transform_param {
    mirror: false
    crop_size: 224
    mean_file: "/home/user1/GTSRB/input/mean_224.binaryproto"
  }
  data_param {
    source: "/home/user1/GTSRB/input/train_lmdb_224"
    batch_size: 512
    backend: LMDB
  }
}
layer {
  name: "conv1"
  type: "Convolution"
  bottom: "data"
  top: "conv1"
  param {
    lr_mult: 1
    decay_mult: 1
  }
  param {
    lr_mult: 2
    decay_mult: 0
  }
  convolution_param {
    num_output: 96
    kernel_size: 11
    stride: 4
    weight_filler {
      type: "xavier"
    }
    bias_filler {
      type: "constant"
      value: 0
    }
  }
}
layer {
  name: "relu1"
  type: "ReLU"
  bottom: "conv1"
  top: "conv1"
}
layer {
  name: "pool1"
  type: "Pooling"
  bottom: "conv1"
  top: "pool1"
  pooling_param {
    pool: MAX
    kernel_size: 3
    stride: 2
  }
}
layer {
  name: "norm1"
  type: "LRN"
  bottom: "pool1"
  top: "norm1"
  lrn_param {
    local_size: 5
    alpha: 0.0001
    beta: 0.75
  }
}
layer {
  name: "conv2"
  type: "Convolution"
  bottom: "norm1"
  top: "conv2"
  param {
    lr_mult: 1
    decay_mult: 1
  }
  param {
    lr_mult: 2
    decay_mult: 0
  }
  convolution_param {
    num_output: 256
    pad: 2
    kernel_size: 5
    group: 2
    weight_filler {
      type: "xavier"
    }
    bias_filler {
      type: "constant"
      value: 1
    }
  }
}
layer {
  name: "relu2"
  type: "ReLU"
  bottom: "conv2"
  top: "conv2"
}
layer {
  name: "pool2"
  type: "Pooling"
  bottom: "conv2"
  top: "pool2"
  pooling_param {
    pool: MAX
    kernel_size: 3
    stride: 2
  }
}
layer {
  name: "norm2"
  type: "LRN"
  bottom: "pool2"
  top: "norm2"
  lrn_param {
    local_size: 5
    alpha: 0.0001
    beta: 0.75
  }
}
layer {
  name: "conv3"
  type: "Convolution"
  bottom: "norm2"
  top: "conv3"
  param {
    lr_mult: 1
    decay_mult: 1
  }
  param {
    lr_mult: 2
    decay_mult: 0
  }
  convolution_param {
    num_output: 384
    pad: 1
    kernel_size: 3
    weight_filler {
      type: "xavier"
    }
    bias_filler {
      type: "constant"
      value: 0
    }
  }
}
layer {
  name: "relu3"
  type: "ReLU"
  bottom: "conv3"
  top: "conv3"
}
layer {
  name: "conv4"
  type: "Convolution"
  bottom: "conv3"
  top: "conv4"
  param {
    lr_mult: 1
    decay_mult: 1
  }
  param {
    lr_mult: 2
    decay_mult: 0
  }
  convolution_param {
    num_output: 384
    pad: 1
    kernel_size: 3
    group: 2
    weight_filler {
      type: "xavier"
    }
    bias_filler {
      type: "constant"
      value: 1
    }
  }
}
layer {
  name: "relu4"
  type: "ReLU"
  bottom: "conv4"
  top: "conv4"
}
layer {
  name: "conv5"
  type: "Convolution"
  bottom: "conv4"
  top: "conv5"
  param {
    lr_mult: 1
    decay_mult: 1
  }
  param {
    lr_mult: 2
    decay_mult: 0
  }
  convolution_param {
    num_output: 256
    pad: 1
    kernel_size: 3
    group: 2
    weight_filler {
      type: "xavier"
    }
    bias_filler {
      type: "constant"
      value: 1
    }
  }
}
layer {
  name: "relu5"
  type: "ReLU"
  bottom: "conv5"
  top: "conv5"
}
layer {
  name: "pool5"
  type: "Pooling"
  bottom: "conv5"
  top: "pool5"
  pooling_param {
    pool: MAX
    kernel_size: 3
    stride: 2
  }
}
layer {
  name: "fc6"
  type: "InnerProduct"
  bottom: "pool5"
  top: "fc6"
  param {
    lr_mult: 1
    decay_mult: 1
  }
  param {
    lr_mult: 2
    decay_mult: 0
  }
  inner_product_param {
    num_output: 4096
    weight_filler {
      type: "xavier"
    }
    bias_filler {
      type: "constant"
      value: 1
    }
  }
}
layer {
  name: "relu6"
  type: "ReLU"
  bottom: "fc6"
  top: "fc6"
}
layer {
  name: "drop6"
  type: "Dropout"
  bottom: "fc6"
  top: "fc6"
  dropout_param {
    dropout_ratio: 0.5
  }
}
layer {
  name: "fc7"
  type: "InnerProduct"
  bottom: "fc6"
  top: "fc7"
  param {
    lr_mult: 1
    decay_mult: 1
  }
  param {
    lr_mult: 2
    decay_mult: 0
  }
  inner_product_param {
    num_output: 4096
    weight_filler {
      type: "xavier"
    }
    bias_filler {
      type: "constant"
      value: 1
    }
  }
}
layer {
  name: "relu7"
  type: "ReLU"
  bottom: "fc7"
  top: "fc7"
}
layer {
  name: "drop7"
  type: "Dropout"
  bottom: "fc7"
  top: "fc7"
  dropout_param {
    dropout_ratio: 0.5
  }
}
layer {
  name: "fc8"
  type: "InnerProduct"
  bottom: "fc7"
  top: "fc8"
  param {
    lr_mult: 1
    decay_mult: 1
  }
  param {
    lr_mult: 2
    decay_mult: 0
  }
  inner_product_param {
    num_output: 43
    weight_filler {
      type: "xavier"
    }
    bias_filler {
      type: "constant"
      value: 0
    }
  }
}
layer {
  name: "loss"
  type: "SoftmaxWithLoss"
  bottom: "fc8"
  bottom: "label"
  top: "loss"
}
I0512 15:13:40.966612 23903 layer_factory.hpp:77] Creating layer data
I0512 15:13:40.966696 23903 db_lmdb.cpp:35] Opened lmdb /home/user1/GTSRB/input/train_lmdb_224
I0512 15:13:40.966717 23903 net.cpp:84] Creating Layer data
I0512 15:13:40.966724 23903 net.cpp:380] data -> data
I0512 15:13:40.966739 23903 net.cpp:380] data -> label
I0512 15:13:40.966749 23903 data_transformer.cpp:25] Loading mean file from: /home/user1/GTSRB/input/mean_224.binaryproto
I0512 15:13:40.968690 23903 data_layer.cpp:45] output data size: 512,3,224,224
I0512 15:13:41.297855 23903 net.cpp:122] Setting up data
I0512 15:13:41.297873 23903 net.cpp:129] Top shape: 512 3 224 224 (77070336)
I0512 15:13:41.297876 23903 net.cpp:129] Top shape: 512 (512)
I0512 15:13:41.297878 23903 net.cpp:137] Memory required for data: 308283392
I0512 15:13:41.297886 23903 layer_factory.hpp:77] Creating layer conv1
I0512 15:13:41.297899 23903 net.cpp:84] Creating Layer conv1
I0512 15:13:41.297904 23903 net.cpp:406] conv1 <- data
I0512 15:13:41.297914 23903 net.cpp:380] conv1 -> conv1
I0512 15:13:41.574491 23903 net.cpp:122] Setting up conv1
I0512 15:13:41.574512 23903 net.cpp:129] Top shape: 512 96 54 54 (143327232)
I0512 15:13:41.574515 23903 net.cpp:137] Memory required for data: 881592320
I0512 15:13:41.574532 23903 layer_factory.hpp:77] Creating layer relu1
I0512 15:13:41.574540 23903 net.cpp:84] Creating Layer relu1
I0512 15:13:41.574542 23903 net.cpp:406] relu1 <- conv1
I0512 15:13:41.574548 23903 net.cpp:367] relu1 -> conv1 (in-place)
I0512 15:13:41.574689 23903 net.cpp:122] Setting up relu1
I0512 15:13:41.574697 23903 net.cpp:129] Top shape: 512 96 54 54 (143327232)
I0512 15:13:41.574699 23903 net.cpp:137] Memory required for data: 1454901248
I0512 15:13:41.574702 23903 layer_factory.hpp:77] Creating layer pool1
I0512 15:13:41.574707 23903 net.cpp:84] Creating Layer pool1
I0512 15:13:41.574709 23903 net.cpp:406] pool1 <- conv1
I0512 15:13:41.574712 23903 net.cpp:380] pool1 -> pool1
I0512 15:13:41.574753 23903 net.cpp:122] Setting up pool1
I0512 15:13:41.574759 23903 net.cpp:129] Top shape: 512 96 27 27 (35831808)
I0512 15:13:41.574760 23903 net.cpp:137] Memory required for data: 1598228480
I0512 15:13:41.574762 23903 layer_factory.hpp:77] Creating layer norm1
I0512 15:13:41.574769 23903 net.cpp:84] Creating Layer norm1
I0512 15:13:41.574784 23903 net.cpp:406] norm1 <- pool1
I0512 15:13:41.574786 23903 net.cpp:380] norm1 -> norm1
I0512 15:13:41.575374 23903 net.cpp:122] Setting up norm1
I0512 15:13:41.575382 23903 net.cpp:129] Top shape: 512 96 27 27 (35831808)
I0512 15:13:41.575386 23903 net.cpp:137] Memory required for data: 1741555712
I0512 15:13:41.575387 23903 layer_factory.hpp:77] Creating layer conv2
I0512 15:13:41.575395 23903 net.cpp:84] Creating Layer conv2
I0512 15:13:41.575397 23903 net.cpp:406] conv2 <- norm1
I0512 15:13:41.575402 23903 net.cpp:380] conv2 -> conv2
I0512 15:13:41.577785 23903 net.cpp:122] Setting up conv2
I0512 15:13:41.577793 23903 net.cpp:129] Top shape: 512 256 27 27 (95551488)
I0512 15:13:41.577795 23903 net.cpp:137] Memory required for data: 2123761664
I0512 15:13:41.577801 23903 layer_factory.hpp:77] Creating layer relu2
I0512 15:13:41.577805 23903 net.cpp:84] Creating Layer relu2
I0512 15:13:41.577807 23903 net.cpp:406] relu2 <- conv2
I0512 15:13:41.577812 23903 net.cpp:367] relu2 -> conv2 (in-place)
I0512 15:13:41.578361 23903 net.cpp:122] Setting up relu2
I0512 15:13:41.578368 23903 net.cpp:129] Top shape: 512 256 27 27 (95551488)
I0512 15:13:41.578372 23903 net.cpp:137] Memory required for data: 2505967616
I0512 15:13:41.578373 23903 layer_factory.hpp:77] Creating layer pool2
I0512 15:13:41.578377 23903 net.cpp:84] Creating Layer pool2
I0512 15:13:41.578378 23903 net.cpp:406] pool2 <- conv2
I0512 15:13:41.578382 23903 net.cpp:380] pool2 -> pool2
I0512 15:13:41.578413 23903 net.cpp:122] Setting up pool2
I0512 15:13:41.578418 23903 net.cpp:129] Top shape: 512 256 13 13 (22151168)
I0512 15:13:41.578418 23903 net.cpp:137] Memory required for data: 2594572288
I0512 15:13:41.578421 23903 layer_factory.hpp:77] Creating layer norm2
I0512 15:13:41.578425 23903 net.cpp:84] Creating Layer norm2
I0512 15:13:41.578428 23903 net.cpp:406] norm2 <- pool2
I0512 15:13:41.578430 23903 net.cpp:380] norm2 -> norm2
I0512 15:13:41.578554 23903 net.cpp:122] Setting up norm2
I0512 15:13:41.578560 23903 net.cpp:129] Top shape: 512 256 13 13 (22151168)
I0512 15:13:41.578562 23903 net.cpp:137] Memory required for data: 2683176960
I0512 15:13:41.578564 23903 layer_factory.hpp:77] Creating layer conv3
I0512 15:13:41.578570 23903 net.cpp:84] Creating Layer conv3
I0512 15:13:41.578572 23903 net.cpp:406] conv3 <- norm2
I0512 15:13:41.578577 23903 net.cpp:380] conv3 -> conv3
I0512 15:13:41.584043 23903 net.cpp:122] Setting up conv3
I0512 15:13:41.584058 23903 net.cpp:129] Top shape: 512 384 13 13 (33226752)
I0512 15:13:41.584060 23903 net.cpp:137] Memory required for data: 2816083968
I0512 15:13:41.584069 23903 layer_factory.hpp:77] Creating layer relu3
I0512 15:13:41.584074 23903 net.cpp:84] Creating Layer relu3
I0512 15:13:41.584076 23903 net.cpp:406] relu3 <- conv3
I0512 15:13:41.584080 23903 net.cpp:367] relu3 -> conv3 (in-place)
I0512 15:13:41.584205 23903 net.cpp:122] Setting up relu3
I0512 15:13:41.584211 23903 net.cpp:129] Top shape: 512 384 13 13 (33226752)
I0512 15:13:41.584213 23903 net.cpp:137] Memory required for data: 2948990976
I0512 15:13:41.584216 23903 layer_factory.hpp:77] Creating layer conv4
I0512 15:13:41.584223 23903 net.cpp:84] Creating Layer conv4
I0512 15:13:41.584224 23903 net.cpp:406] conv4 <- conv3
I0512 15:13:41.584228 23903 net.cpp:380] conv4 -> conv4
I0512 15:13:41.589910 23903 net.cpp:122] Setting up conv4
I0512 15:13:41.589926 23903 net.cpp:129] Top shape: 512 384 13 13 (33226752)
I0512 15:13:41.589929 23903 net.cpp:137] Memory required for data: 3081897984
I0512 15:13:41.589934 23903 layer_factory.hpp:77] Creating layer relu4
I0512 15:13:41.589941 23903 net.cpp:84] Creating Layer relu4
I0512 15:13:41.589943 23903 net.cpp:406] relu4 <- conv4
I0512 15:13:41.589948 23903 net.cpp:367] relu4 -> conv4 (in-place)
I0512 15:13:41.590071 23903 net.cpp:122] Setting up relu4
I0512 15:13:41.590077 23903 net.cpp:129] Top shape: 512 384 13 13 (33226752)
I0512 15:13:41.590080 23903 net.cpp:137] Memory required for data: 3214804992
I0512 15:13:41.590081 23903 layer_factory.hpp:77] Creating layer conv5
I0512 15:13:41.590101 23903 net.cpp:84] Creating Layer conv5
I0512 15:13:41.590103 23903 net.cpp:406] conv5 <- conv4
I0512 15:13:41.590107 23903 net.cpp:380] conv5 -> conv5
I0512 15:13:41.594413 23903 net.cpp:122] Setting up conv5
I0512 15:13:41.594427 23903 net.cpp:129] Top shape: 512 256 13 13 (22151168)
I0512 15:13:41.594429 23903 net.cpp:137] Memory required for data: 3303409664
I0512 15:13:41.594437 23903 layer_factory.hpp:77] Creating layer relu5
I0512 15:13:41.594442 23903 net.cpp:84] Creating Layer relu5
I0512 15:13:41.594444 23903 net.cpp:406] relu5 <- conv5
I0512 15:13:41.594449 23903 net.cpp:367] relu5 -> conv5 (in-place)
I0512 15:13:41.594568 23903 net.cpp:122] Setting up relu5
I0512 15:13:41.594575 23903 net.cpp:129] Top shape: 512 256 13 13 (22151168)
I0512 15:13:41.594578 23903 net.cpp:137] Memory required for data: 3392014336
I0512 15:13:41.594578 23903 layer_factory.hpp:77] Creating layer pool5
I0512 15:13:41.594583 23903 net.cpp:84] Creating Layer pool5
I0512 15:13:41.594584 23903 net.cpp:406] pool5 <- conv5
I0512 15:13:41.594589 23903 net.cpp:380] pool5 -> pool5
I0512 15:13:41.594622 23903 net.cpp:122] Setting up pool5
I0512 15:13:41.594627 23903 net.cpp:129] Top shape: 512 256 6 6 (4718592)
I0512 15:13:41.594630 23903 net.cpp:137] Memory required for data: 3410888704
I0512 15:13:41.594631 23903 layer_factory.hpp:77] Creating layer fc6
I0512 15:13:41.594640 23903 net.cpp:84] Creating Layer fc6
I0512 15:13:41.594641 23903 net.cpp:406] fc6 <- pool5
I0512 15:13:41.594645 23903 net.cpp:380] fc6 -> fc6
I0512 15:13:41.758785 23903 net.cpp:122] Setting up fc6
I0512 15:13:41.758801 23903 net.cpp:129] Top shape: 512 4096 (2097152)
I0512 15:13:41.758803 23903 net.cpp:137] Memory required for data: 3419277312
I0512 15:13:41.758810 23903 layer_factory.hpp:77] Creating layer relu6
I0512 15:13:41.758816 23903 net.cpp:84] Creating Layer relu6
I0512 15:13:41.758818 23903 net.cpp:406] relu6 <- fc6
I0512 15:13:41.758822 23903 net.cpp:367] relu6 -> fc6 (in-place)
I0512 15:13:41.759719 23903 net.cpp:122] Setting up relu6
I0512 15:13:41.759728 23903 net.cpp:129] Top shape: 512 4096 (2097152)
I0512 15:13:41.759730 23903 net.cpp:137] Memory required for data: 3427665920
I0512 15:13:41.759732 23903 layer_factory.hpp:77] Creating layer drop6
I0512 15:13:41.759737 23903 net.cpp:84] Creating Layer drop6
I0512 15:13:41.759738 23903 net.cpp:406] drop6 <- fc6
I0512 15:13:41.759742 23903 net.cpp:367] drop6 -> fc6 (in-place)
I0512 15:13:41.759764 23903 net.cpp:122] Setting up drop6
I0512 15:13:41.759769 23903 net.cpp:129] Top shape: 512 4096 (2097152)
I0512 15:13:41.759771 23903 net.cpp:137] Memory required for data: 3436054528
I0512 15:13:41.759773 23903 layer_factory.hpp:77] Creating layer fc7
I0512 15:13:41.759780 23903 net.cpp:84] Creating Layer fc7
I0512 15:13:41.759783 23903 net.cpp:406] fc7 <- fc6
I0512 15:13:41.759785 23903 net.cpp:380] fc7 -> fc7
I0512 15:13:41.832396 23903 net.cpp:122] Setting up fc7
I0512 15:13:41.832417 23903 net.cpp:129] Top shape: 512 4096 (2097152)
I0512 15:13:41.832419 23903 net.cpp:137] Memory required for data: 3444443136
I0512 15:13:41.832425 23903 layer_factory.hpp:77] Creating layer relu7
I0512 15:13:41.832432 23903 net.cpp:84] Creating Layer relu7
I0512 15:13:41.832433 23903 net.cpp:406] relu7 <- fc7
I0512 15:13:41.832437 23903 net.cpp:367] relu7 -> fc7 (in-place)
I0512 15:13:41.832590 23903 net.cpp:122] Setting up relu7
I0512 15:13:41.832597 23903 net.cpp:129] Top shape: 512 4096 (2097152)
I0512 15:13:41.832598 23903 net.cpp:137] Memory required for data: 3452831744
I0512 15:13:41.832600 23903 layer_factory.hpp:77] Creating layer drop7
I0512 15:13:41.832604 23903 net.cpp:84] Creating Layer drop7
I0512 15:13:41.832607 23903 net.cpp:406] drop7 <- fc7
I0512 15:13:41.832609 23903 net.cpp:367] drop7 -> fc7 (in-place)
I0512 15:13:41.832628 23903 net.cpp:122] Setting up drop7
I0512 15:13:41.832633 23903 net.cpp:129] Top shape: 512 4096 (2097152)
I0512 15:13:41.832638 23903 net.cpp:137] Memory required for data: 3461220352
I0512 15:13:41.832639 23903 layer_factory.hpp:77] Creating layer fc8
I0512 15:13:41.832648 23903 net.cpp:84] Creating Layer fc8
I0512 15:13:41.832661 23903 net.cpp:406] fc8 <- fc7
I0512 15:13:41.832666 23903 net.cpp:380] fc8 -> fc8
I0512 15:13:41.833927 23903 net.cpp:122] Setting up fc8
I0512 15:13:41.833935 23903 net.cpp:129] Top shape: 512 43 (22016)
I0512 15:13:41.833938 23903 net.cpp:137] Memory required for data: 3461308416
I0512 15:13:41.833941 23903 layer_factory.hpp:77] Creating layer loss
I0512 15:13:41.833945 23903 net.cpp:84] Creating Layer loss
I0512 15:13:41.833947 23903 net.cpp:406] loss <- fc8
I0512 15:13:41.833950 23903 net.cpp:406] loss <- label
I0512 15:13:41.833956 23903 net.cpp:380] loss -> loss
I0512 15:13:41.833964 23903 layer_factory.hpp:77] Creating layer loss
…
I0512 15:13:41.834442 23903 net.cpp:294] The NetState phase (1) differed from the phase (0) specified by a rule in layer data
I0512 15:13:41.834545 23903 net.cpp:51] Initializing net from parameters: 
name: "CaffeNet"
state {
  phase: TEST
}
layer {
  name: "data"
  type: "Data"
  top: "data"
  top: "label"
  include {
    phase: TEST
  }
  transform_param {
    mirror: false
    crop_size: 224
    mean_file: "/home/user1/GTSRB/input/mean_224.binaryproto"
  }
  data_param {
    source: "/home/user1/GTSRB/input/validation_lmdb_224"
    batch_size: 256
    backend: LMDB
  }
}
layer {
  name: "conv1"
  type: "Convolution"
  bottom: "data"
  top: "conv1"
  param {
    lr_mult: 1
    decay_mult: 1
  }
  param {
    lr_mult: 2
    decay_mult: 0
  }
  convolution_param {
    num_output: 96
    kernel_size: 11
    stride: 4
    weight_filler {
      type: "xavier"
    }
    bias_filler {
      type: "constant"
      value: 0
    }
  }
}
layer {
  name: "relu1"
  type: "ReLU"
  bottom: "conv1"
  top: "conv1"
}
layer {
  name: "pool1"
  type: "Pooling"
  bottom: "conv1"
  top: "pool1"
  pooling_param {
    pool: MAX
    kernel_size: 3
    stride: 2
  }
}
layer {
  name: "norm1"
  type: "LRN"
  bottom: "pool1"
  top: "norm1"
  lrn_param {
    local_size: 5
    alpha: 0.0001
    beta: 0.75
  }
}
layer {
  name: "conv2"
  type: "Convolution"
  bottom: "norm1"
  top: "conv2"
  param {
    lr_mult: 1
    decay_mult: 1
  }
  param {
    lr_mult: 2
    decay_mult: 0
  }
  convolution_param {
    num_output: 256
    pad: 2
    kernel_size: 5
    group: 2
    weight_filler {
      type: "xavier"
    }
    bias_filler {
      type: "constant"
      value: 1
    }
  }
}
layer {
  name: "relu2"
  type: "ReLU"
  bottom: "conv2"
  top: "conv2"
}
layer {
  name: "pool2"
  type: "Pooling"
  bottom: "conv2"
  top: "pool2"
  pooling_param {
    pool: MAX
    kernel_size: 3
    stride: 2
  }
}
layer {
  name: "norm2"
  type: "LRN"
  bottom: "pool2"
  top: "norm2"
  lrn_param {
    local_size: 5
    alpha: 0.0001
    beta: 0.75
  }
}
layer {
  name: "conv3"
  type: "Convolution"
  bottom: "norm2"
  top: "conv3"
  param {
    lr_mult: 1
    decay_mult: 1
  }
  param {
    lr_mult: 2
    decay_mult: 0
  }
  convolution_param {
    num_output: 384
    pad: 1
    kernel_size: 3
    weight_filler {
      type: "xavier"
    }
    bias_filler {
      type: "constant"
      value: 0
    }
  }
}
layer {
  name: "relu3"
  type: "ReLU"
  bottom: "conv3"
  top: "conv3"
}
layer {
  name: "conv4"
  type: "Convolution"
  bottom: "conv3"
  top: "conv4"
  param {
    lr_mult: 1
    decay_mult: 1
  }
  param {
    lr_mult: 2
    decay_mult: 0
  }
  convolution_param {
    num_output: 384
    pad: 1
    kernel_size: 3
    group: 2
    weight_filler {
      type: "xavier"
    }
    bias_filler {
      type: "constant"
      value: 1
    }
  }
}
layer {
  name: "relu4"
  type: "ReLU"
  bottom: "conv4"
  top: "conv4"
}
layer {
  name: "conv5"
  type: "Convolution"
  bottom: "conv4"
  top: "conv5"
  param {
    lr_mult: 1
    decay_mult: 1
  }
  param {
    lr_mult: 2
    decay_mult: 0
  }
  convolution_param {
    num_output: 256
    pad: 1
    kernel_size: 3
    group: 2
    weight_filler {
      type: "xavier"
    }
    bias_filler {
      type: "constant"
      value: 1
    }
  }
}
layer {
  name: "relu5"
  type: "ReLU"
  bottom: "conv5"
  top: "conv5"
}
layer {
  name: "pool5"
  type: "Pooling"
  bottom: "conv5"
  top: "pool5"
  pooling_param {
    pool: MAX
    kernel_size: 3
    stride: 2
  }
}
layer {
  name: "fc6"
  type: "InnerProduct"
  bottom: "pool5"
  top: "fc6"
  param {
    lr_mult: 1
    decay_mult: 1
  }
  param {
    lr_mult: 2
    decay_mult: 0
  }
  inner_product_param {
    num_output: 4096
    weight_filler {
      type: "xavier"
    }
    bias_filler {
      type: "constant"
      value: 1
    }
  }
}
layer {
  name: "relu6"
  type: "ReLU"
  bottom: "fc6"
  top: "fc6"
}
layer {
  name: "drop6"
  type: "Dropout"
  bottom: "fc6"
  top: "fc6"
  dropout_param {
    dropout_ratio: 0.5
  }
}
layer {
  name: "fc7"
  type: "InnerProduct"
  bottom: "fc6"
  top: "fc7"
  param {
    lr_mult: 1
    decay_mult: 1
  }
  param {
    lr_mult: 2
    decay_mult: 0
  }
  inner_product_param {
    num_output: 4096
    weight_filler {
      type: "xavier"
    }
    bias_filler {
      type: "constant"
      value: 1
    }
  }
}
layer {
  name: "relu7"
  type: "ReLU"
  bottom: "fc7"
  top: "fc7"
}
layer {
  name: "drop7"
  type: "Dropout"
  bottom: "fc7"
  top: "fc7"
  dropout_param {
    dropout_ratio: 0.5
  }
}
layer {
  name: "fc8"
  type: "InnerProduct"
  bottom: "fc7"
  top: "fc8"
  param {
    lr_mult: 1
    decay_mult: 1
  }
  param {
    lr_mult: 2
    decay_mult: 0
  }
  inner_product_param {
    num_output: 43
    weight_filler {
      type: "xavier"
    }
    bias_filler {
      type: "constant"
      value: 0
    }
  }
}
layer {
  name: "accuracy"
  type: "Accuracy"
  bottom: "fc8"
  bottom: "label"
  top: "accuracy"
  include {
    phase: TEST
  }
}
layer {
  name: "loss"
  type: "SoftmaxWithLoss"
  bottom: "fc8"
  bottom: "label"
  top: "loss"
}
I0512 15:13:41.834619 23903 layer_factory.hpp:77] Creating layer data
I0512 15:13:41.834661 23903 db_lmdb.cpp:35] Opened lmdb /home/user1/GTSRB/input/validation_lmdb_224
I0512 15:13:41.834673 23903 net.cpp:84] Creating Layer data
I0512 15:13:41.834679 23903 net.cpp:380] data -> data
I0512 15:13:41.834686 23903 net.cpp:380] data -> label
I0512 15:13:41.834692 23903 data_transformer.cpp:25] Loading mean file from: /home/user1/GTSRB/input/mean_224.binaryproto
I0512 15:13:41.835546 23903 data_layer.cpp:45] output data size: 256,3,224,224
I0512 15:13:42.001493 23903 net.cpp:122] Setting up data
I0512 15:13:42.001512 23903 net.cpp:129] Top shape: 256 3 224 224 (38535168)
I0512 15:13:42.001515 23903 net.cpp:129] Top shape: 256 (256)
I0512 15:13:42.001516 23903 net.cpp:137] Memory required for data: 154141696
I0512 15:13:42.001521 23903 layer_factory.hpp:77] Creating layer label_data_1_split
I0512 15:13:42.001529 23903 net.cpp:84] Creating Layer label_data_1_split
I0512 15:13:42.001531 23903 net.cpp:406] label_data_1_split <- label
I0512 15:13:42.001538 23903 net.cpp:380] label_data_1_split -> label_data_1_split_0
I0512 15:13:42.001543 23903 net.cpp:380] label_data_1_split -> label_data_1_split_1
I0512 15:13:42.001585 23903 net.cpp:122] Setting up label_data_1_split
I0512 15:13:42.001590 23903 net.cpp:129] Top shape: 256 (256)
I0512 15:13:42.001591 23903 net.cpp:129] Top shape: 256 (256)
I0512 15:13:42.001593 23903 net.cpp:137] Memory required for data: 154143744
I0512 15:13:42.001595 23903 layer_factory.hpp:77] Creating layer conv1
I0512 15:13:42.001601 23903 net.cpp:84] Creating Layer conv1
I0512 15:13:42.001602 23903 net.cpp:406] conv1 <- data
I0512 15:13:42.001606 23903 net.cpp:380] conv1 -> conv1
I0512 15:13:42.014605 23903 net.cpp:122] Setting up conv1
I0512 15:13:42.014621 23903 net.cpp:129] Top shape: 256 96 54 54 (71663616)
I0512 15:13:42.014623 23903 net.cpp:137] Memory required for data: 440798208
I0512 15:13:42.014631 23903 layer_factory.hpp:77] Creating layer relu1
I0512 15:13:42.014636 23903 net.cpp:84] Creating Layer relu1
I0512 15:13:42.014639 23903 net.cpp:406] relu1 <- conv1
I0512 15:13:42.014642 23903 net.cpp:367] relu1 -> conv1 (in-place)
I0512 15:13:42.014751 23903 net.cpp:122] Setting up relu1
I0512 15:13:42.014757 23903 net.cpp:129] Top shape: 256 96 54 54 (71663616)
I0512 15:13:42.014760 23903 net.cpp:137] Memory required for data: 727452672
I0512 15:13:42.014761 23903 layer_factory.hpp:77] Creating layer pool1
I0512 15:13:42.014766 23903 net.cpp:84] Creating Layer pool1
I0512 15:13:42.014768 23903 net.cpp:406] pool1 <- conv1
I0512 15:13:42.014772 23903 net.cpp:380] pool1 -> pool1
I0512 15:13:42.014801 23903 net.cpp:122] Setting up pool1
I0512 15:13:42.014806 23903 net.cpp:129] Top shape: 256 96 27 27 (17915904)
I0512 15:13:42.014807 23903 net.cpp:137] Memory required for data: 799116288
I0512 15:13:42.014809 23903 layer_factory.hpp:77] Creating layer norm1
I0512 15:13:42.014812 23903 net.cpp:84] Creating Layer norm1
I0512 15:13:42.014814 23903 net.cpp:406] norm1 <- pool1
I0512 15:13:42.014816 23903 net.cpp:380] norm1 -> norm1
I0512 15:13:42.015409 23903 net.cpp:122] Setting up norm1
I0512 15:13:42.015417 23903 net.cpp:129] Top shape: 256 96 27 27 (17915904)
I0512 15:13:42.015419 23903 net.cpp:137] Memory required for data: 870779904
I0512 15:13:42.015421 23903 layer_factory.hpp:77] Creating layer conv2
I0512 15:13:42.015429 23903 net.cpp:84] Creating Layer conv2
I0512 15:13:42.015430 23903 net.cpp:406] conv2 <- norm1
I0512 15:13:42.015434 23903 net.cpp:380] conv2 -> conv2
I0512 15:13:42.018329 23903 net.cpp:122] Setting up conv2
I0512 15:13:42.018340 23903 net.cpp:129] Top shape: 256 256 27 27 (47775744)
I0512 15:13:42.018342 23903 net.cpp:137] Memory required for data: 1061882880
I0512 15:13:42.018348 23903 layer_factory.hpp:77] Creating layer relu2
I0512 15:13:42.018353 23903 net.cpp:84] Creating Layer relu2
I0512 15:13:42.018355 23903 net.cpp:406] relu2 <- conv2
I0512 15:13:42.018358 23903 net.cpp:367] relu2 -> conv2 (in-place)
I0512 15:13:42.018893 23903 net.cpp:122] Setting up relu2
I0512 15:13:42.018910 23903 net.cpp:129] Top shape: 256 256 27 27 (47775744)
I0512 15:13:42.018913 23903 net.cpp:137] Memory required for data: 1252985856
I0512 15:13:42.018914 23903 layer_factory.hpp:77] Creating layer pool2
I0512 15:13:42.018919 23903 net.cpp:84] Creating Layer pool2
I0512 15:13:42.018921 23903 net.cpp:406] pool2 <- conv2
I0512 15:13:42.018925 23903 net.cpp:380] pool2 -> pool2
I0512 15:13:42.018954 23903 net.cpp:122] Setting up pool2
I0512 15:13:42.018959 23903 net.cpp:129] Top shape: 256 256 13 13 (11075584)
I0512 15:13:42.018961 23903 net.cpp:137] Memory required for data: 1297288192
I0512 15:13:42.018963 23903 layer_factory.hpp:77] Creating layer norm2
I0512 15:13:42.018966 23903 net.cpp:84] Creating Layer norm2
I0512 15:13:42.018968 23903 net.cpp:406] norm2 <- pool2
I0512 15:13:42.018971 23903 net.cpp:380] norm2 -> norm2
I0512 15:13:42.019090 23903 net.cpp:122] Setting up norm2
I0512 15:13:42.019095 23903 net.cpp:129] Top shape: 256 256 13 13 (11075584)
I0512 15:13:42.019096 23903 net.cpp:137] Memory required for data: 1341590528
I0512 15:13:42.019098 23903 layer_factory.hpp:77] Creating layer conv3
I0512 15:13:42.019104 23903 net.cpp:84] Creating Layer conv3
I0512 15:13:42.019106 23903 net.cpp:406] conv3 <- norm2
I0512 15:13:42.019109 23903 net.cpp:380] conv3 -> conv3
I0512 15:13:42.024479 23903 net.cpp:122] Setting up conv3
I0512 15:13:42.024494 23903 net.cpp:129] Top shape: 256 384 13 13 (16613376)
I0512 15:13:42.024497 23903 net.cpp:137] Memory required for data: 1408044032
I0512 15:13:42.024504 23903 layer_factory.hpp:77] Creating layer relu3
I0512 15:13:42.024510 23903 net.cpp:84] Creating Layer relu3
I0512 15:13:42.024513 23903 net.cpp:406] relu3 <- conv3
I0512 15:13:42.024516 23903 net.cpp:367] relu3 -> conv3 (in-place)
I0512 15:13:42.024632 23903 net.cpp:122] Setting up relu3
I0512 15:13:42.024638 23903 net.cpp:129] Top shape: 256 384 13 13 (16613376)
I0512 15:13:42.024641 23903 net.cpp:137] Memory required for data: 1474497536
I0512 15:13:42.024642 23903 layer_factory.hpp:77] Creating layer conv4
I0512 15:13:42.024648 23903 net.cpp:84] Creating Layer conv4
I0512 15:13:42.024651 23903 net.cpp:406] conv4 <- conv3
I0512 15:13:42.024653 23903 net.cpp:380] conv4 -> conv4
I0512 15:13:42.030061 23903 net.cpp:122] Setting up conv4
I0512 15:13:42.030076 23903 net.cpp:129] Top shape: 256 384 13 13 (16613376)
I0512 15:13:42.030077 23903 net.cpp:137] Memory required for data: 1540951040
I0512 15:13:42.030084 23903 layer_factory.hpp:77] Creating layer relu4
I0512 15:13:42.030091 23903 net.cpp:84] Creating Layer relu4
I0512 15:13:42.030094 23903 net.cpp:406] relu4 <- conv4
I0512 15:13:42.030099 23903 net.cpp:367] relu4 -> conv4 (in-place)
I0512 15:13:42.030230 23903 net.cpp:122] Setting up relu4
I0512 15:13:42.030236 23903 net.cpp:129] Top shape: 256 384 13 13 (16613376)
I0512 15:13:42.030238 23903 net.cpp:137] Memory required for data: 1607404544
I0512 15:13:42.030241 23903 layer_factory.hpp:77] Creating layer conv5
I0512 15:13:42.030246 23903 net.cpp:84] Creating Layer conv5
I0512 15:13:42.030248 23903 net.cpp:406] conv5 <- conv4
I0512 15:13:42.030253 23903 net.cpp:380] conv5 -> conv5
I0512 15:13:42.035286 23903 net.cpp:122] Setting up conv5
I0512 15:13:42.035302 23903 net.cpp:129] Top shape: 256 256 13 13 (11075584)
I0512 15:13:42.035305 23903 net.cpp:137] Memory required for data: 1651706880
I0512 15:13:42.035315 23903 layer_factory.hpp:77] Creating layer relu5
I0512 15:13:42.035321 23903 net.cpp:84] Creating Layer relu5
I0512 15:13:42.035325 23903 net.cpp:406] relu5 <- conv5
I0512 15:13:42.035328 23903 net.cpp:367] relu5 -> conv5 (in-place)
I0512 15:13:42.035447 23903 net.cpp:122] Setting up relu5
I0512 15:13:42.035454 23903 net.cpp:129] Top shape: 256 256 13 13 (11075584)
I0512 15:13:42.035455 23903 net.cpp:137] Memory required for data: 1696009216
I0512 15:13:42.035457 23903 layer_factory.hpp:77] Creating layer pool5
I0512 15:13:42.035464 23903 net.cpp:84] Creating Layer pool5
I0512 15:13:42.035465 23903 net.cpp:406] pool5 <- conv5
I0512 15:13:42.035468 23903 net.cpp:380] pool5 -> pool5
I0512 15:13:42.035503 23903 net.cpp:122] Setting up pool5
I0512 15:13:42.035517 23903 net.cpp:129] Top shape: 256 256 6 6 (2359296)
I0512 15:13:42.035519 23903 net.cpp:137] Memory required for data: 1705446400
I0512 15:13:42.035521 23903 layer_factory.hpp:77] Creating layer fc6
I0512 15:13:42.035526 23903 net.cpp:84] Creating Layer fc6
I0512 15:13:42.035528 23903 net.cpp:406] fc6 <- pool5
I0512 15:13:42.035531 23903 net.cpp:380] fc6 -> fc6
I0512 15:13:42.202090 23903 net.cpp:122] Setting up fc6
I0512 15:13:42.202107 23903 net.cpp:129] Top shape: 256 4096 (1048576)
I0512 15:13:42.202111 23903 net.cpp:137] Memory required for data: 1709640704
I0512 15:13:42.202116 23903 layer_factory.hpp:77] Creating layer relu6
I0512 15:13:42.202122 23903 net.cpp:84] Creating Layer relu6
I0512 15:13:42.202126 23903 net.cpp:406] relu6 <- fc6
I0512 15:13:42.202129 23903 net.cpp:367] relu6 -> fc6 (in-place)
I0512 15:13:42.202281 23903 net.cpp:122] Setting up relu6
I0512 15:13:42.202286 23903 net.cpp:129] Top shape: 256 4096 (1048576)
I0512 15:13:42.202288 23903 net.cpp:137] Memory required for data: 1713835008
I0512 15:13:42.202291 23903 layer_factory.hpp:77] Creating layer drop6
I0512 15:13:42.202294 23903 net.cpp:84] Creating Layer drop6
I0512 15:13:42.202296 23903 net.cpp:406] drop6 <- fc6
I0512 15:13:42.202299 23903 net.cpp:367] drop6 -> fc6 (in-place)
I0512 15:13:42.202316 23903 net.cpp:122] Setting up drop6
I0512 15:13:42.202319 23903 net.cpp:129] Top shape: 256 4096 (1048576)
I0512 15:13:42.202320 23903 net.cpp:137] Memory required for data: 1718029312
I0512 15:13:42.202322 23903 layer_factory.hpp:77] Creating layer fc7
I0512 15:13:42.202327 23903 net.cpp:84] Creating Layer fc7
I0512 15:13:42.202330 23903 net.cpp:406] fc7 <- fc6
I0512 15:13:42.202333 23903 net.cpp:380] fc7 -> fc7
I0512 15:13:42.276470 23903 net.cpp:122] Setting up fc7
I0512 15:13:42.276487 23903 net.cpp:129] Top shape: 256 4096 (1048576)
I0512 15:13:42.276490 23903 net.cpp:137] Memory required for data: 1722223616
I0512 15:13:42.276496 23903 layer_factory.hpp:77] Creating layer relu7
I0512 15:13:42.276501 23903 net.cpp:84] Creating Layer relu7
I0512 15:13:42.276504 23903 net.cpp:406] relu7 <- fc7
I0512 15:13:42.276509 23903 net.cpp:367] relu7 -> fc7 (in-place)
I0512 15:13:42.277174 23903 net.cpp:122] Setting up relu7
I0512 15:13:42.277182 23903 net.cpp:129] Top shape: 256 4096 (1048576)
I0512 15:13:42.277184 23903 net.cpp:137] Memory required for data: 1726417920
I0512 15:13:42.277186 23903 layer_factory.hpp:77] Creating layer drop7
I0512 15:13:42.277190 23903 net.cpp:84] Creating Layer drop7
I0512 15:13:42.277192 23903 net.cpp:406] drop7 <- fc7
I0512 15:13:42.277195 23903 net.cpp:367] drop7 -> fc7 (in-place)
I0512 15:13:42.277211 23903 net.cpp:122] Setting up drop7
I0512 15:13:42.277215 23903 net.cpp:129] Top shape: 256 4096 (1048576)
I0512 15:13:42.277216 23903 net.cpp:137] Memory required for data: 1730612224
I0512 15:13:42.277217 23903 layer_factory.hpp:77] Creating layer fc8
I0512 15:13:42.277222 23903 net.cpp:84] Creating Layer fc8
I0512 15:13:42.277225 23903 net.cpp:406] fc8 <- fc7
I0512 15:13:42.277228 23903 net.cpp:380] fc8 -> fc8
I0512 15:13:42.277948 23903 net.cpp:122] Setting up fc8
I0512 15:13:42.277954 23903 net.cpp:129] Top shape: 256 43 (11008)
I0512 15:13:42.277956 23903 net.cpp:137] Memory required for data: 1730656256
I0512 15:13:42.277959 23903 layer_factory.hpp:77] Creating layer fc8_fc8_0_split
I0512 15:13:42.277962 23903 net.cpp:84] Creating Layer fc8_fc8_0_split
I0512 15:13:42.277966 23903 net.cpp:406] fc8_fc8_0_split <- fc8
I0512 15:13:42.277967 23903 net.cpp:380] fc8_fc8_0_split -> fc8_fc8_0_split_0
I0512 15:13:42.277971 23903 net.cpp:380] fc8_fc8_0_split -> fc8_fc8_0_split_1
I0512 15:13:42.277993 23903 net.cpp:122] Setting up fc8_fc8_0_split
I0512 15:13:42.277997 23903 net.cpp:129] Top shape: 256 43 (11008)
I0512 15:13:42.277999 23903 net.cpp:129] Top shape: 256 43 (11008)
I0512 15:13:42.278000 23903 net.cpp:137] Memory required for data: 1730744320
I0512 15:13:42.278002 23903 layer_factory.hpp:77] Creating layer accuracy
I0512 15:13:42.278007 23903 net.cpp:84] Creating Layer accuracy
I0512 15:13:42.278018 23903 net.cpp:406] accuracy <- fc8_fc8_0_split_0
I0512 15:13:42.278022 23903 net.cpp:406] accuracy <- label_data_1_split_0
I0512 15:13:42.278025 23903 net.cpp:380] accuracy -> accuracy
…
