…
I0512 13:22:51.510056  4670 net.cpp:294] The NetState phase (0) differed from the phase (1) specified by a rule in layer accuracy
I0512 13:22:51.510154  4670 net.cpp:51] Initializing net from parameters: 
name: "CaffeNet"
state {
  phase: TRAIN
  level: 0
  stage: ""
}
layer {
  name: "data"
  type: "Data"
  top: "data"
  top: "label"
  include {
    phase: TRAIN
  }
  transform_param {
    mirror: false
    crop_size: 224
    mean_file: "/home/user1/GTSRB/input/mean_224_yuv.binaryproto"
  }
  data_param {
    source: "/home/user1/GTSRB/input/train_lmdb_224_yuv"
    batch_size: 224
    backend: LMDB
  }
}
layer {
  name: "conv1"
  type: "Convolution"
  bottom: "data"
  top: "conv1"
  param {
    lr_mult: 1
    decay_mult: 1
  }
  param {
    lr_mult: 2
    decay_mult: 0
  }
  convolution_param {
    num_output: 96
    kernel_size: 11
    stride: 4
    weight_filler {
      type: "xavier"
    }
    bias_filler {
      type: "constant"
      value: 0
    }
  }
}
layer {
  name: "relu1"
  type: "ReLU"
  bottom: "conv1"
  top: "conv1"
}
layer {
  name: "pool1"
  type: "Pooling"
  bottom: "conv1"
  top: "pool1"
  pooling_param {
    pool: MAX
    kernel_size: 3
    stride: 2
  }
}
layer {
  name: "norm1"
  type: "LRN"
  bottom: "pool1"
  top: "norm1"
  lrn_param {
    local_size: 5
    alpha: 0.0001
    beta: 0.75
  }
}
layer {
  name: "conv2"
  type: "Convolution"
  bottom: "norm1"
  top: "conv2"
  param {
    lr_mult: 1
    decay_mult: 1
  }
  param {
    lr_mult: 2
    decay_mult: 0
  }
  convolution_param {
    num_output: 256
    pad: 2
    kernel_size: 5
    group: 2
    weight_filler {
      type: "xavier"
    }
    bias_filler {
      type: "constant"
      value: 1
    }
  }
}
layer {
  name: "relu2"
  type: "ReLU"
  bottom: "conv2"
  top: "conv2"
}
layer {
  name: "pool2"
  type: "Pooling"
  bottom: "conv2"
  top: "pool2"
  pooling_param {
    pool: MAX
    kernel_size: 3
    stride: 2
  }
}
layer {
  name: "norm2"
  type: "LRN"
  bottom: "pool2"
  top: "norm2"
  lrn_param {
    local_size: 5
    alpha: 0.0001
    beta: 0.75
  }
}
layer {
  name: "conv3"
  type: "Convolution"
  bottom: "norm2"
  top: "conv3"
  param {
    lr_mult: 1
    decay_mult: 1
  }
  param {
    lr_mult: 2
    decay_mult: 0
  }
  convolution_param {
    num_output: 384
    pad: 1
    kernel_size: 3
    weight_filler {
      type: "xavier"
    }
    bias_filler {
      type: "constant"
      value: 0
    }
  }
}
layer {
  name: "relu3"
  type: "ReLU"
  bottom: "conv3"
  top: "conv3"
}
layer {
  name: "conv4"
  type: "Convolution"
  bottom: "conv3"
  top: "conv4"
  param {
    lr_mult: 1
    decay_mult: 1
  }
  param {
    lr_mult: 2
    decay_mult: 0
  }
  convolution_param {
    num_output: 384
    pad: 1
    kernel_size: 3
    group: 2
    weight_filler {
      type: "xavier"
    }
    bias_filler {
      type: "constant"
      value: 1
    }
  }
}
layer {
  name: "relu4"
  type: "ReLU"
  bottom: "conv4"
  top: "conv4"
}
layer {
  name: "conv5"
  type: "Convolution"
  bottom: "conv4"
  top: "conv5"
  param {
    lr_mult: 1
    decay_mult: 1
  }
  param {
    lr_mult: 2
    decay_mult: 0
  }
  convolution_param {
    num_output: 256
    pad: 1
    kernel_size: 3
    group: 2
    weight_filler {
      type: "xavier"
    }
    bias_filler {
      type: "constant"
      value: 1
    }
  }
}
layer {
  name: "relu5"
  type: "ReLU"
  bottom: "conv5"
  top: "conv5"
}
layer {
  name: "pool5"
  type: "Pooling"
  bottom: "conv5"
  top: "pool5"
  pooling_param {
    pool: MAX
    kernel_size: 3
    stride: 2
  }
}
layer {
  name: "fc6"
  type: "InnerProduct"
  bottom: "pool5"
  top: "fc6"
  param {
    lr_mult: 1
    decay_mult: 1
  }
  param {
    lr_mult: 2
    decay_mult: 0
  }
  inner_product_param {
    num_output: 4096
    weight_filler {
      type: "xavier"
    }
    bias_filler {
      type: "constant"
      value: 1
    }
  }
}
layer {
  name: "relu6"
  type: "ReLU"
  bottom: "fc6"
  top: "fc6"
}
layer {
  name: "drop6"
  type: "Dropout"
  bottom: "fc6"
  top: "fc6"
  dropout_param {
    dropout_ratio: 0.5
  }
}
layer {
  name: "fc7"
  type: "InnerProduct"
  bottom: "fc6"
  top: "fc7"
  param {
    lr_mult: 1
    decay_mult: 1
  }
  param {
    lr_mult: 2
    decay_mult: 0
  }
  inner_product_param {
    num_output: 4096
    weight_filler {
      type: "xavier"
    }
    bias_filler {
      type: "constant"
      value: 1
    }
  }
}
layer {
  name: "relu7"
  type: "ReLU"
  bottom: "fc7"
  top: "fc7"
}
layer {
  name: "drop7"
  type: "Dropout"
  bottom: "fc7"
  top: "fc7"
  dropout_param {
    dropout_ratio: 0.5
  }
}
layer {
  name: "fc8"
  type: "InnerProduct"
  bottom: "fc7"
  top: "fc8"
  param {
    lr_mult: 1
    decay_mult: 1
  }
  param {
    lr_mult: 2
    decay_mult: 0
  }
  inner_product_param {
    num_output: 43
    weight_filler {
      type: "xavier"
    }
    bias_filler {
      type: "constant"
      value: 0
    }
  }
}
layer {
  name: "loss"
  type: "SoftmaxWithLoss"
  bottom: "fc8"
  bottom: "label"
  top: "loss"
}
I0512 13:22:51.510216  4670 layer_factory.hpp:77] Creating layer data
I0512 13:22:51.510290  4670 db_lmdb.cpp:35] Opened lmdb /home/user1/GTSRB/input/train_lmdb_224_yuv
I0512 13:22:51.510308  4670 net.cpp:84] Creating Layer data
I0512 13:22:51.510314  4670 net.cpp:380] data -> data
I0512 13:22:51.510327  4670 net.cpp:380] data -> label
I0512 13:22:51.510335  4670 data_transformer.cpp:25] Loading mean file from: /home/user1/GTSRB/input/mean_224_yuv.binaryproto
I0512 13:22:51.512305  4670 data_layer.cpp:45] output data size: 224,3,224,224
I0512 13:22:51.658253  4670 net.cpp:122] Setting up data
I0512 13:22:51.658272  4670 net.cpp:129] Top shape: 224 3 224 224 (33718272)
I0512 13:22:51.658275  4670 net.cpp:129] Top shape: 224 (224)
I0512 13:22:51.658277  4670 net.cpp:137] Memory required for data: 134873984
I0512 13:22:51.658284  4670 layer_factory.hpp:77] Creating layer conv1
I0512 13:22:51.658299  4670 net.cpp:84] Creating Layer conv1
I0512 13:22:51.658303  4670 net.cpp:406] conv1 <- data
I0512 13:22:51.658311  4670 net.cpp:380] conv1 -> conv1
I0512 13:22:51.904613  4670 net.cpp:122] Setting up conv1
I0512 13:22:51.904631  4670 net.cpp:129] Top shape: 224 96 54 54 (62705664)
I0512 13:22:51.904633  4670 net.cpp:137] Memory required for data: 385696640
I0512 13:22:51.904649  4670 layer_factory.hpp:77] Creating layer relu1
I0512 13:22:51.904657  4670 net.cpp:84] Creating Layer relu1
I0512 13:22:51.904659  4670 net.cpp:406] relu1 <- conv1
I0512 13:22:51.904664  4670 net.cpp:367] relu1 -> conv1 (in-place)
I0512 13:22:51.904784  4670 net.cpp:122] Setting up relu1
I0512 13:22:51.904790  4670 net.cpp:129] Top shape: 224 96 54 54 (62705664)
I0512 13:22:51.904793  4670 net.cpp:137] Memory required for data: 636519296
I0512 13:22:51.904794  4670 layer_factory.hpp:77] Creating layer pool1
I0512 13:22:51.904798  4670 net.cpp:84] Creating Layer pool1
I0512 13:22:51.904800  4670 net.cpp:406] pool1 <- conv1
I0512 13:22:51.904803  4670 net.cpp:380] pool1 -> pool1
I0512 13:22:51.904841  4670 net.cpp:122] Setting up pool1
I0512 13:22:51.904847  4670 net.cpp:129] Top shape: 224 96 27 27 (15676416)
I0512 13:22:51.904850  4670 net.cpp:137] Memory required for data: 699224960
I0512 13:22:51.904850  4670 layer_factory.hpp:77] Creating layer norm1
I0512 13:22:51.904857  4670 net.cpp:84] Creating Layer norm1
I0512 13:22:51.904878  4670 net.cpp:406] norm1 <- pool1
I0512 13:22:51.904882  4670 net.cpp:380] norm1 -> norm1
I0512 13:22:51.905500  4670 net.cpp:122] Setting up norm1
I0512 13:22:51.905508  4670 net.cpp:129] Top shape: 224 96 27 27 (15676416)
I0512 13:22:51.905510  4670 net.cpp:137] Memory required for data: 761930624
I0512 13:22:51.905513  4670 layer_factory.hpp:77] Creating layer conv2
I0512 13:22:51.905519  4670 net.cpp:84] Creating Layer conv2
I0512 13:22:51.905521  4670 net.cpp:406] conv2 <- norm1
I0512 13:22:51.905525  4670 net.cpp:380] conv2 -> conv2
I0512 13:22:51.908303  4670 net.cpp:122] Setting up conv2
I0512 13:22:51.908311  4670 net.cpp:129] Top shape: 224 256 27 27 (41803776)
I0512 13:22:51.908313  4670 net.cpp:137] Memory required for data: 929145728
I0512 13:22:51.908319  4670 layer_factory.hpp:77] Creating layer relu2
I0512 13:22:51.908324  4670 net.cpp:84] Creating Layer relu2
I0512 13:22:51.908325  4670 net.cpp:406] relu2 <- conv2
I0512 13:22:51.908327  4670 net.cpp:367] relu2 -> conv2 (in-place)
I0512 13:22:51.908923  4670 net.cpp:122] Setting up relu2
I0512 13:22:51.908931  4670 net.cpp:129] Top shape: 224 256 27 27 (41803776)
I0512 13:22:51.908933  4670 net.cpp:137] Memory required for data: 1096360832
I0512 13:22:51.908936  4670 layer_factory.hpp:77] Creating layer pool2
I0512 13:22:51.908939  4670 net.cpp:84] Creating Layer pool2
I0512 13:22:51.908941  4670 net.cpp:406] pool2 <- conv2
I0512 13:22:51.908944  4670 net.cpp:380] pool2 -> pool2
I0512 13:22:51.908970  4670 net.cpp:122] Setting up pool2
I0512 13:22:51.908977  4670 net.cpp:129] Top shape: 224 256 13 13 (9691136)
I0512 13:22:51.908978  4670 net.cpp:137] Memory required for data: 1135125376
I0512 13:22:51.908980  4670 layer_factory.hpp:77] Creating layer norm2
I0512 13:22:51.908987  4670 net.cpp:84] Creating Layer norm2
I0512 13:22:51.908990  4670 net.cpp:406] norm2 <- pool2
I0512 13:22:51.908994  4670 net.cpp:380] norm2 -> norm2
I0512 13:22:51.909116  4670 net.cpp:122] Setting up norm2
I0512 13:22:51.909122  4670 net.cpp:129] Top shape: 224 256 13 13 (9691136)
I0512 13:22:51.909124  4670 net.cpp:137] Memory required for data: 1173889920
I0512 13:22:51.909126  4670 layer_factory.hpp:77] Creating layer conv3
I0512 13:22:51.909132  4670 net.cpp:84] Creating Layer conv3
I0512 13:22:51.909134  4670 net.cpp:406] conv3 <- norm2
I0512 13:22:51.909138  4670 net.cpp:380] conv3 -> conv3
I0512 13:22:51.914558  4670 net.cpp:122] Setting up conv3
I0512 13:22:51.914569  4670 net.cpp:129] Top shape: 224 384 13 13 (14536704)
I0512 13:22:51.914572  4670 net.cpp:137] Memory required for data: 1232036736
I0512 13:22:51.914578  4670 layer_factory.hpp:77] Creating layer relu3
I0512 13:22:51.914582  4670 net.cpp:84] Creating Layer relu3
I0512 13:22:51.914584  4670 net.cpp:406] relu3 <- conv3
I0512 13:22:51.914588  4670 net.cpp:367] relu3 -> conv3 (in-place)
I0512 13:22:51.914702  4670 net.cpp:122] Setting up relu3
I0512 13:22:51.914708  4670 net.cpp:129] Top shape: 224 384 13 13 (14536704)
I0512 13:22:51.914710  4670 net.cpp:137] Memory required for data: 1290183552
I0512 13:22:51.914712  4670 layer_factory.hpp:77] Creating layer conv4
I0512 13:22:51.914718  4670 net.cpp:84] Creating Layer conv4
I0512 13:22:51.914721  4670 net.cpp:406] conv4 <- conv3
I0512 13:22:51.914726  4670 net.cpp:380] conv4 -> conv4
I0512 13:22:51.920087  4670 net.cpp:122] Setting up conv4
I0512 13:22:51.920104  4670 net.cpp:129] Top shape: 224 384 13 13 (14536704)
I0512 13:22:51.920106  4670 net.cpp:137] Memory required for data: 1348330368
I0512 13:22:51.920112  4670 layer_factory.hpp:77] Creating layer relu4
I0512 13:22:51.920117  4670 net.cpp:84] Creating Layer relu4
I0512 13:22:51.920120  4670 net.cpp:406] relu4 <- conv4
I0512 13:22:51.920123  4670 net.cpp:367] relu4 -> conv4 (in-place)
I0512 13:22:51.920243  4670 net.cpp:122] Setting up relu4
I0512 13:22:51.920249  4670 net.cpp:129] Top shape: 224 384 13 13 (14536704)
I0512 13:22:51.920251  4670 net.cpp:137] Memory required for data: 1406477184
I0512 13:22:51.920253  4670 layer_factory.hpp:77] Creating layer conv5
I0512 13:22:51.920260  4670 net.cpp:84] Creating Layer conv5
I0512 13:22:51.920272  4670 net.cpp:406] conv5 <- conv4
I0512 13:22:51.920279  4670 net.cpp:380] conv5 -> conv5
I0512 13:22:51.924541  4670 net.cpp:122] Setting up conv5
I0512 13:22:51.924551  4670 net.cpp:129] Top shape: 224 256 13 13 (9691136)
I0512 13:22:51.924553  4670 net.cpp:137] Memory required for data: 1445241728
I0512 13:22:51.924561  4670 layer_factory.hpp:77] Creating layer relu5
I0512 13:22:51.924564  4670 net.cpp:84] Creating Layer relu5
I0512 13:22:51.924566  4670 net.cpp:406] relu5 <- conv5
I0512 13:22:51.924569  4670 net.cpp:367] relu5 -> conv5 (in-place)
I0512 13:22:51.924685  4670 net.cpp:122] Setting up relu5
I0512 13:22:51.924692  4670 net.cpp:129] Top shape: 224 256 13 13 (9691136)
I0512 13:22:51.924695  4670 net.cpp:137] Memory required for data: 1484006272
I0512 13:22:51.924695  4670 layer_factory.hpp:77] Creating layer pool5
I0512 13:22:51.924700  4670 net.cpp:84] Creating Layer pool5
I0512 13:22:51.924702  4670 net.cpp:406] pool5 <- conv5
I0512 13:22:51.924705  4670 net.cpp:380] pool5 -> pool5
I0512 13:22:51.924738  4670 net.cpp:122] Setting up pool5
I0512 13:22:51.924743  4670 net.cpp:129] Top shape: 224 256 6 6 (2064384)
I0512 13:22:51.924746  4670 net.cpp:137] Memory required for data: 1492263808
I0512 13:22:51.924748  4670 layer_factory.hpp:77] Creating layer fc6
I0512 13:22:51.924759  4670 net.cpp:84] Creating Layer fc6
I0512 13:22:51.924762  4670 net.cpp:406] fc6 <- pool5
I0512 13:22:51.924767  4670 net.cpp:380] fc6 -> fc6
I0512 13:22:52.085871  4670 net.cpp:122] Setting up fc6
I0512 13:22:52.085891  4670 net.cpp:129] Top shape: 224 4096 (917504)
I0512 13:22:52.085892  4670 net.cpp:137] Memory required for data: 1495933824
I0512 13:22:52.085898  4670 layer_factory.hpp:77] Creating layer relu6
I0512 13:22:52.085904  4670 net.cpp:84] Creating Layer relu6
I0512 13:22:52.085906  4670 net.cpp:406] relu6 <- fc6
I0512 13:22:52.085911  4670 net.cpp:367] relu6 -> fc6 (in-place)
I0512 13:22:52.086601  4670 net.cpp:122] Setting up relu6
I0512 13:22:52.086609  4670 net.cpp:129] Top shape: 224 4096 (917504)
I0512 13:22:52.086611  4670 net.cpp:137] Memory required for data: 1499603840
I0512 13:22:52.086613  4670 layer_factory.hpp:77] Creating layer drop6
I0512 13:22:52.086618  4670 net.cpp:84] Creating Layer drop6
I0512 13:22:52.086621  4670 net.cpp:406] drop6 <- fc6
I0512 13:22:52.086622  4670 net.cpp:367] drop6 -> fc6 (in-place)
I0512 13:22:52.086647  4670 net.cpp:122] Setting up drop6
I0512 13:22:52.086652  4670 net.cpp:129] Top shape: 224 4096 (917504)
I0512 13:22:52.086654  4670 net.cpp:137] Memory required for data: 1503273856
I0512 13:22:52.086655  4670 layer_factory.hpp:77] Creating layer fc7
I0512 13:22:52.086661  4670 net.cpp:84] Creating Layer fc7
I0512 13:22:52.086664  4670 net.cpp:406] fc7 <- fc6
I0512 13:22:52.086666  4670 net.cpp:380] fc7 -> fc7
I0512 13:22:52.158624  4670 net.cpp:122] Setting up fc7
I0512 13:22:52.158643  4670 net.cpp:129] Top shape: 224 4096 (917504)
I0512 13:22:52.158646  4670 net.cpp:137] Memory required for data: 1506943872
I0512 13:22:52.158651  4670 layer_factory.hpp:77] Creating layer relu7
I0512 13:22:52.158658  4670 net.cpp:84] Creating Layer relu7
I0512 13:22:52.158659  4670 net.cpp:406] relu7 <- fc7
I0512 13:22:52.158664  4670 net.cpp:367] relu7 -> fc7 (in-place)
I0512 13:22:52.158812  4670 net.cpp:122] Setting up relu7
I0512 13:22:52.158818  4670 net.cpp:129] Top shape: 224 4096 (917504)
I0512 13:22:52.158819  4670 net.cpp:137] Memory required for data: 1510613888
I0512 13:22:52.158823  4670 layer_factory.hpp:77] Creating layer drop7
I0512 13:22:52.158826  4670 net.cpp:84] Creating Layer drop7
I0512 13:22:52.158828  4670 net.cpp:406] drop7 <- fc7
I0512 13:22:52.158831  4670 net.cpp:367] drop7 -> fc7 (in-place)
I0512 13:22:52.158849  4670 net.cpp:122] Setting up drop7
I0512 13:22:52.158852  4670 net.cpp:129] Top shape: 224 4096 (917504)
I0512 13:22:52.158854  4670 net.cpp:137] Memory required for data: 1514283904
I0512 13:22:52.158855  4670 layer_factory.hpp:77] Creating layer fc8
I0512 13:22:52.158860  4670 net.cpp:84] Creating Layer fc8
I0512 13:22:52.158871  4670 net.cpp:406] fc8 <- fc7
I0512 13:22:52.158876  4670 net.cpp:380] fc8 -> fc8
I0512 13:22:52.160131  4670 net.cpp:122] Setting up fc8
I0512 13:22:52.160140  4670 net.cpp:129] Top shape: 224 43 (9632)
I0512 13:22:52.160141  4670 net.cpp:137] Memory required for data: 1514322432
I0512 13:22:52.160145  4670 layer_factory.hpp:77] Creating layer loss
I0512 13:22:52.160148  4670 net.cpp:84] Creating Layer loss
I0512 13:22:52.160151  4670 net.cpp:406] loss <- fc8
I0512 13:22:52.160156  4670 net.cpp:406] loss <- label
I0512 13:22:52.160161  4670 net.cpp:380] loss -> loss
I0512 13:22:52.160169  4670 layer_factory.hpp:77] Creating layer loss
…
I0512 13:22:52.161165  4670 net.cpp:294] The NetState phase (1) differed from the phase (0) specified by a rule in layer data
I0512 13:22:52.161265  4670 net.cpp:51] Initializing net from parameters: 
name: "CaffeNet"
state {
  phase: TEST
}
layer {
  name: "data"
  type: "Data"
  top: "data"
  top: "label"
  include {
    phase: TEST
  }
  transform_param {
    mirror: false
    crop_size: 224
    mean_file: "/home/user1/GTSRB/input/mean_224_yuv.binaryproto"
  }
  data_param {
    source: "/home/user1/GTSRB/input/validation_lmdb_224_yuv"
    batch_size: 50
    backend: LMDB
  }
}
layer {
  name: "conv1"
  type: "Convolution"
  bottom: "data"
  top: "conv1"
  param {
    lr_mult: 1
    decay_mult: 1
  }
  param {
    lr_mult: 2
    decay_mult: 0
  }
  convolution_param {
    num_output: 96
    kernel_size: 11
    stride: 4
    weight_filler {
      type: "xavier"
    }
    bias_filler {
      type: "constant"
      value: 0
    }
  }
}
layer {
  name: "relu1"
  type: "ReLU"
  bottom: "conv1"
  top: "conv1"
}
layer {
  name: "pool1"
  type: "Pooling"
  bottom: "conv1"
  top: "pool1"
  pooling_param {
    pool: MAX
    kernel_size: 3
    stride: 2
  }
}
layer {
  name: "norm1"
  type: "LRN"
  bottom: "pool1"
  top: "norm1"
  lrn_param {
    local_size: 5
    alpha: 0.0001
    beta: 0.75
  }
}
layer {
  name: "conv2"
  type: "Convolution"
  bottom: "norm1"
  top: "conv2"
  param {
    lr_mult: 1
    decay_mult: 1
  }
  param {
    lr_mult: 2
    decay_mult: 0
  }
  convolution_param {
    num_output: 256
    pad: 2
    kernel_size: 5
    group: 2
    weight_filler {
      type: "xavier"
    }
    bias_filler {
      type: "constant"
      value: 1
    }
  }
}
layer {
  name: "relu2"
  type: "ReLU"
  bottom: "conv2"
  top: "conv2"
}
layer {
  name: "pool2"
  type: "Pooling"
  bottom: "conv2"
  top: "pool2"
  pooling_param {
    pool: MAX
    kernel_size: 3
    stride: 2
  }
}
layer {
  name: "norm2"
  type: "LRN"
  bottom: "pool2"
  top: "norm2"
  lrn_param {
    local_size: 5
    alpha: 0.0001
    beta: 0.75
  }
}
layer {
  name: "conv3"
  type: "Convolution"
  bottom: "norm2"
  top: "conv3"
  param {
    lr_mult: 1
    decay_mult: 1
  }
  param {
    lr_mult: 2
    decay_mult: 0
  }
  convolution_param {
    num_output: 384
    pad: 1
    kernel_size: 3
    weight_filler {
      type: "xavier"
    }
    bias_filler {
      type: "constant"
      value: 0
    }
  }
}
layer {
  name: "relu3"
  type: "ReLU"
  bottom: "conv3"
  top: "conv3"
}
layer {
  name: "conv4"
  type: "Convolution"
  bottom: "conv3"
  top: "conv4"
  param {
    lr_mult: 1
    decay_mult: 1
  }
  param {
    lr_mult: 2
    decay_mult: 0
  }
  convolution_param {
    num_output: 384
    pad: 1
    kernel_size: 3
    group: 2
    weight_filler {
      type: "xavier"
    }
    bias_filler {
      type: "constant"
      value: 1
    }
  }
}
layer {
  name: "relu4"
  type: "ReLU"
  bottom: "conv4"
  top: "conv4"
}
layer {
  name: "conv5"
  type: "Convolution"
  bottom: "conv4"
  top: "conv5"
  param {
    lr_mult: 1
    decay_mult: 1
  }
  param {
    lr_mult: 2
    decay_mult: 0
  }
  convolution_param {
    num_output: 256
    pad: 1
    kernel_size: 3
    group: 2
    weight_filler {
      type: "xavier"
    }
    bias_filler {
      type: "constant"
      value: 1
    }
  }
}
layer {
  name: "relu5"
  type: "ReLU"
  bottom: "conv5"
  top: "conv5"
}
layer {
  name: "pool5"
  type: "Pooling"
  bottom: "conv5"
  top: "pool5"
  pooling_param {
    pool: MAX
    kernel_size: 3
    stride: 2
  }
}
layer {
  name: "fc6"
  type: "InnerProduct"
  bottom: "pool5"
  top: "fc6"
  param {
    lr_mult: 1
    decay_mult: 1
  }
  param {
    lr_mult: 2
    decay_mult: 0
  }
  inner_product_param {
    num_output: 4096
    weight_filler {
      type: "xavier"
    }
    bias_filler {
      type: "constant"
      value: 1
    }
  }
}
layer {
  name: "relu6"
  type: "ReLU"
  bottom: "fc6"
  top: "fc6"
}
layer {
  name: "drop6"
  type: "Dropout"
  bottom: "fc6"
  top: "fc6"
  dropout_param {
    dropout_ratio: 0.5
  }
}
layer {
  name: "fc7"
  type: "InnerProduct"
  bottom: "fc6"
  top: "fc7"
  param {
    lr_mult: 1
    decay_mult: 1
  }
  param {
    lr_mult: 2
    decay_mult: 0
  }
  inner_product_param {
    num_output: 4096
    weight_filler {
      type: "xavier"
    }
    bias_filler {
      type: "constant"
      value: 1
    }
  }
}
layer {
  name: "relu7"
  type: "ReLU"
  bottom: "fc7"
  top: "fc7"
}
layer {
  name: "drop7"
  type: "Dropout"
  bottom: "fc7"
  top: "fc7"
  dropout_param {
    dropout_ratio: 0.5
  }
}
layer {
  name: "fc8"
  type: "InnerProduct"
  bottom: "fc7"
  top: "fc8"
  param {
    lr_mult: 1
    decay_mult: 1
  }
  param {
    lr_mult: 2
    decay_mult: 0
  }
  inner_product_param {
    num_output: 43
    weight_filler {
      type: "xavier"
    }
    bias_filler {
      type: "constant"
      value: 0
    }
  }
}
layer {
  name: "accuracy"
  type: "Accuracy"
  bottom: "fc8"
  bottom: "label"
  top: "accuracy"
  include {
    phase: TEST
  }
}
layer {
  name: "loss"
  type: "SoftmaxWithLoss"
  bottom: "fc8"
  bottom: "label"
  top: "loss"
}
I0512 13:22:52.161345  4670 layer_factory.hpp:77] Creating layer data
I0512 13:22:52.161392  4670 db_lmdb.cpp:35] Opened lmdb /home/user1/GTSRB/input/validation_lmdb_224_yuv
I0512 13:22:52.161404  4670 net.cpp:84] Creating Layer data
I0512 13:22:52.161411  4670 net.cpp:380] data -> data
I0512 13:22:52.161415  4670 net.cpp:380] data -> label
I0512 13:22:52.161420  4670 data_transformer.cpp:25] Loading mean file from: /home/user1/GTSRB/input/mean_224_yuv.binaryproto
I0512 13:22:52.162281  4670 data_layer.cpp:45] output data size: 50,3,224,224
I0512 13:22:52.197417  4670 net.cpp:122] Setting up data
I0512 13:22:52.197435  4670 net.cpp:129] Top shape: 50 3 224 224 (7526400)
I0512 13:22:52.197438  4670 net.cpp:129] Top shape: 50 (50)
I0512 13:22:52.197440  4670 net.cpp:137] Memory required for data: 30105800
I0512 13:22:52.197444  4670 layer_factory.hpp:77] Creating layer label_data_1_split
I0512 13:22:52.197451  4670 net.cpp:84] Creating Layer label_data_1_split
I0512 13:22:52.197454  4670 net.cpp:406] label_data_1_split <- label
I0512 13:22:52.197458  4670 net.cpp:380] label_data_1_split -> label_data_1_split_0
I0512 13:22:52.197464  4670 net.cpp:380] label_data_1_split -> label_data_1_split_1
I0512 13:22:52.197599  4670 net.cpp:122] Setting up label_data_1_split
I0512 13:22:52.197609  4670 net.cpp:129] Top shape: 50 (50)
I0512 13:22:52.197612  4670 net.cpp:129] Top shape: 50 (50)
I0512 13:22:52.197613  4670 net.cpp:137] Memory required for data: 30106200
I0512 13:22:52.197616  4670 layer_factory.hpp:77] Creating layer conv1
I0512 13:22:52.197623  4670 net.cpp:84] Creating Layer conv1
I0512 13:22:52.197625  4670 net.cpp:406] conv1 <- data
I0512 13:22:52.197629  4670 net.cpp:380] conv1 -> conv1
I0512 13:22:52.201195  4670 net.cpp:122] Setting up conv1
I0512 13:22:52.201205  4670 net.cpp:129] Top shape: 50 96 54 54 (13996800)
I0512 13:22:52.201208  4670 net.cpp:137] Memory required for data: 86093400
I0512 13:22:52.201215  4670 layer_factory.hpp:77] Creating layer relu1
I0512 13:22:52.201220  4670 net.cpp:84] Creating Layer relu1
I0512 13:22:52.201221  4670 net.cpp:406] relu1 <- conv1
I0512 13:22:52.201225  4670 net.cpp:367] relu1 -> conv1 (in-place)
I0512 13:22:52.201326  4670 net.cpp:122] Setting up relu1
I0512 13:22:52.201333  4670 net.cpp:129] Top shape: 50 96 54 54 (13996800)
I0512 13:22:52.201334  4670 net.cpp:137] Memory required for data: 142080600
I0512 13:22:52.201336  4670 layer_factory.hpp:77] Creating layer pool1
I0512 13:22:52.201341  4670 net.cpp:84] Creating Layer pool1
I0512 13:22:52.201344  4670 net.cpp:406] pool1 <- conv1
I0512 13:22:52.201345  4670 net.cpp:380] pool1 -> pool1
I0512 13:22:52.201373  4670 net.cpp:122] Setting up pool1
I0512 13:22:52.201377  4670 net.cpp:129] Top shape: 50 96 27 27 (3499200)
I0512 13:22:52.201380  4670 net.cpp:137] Memory required for data: 156077400
I0512 13:22:52.201381  4670 layer_factory.hpp:77] Creating layer norm1
I0512 13:22:52.201385  4670 net.cpp:84] Creating Layer norm1
I0512 13:22:52.201388  4670 net.cpp:406] norm1 <- pool1
I0512 13:22:52.201392  4670 net.cpp:380] norm1 -> norm1
I0512 13:22:52.201980  4670 net.cpp:122] Setting up norm1
I0512 13:22:52.201988  4670 net.cpp:129] Top shape: 50 96 27 27 (3499200)
I0512 13:22:52.201990  4670 net.cpp:137] Memory required for data: 170074200
I0512 13:22:52.201992  4670 layer_factory.hpp:77] Creating layer conv2
I0512 13:22:52.201998  4670 net.cpp:84] Creating Layer conv2
I0512 13:22:52.202000  4670 net.cpp:406] conv2 <- norm1
I0512 13:22:52.202004  4670 net.cpp:380] conv2 -> conv2
I0512 13:22:52.205000  4670 net.cpp:122] Setting up conv2
I0512 13:22:52.205010  4670 net.cpp:129] Top shape: 50 256 27 27 (9331200)
I0512 13:22:52.205013  4670 net.cpp:137] Memory required for data: 207399000
I0512 13:22:52.205018  4670 layer_factory.hpp:77] Creating layer relu2
I0512 13:22:52.205024  4670 net.cpp:84] Creating Layer relu2
I0512 13:22:52.205025  4670 net.cpp:406] relu2 <- conv2
I0512 13:22:52.205029  4670 net.cpp:367] relu2 -> conv2 (in-place)
I0512 13:22:52.205631  4670 net.cpp:122] Setting up relu2
I0512 13:22:52.205637  4670 net.cpp:129] Top shape: 50 256 27 27 (9331200)
I0512 13:22:52.205651  4670 net.cpp:137] Memory required for data: 244723800
I0512 13:22:52.205653  4670 layer_factory.hpp:77] Creating layer pool2
I0512 13:22:52.205659  4670 net.cpp:84] Creating Layer pool2
I0512 13:22:52.205662  4670 net.cpp:406] pool2 <- conv2
I0512 13:22:52.205665  4670 net.cpp:380] pool2 -> pool2
I0512 13:22:52.205700  4670 net.cpp:122] Setting up pool2
I0512 13:22:52.205705  4670 net.cpp:129] Top shape: 50 256 13 13 (2163200)
I0512 13:22:52.205708  4670 net.cpp:137] Memory required for data: 253376600
I0512 13:22:52.205709  4670 layer_factory.hpp:77] Creating layer norm2
I0512 13:22:52.205713  4670 net.cpp:84] Creating Layer norm2
I0512 13:22:52.205714  4670 net.cpp:406] norm2 <- pool2
I0512 13:22:52.205718  4670 net.cpp:380] norm2 -> norm2
I0512 13:22:52.205843  4670 net.cpp:122] Setting up norm2
I0512 13:22:52.205849  4670 net.cpp:129] Top shape: 50 256 13 13 (2163200)
I0512 13:22:52.205852  4670 net.cpp:137] Memory required for data: 262029400
I0512 13:22:52.205853  4670 layer_factory.hpp:77] Creating layer conv3
I0512 13:22:52.205858  4670 net.cpp:84] Creating Layer conv3
I0512 13:22:52.205860  4670 net.cpp:406] conv3 <- norm2
I0512 13:22:52.205864  4670 net.cpp:380] conv3 -> conv3
I0512 13:22:52.212862  4670 net.cpp:122] Setting up conv3
I0512 13:22:52.212887  4670 net.cpp:129] Top shape: 50 384 13 13 (3244800)
I0512 13:22:52.212889  4670 net.cpp:137] Memory required for data: 275008600
I0512 13:22:52.212898  4670 layer_factory.hpp:77] Creating layer relu3
I0512 13:22:52.212903  4670 net.cpp:84] Creating Layer relu3
I0512 13:22:52.212906  4670 net.cpp:406] relu3 <- conv3
I0512 13:22:52.212910  4670 net.cpp:367] relu3 -> conv3 (in-place)
I0512 13:22:52.213037  4670 net.cpp:122] Setting up relu3
I0512 13:22:52.213043  4670 net.cpp:129] Top shape: 50 384 13 13 (3244800)
I0512 13:22:52.213044  4670 net.cpp:137] Memory required for data: 287987800
I0512 13:22:52.213047  4670 layer_factory.hpp:77] Creating layer conv4
I0512 13:22:52.213053  4670 net.cpp:84] Creating Layer conv4
I0512 13:22:52.213055  4670 net.cpp:406] conv4 <- conv3
I0512 13:22:52.213058  4670 net.cpp:380] conv4 -> conv4
I0512 13:22:52.219997  4670 net.cpp:122] Setting up conv4
I0512 13:22:52.220013  4670 net.cpp:129] Top shape: 50 384 13 13 (3244800)
I0512 13:22:52.220016  4670 net.cpp:137] Memory required for data: 300967000
I0512 13:22:52.220021  4670 layer_factory.hpp:77] Creating layer relu4
I0512 13:22:52.220027  4670 net.cpp:84] Creating Layer relu4
I0512 13:22:52.220031  4670 net.cpp:406] relu4 <- conv4
I0512 13:22:52.220034  4670 net.cpp:367] relu4 -> conv4 (in-place)
I0512 13:22:52.220170  4670 net.cpp:122] Setting up relu4
I0512 13:22:52.220175  4670 net.cpp:129] Top shape: 50 384 13 13 (3244800)
I0512 13:22:52.220177  4670 net.cpp:137] Memory required for data: 313946200
I0512 13:22:52.220180  4670 layer_factory.hpp:77] Creating layer conv5
I0512 13:22:52.220186  4670 net.cpp:84] Creating Layer conv5
I0512 13:22:52.220188  4670 net.cpp:406] conv5 <- conv4
I0512 13:22:52.220192  4670 net.cpp:380] conv5 -> conv5
I0512 13:22:52.227411  4670 net.cpp:122] Setting up conv5
I0512 13:22:52.227424  4670 net.cpp:129] Top shape: 50 256 13 13 (2163200)
I0512 13:22:52.227427  4670 net.cpp:137] Memory required for data: 322599000
I0512 13:22:52.227435  4670 layer_factory.hpp:77] Creating layer relu5
I0512 13:22:52.227439  4670 net.cpp:84] Creating Layer relu5
I0512 13:22:52.227442  4670 net.cpp:406] relu5 <- conv5
I0512 13:22:52.227445  4670 net.cpp:367] relu5 -> conv5 (in-place)
I0512 13:22:52.227568  4670 net.cpp:122] Setting up relu5
I0512 13:22:52.227574  4670 net.cpp:129] Top shape: 50 256 13 13 (2163200)
I0512 13:22:52.227576  4670 net.cpp:137] Memory required for data: 331251800
I0512 13:22:52.227578  4670 layer_factory.hpp:77] Creating layer pool5
I0512 13:22:52.227584  4670 net.cpp:84] Creating Layer pool5
I0512 13:22:52.227586  4670 net.cpp:406] pool5 <- conv5
I0512 13:22:52.227589  4670 net.cpp:380] pool5 -> pool5
I0512 13:22:52.227625  4670 net.cpp:122] Setting up pool5
I0512 13:22:52.227630  4670 net.cpp:129] Top shape: 50 256 6 6 (460800)
I0512 13:22:52.227645  4670 net.cpp:137] Memory required for data: 333095000
I0512 13:22:52.227648  4670 layer_factory.hpp:77] Creating layer fc6
I0512 13:22:52.227654  4670 net.cpp:84] Creating Layer fc6
I0512 13:22:52.227658  4670 net.cpp:406] fc6 <- pool5
I0512 13:22:52.227661  4670 net.cpp:380] fc6 -> fc6
I0512 13:22:52.392180  4670 net.cpp:122] Setting up fc6
I0512 13:22:52.392199  4670 net.cpp:129] Top shape: 50 4096 (204800)
I0512 13:22:52.392200  4670 net.cpp:137] Memory required for data: 333914200
I0512 13:22:52.392206  4670 layer_factory.hpp:77] Creating layer relu6
I0512 13:22:52.392212  4670 net.cpp:84] Creating Layer relu6
I0512 13:22:52.392215  4670 net.cpp:406] relu6 <- fc6
I0512 13:22:52.392218  4670 net.cpp:367] relu6 -> fc6 (in-place)
I0512 13:22:52.392366  4670 net.cpp:122] Setting up relu6
I0512 13:22:52.392372  4670 net.cpp:129] Top shape: 50 4096 (204800)
I0512 13:22:52.392374  4670 net.cpp:137] Memory required for data: 334733400
I0512 13:22:52.392376  4670 layer_factory.hpp:77] Creating layer drop6
I0512 13:22:52.392380  4670 net.cpp:84] Creating Layer drop6
I0512 13:22:52.392382  4670 net.cpp:406] drop6 <- fc6
I0512 13:22:52.392385  4670 net.cpp:367] drop6 -> fc6 (in-place)
I0512 13:22:52.392405  4670 net.cpp:122] Setting up drop6
I0512 13:22:52.392410  4670 net.cpp:129] Top shape: 50 4096 (204800)
I0512 13:22:52.392412  4670 net.cpp:137] Memory required for data: 335552600
I0512 13:22:52.392415  4670 layer_factory.hpp:77] Creating layer fc7
I0512 13:22:52.392421  4670 net.cpp:84] Creating Layer fc7
I0512 13:22:52.392424  4670 net.cpp:406] fc7 <- fc6
I0512 13:22:52.392427  4670 net.cpp:380] fc7 -> fc7
I0512 13:22:52.464212  4670 net.cpp:122] Setting up fc7
I0512 13:22:52.464232  4670 net.cpp:129] Top shape: 50 4096 (204800)
I0512 13:22:52.464234  4670 net.cpp:137] Memory required for data: 336371800
I0512 13:22:52.464241  4670 layer_factory.hpp:77] Creating layer relu7
I0512 13:22:52.464246  4670 net.cpp:84] Creating Layer relu7
I0512 13:22:52.464249  4670 net.cpp:406] relu7 <- fc7
I0512 13:22:52.464252  4670 net.cpp:367] relu7 -> fc7 (in-place)
I0512 13:22:52.464917  4670 net.cpp:122] Setting up relu7
I0512 13:22:52.464926  4670 net.cpp:129] Top shape: 50 4096 (204800)
I0512 13:22:52.464927  4670 net.cpp:137] Memory required for data: 337191000
I0512 13:22:52.464929  4670 layer_factory.hpp:77] Creating layer drop7
I0512 13:22:52.464933  4670 net.cpp:84] Creating Layer drop7
I0512 13:22:52.464936  4670 net.cpp:406] drop7 <- fc7
I0512 13:22:52.464939  4670 net.cpp:367] drop7 -> fc7 (in-place)
I0512 13:22:52.464962  4670 net.cpp:122] Setting up drop7
I0512 13:22:52.464967  4670 net.cpp:129] Top shape: 50 4096 (204800)
I0512 13:22:52.464967  4670 net.cpp:137] Memory required for data: 338010200
I0512 13:22:52.464970  4670 layer_factory.hpp:77] Creating layer fc8
I0512 13:22:52.464977  4670 net.cpp:84] Creating Layer fc8
I0512 13:22:52.464980  4670 net.cpp:406] fc8 <- fc7
I0512 13:22:52.464987  4670 net.cpp:380] fc8 -> fc8
I0512 13:22:52.465713  4670 net.cpp:122] Setting up fc8
I0512 13:22:52.465718  4670 net.cpp:129] Top shape: 50 43 (2150)
I0512 13:22:52.465719  4670 net.cpp:137] Memory required for data: 338018800
I0512 13:22:52.465723  4670 layer_factory.hpp:77] Creating layer fc8_fc8_0_split
I0512 13:22:52.465726  4670 net.cpp:84] Creating Layer fc8_fc8_0_split
I0512 13:22:52.465728  4670 net.cpp:406] fc8_fc8_0_split <- fc8
I0512 13:22:52.465731  4670 net.cpp:380] fc8_fc8_0_split -> fc8_fc8_0_split_0
I0512 13:22:52.465734  4670 net.cpp:380] fc8_fc8_0_split -> fc8_fc8_0_split_1
I0512 13:22:52.465762  4670 net.cpp:122] Setting up fc8_fc8_0_split
I0512 13:22:52.465766  4670 net.cpp:129] Top shape: 50 43 (2150)
I0512 13:22:52.465768  4670 net.cpp:129] Top shape: 50 43 (2150)
I0512 13:22:52.465770  4670 net.cpp:137] Memory required for data: 338036000
I0512 13:22:52.465773  4670 layer_factory.hpp:77] Creating layer accuracy
I0512 13:22:52.465780  4670 net.cpp:84] Creating Layer accuracy
I0512 13:22:52.465783  4670 net.cpp:406] accuracy <- fc8_fc8_0_split_0
I0512 13:22:52.465797  4670 net.cpp:406] accuracy <- label_data_1_split_0
I0512 13:22:52.465802  4670 net.cpp:380] accuracy -> accuracy
…
