…
I0511 15:47:02.636960 26444 net.cpp:294] The NetState phase (0) differed from the phase (1) specified by a rule in layer accuracy
I0511 15:47:02.637073 26444 net.cpp:51] Initializing net from parameters: 
name: "CaffeNet"
state {
  phase: TRAIN
  level: 0
  stage: ""
}
layer {
  name: "data"
  type: "Data"
  top: "data"
  top: "label"
  include {
    phase: TRAIN
  }
  transform_param {
    mirror: false
    crop_size: 224
    mean_file: "/home/user1/GTSRB/input/mean_224.binaryproto"
  }
  data_param {
    source: "/home/user1/GTSRB/input/train_lmdb_224"
    batch_size: 224
    backend: LMDB
  }
}
layer {
  name: "conv1"
  type: "Convolution"
  bottom: "data"
  top: "conv1"
  param {
    lr_mult: 1
    decay_mult: 1
  }
  param {
    lr_mult: 2
    decay_mult: 0
  }
  convolution_param {
    num_output: 96
    kernel_size: 11
    stride: 4
    weight_filler {
      type: "gaussian"
      std: 0.01
    }
    bias_filler {
      type: "constant"
      value: 0
    }
  }
}
layer {
  name: "relu1"
  type: "ReLU"
  bottom: "conv1"
  top: "conv1"
}
layer {
  name: "pool1"
  type: "Pooling"
  bottom: "conv1"
  top: "pool1"
  pooling_param {
    pool: MAX
    kernel_size: 3
    stride: 2
  }
}
layer {
  name: "norm1"
  type: "LRN"
  bottom: "pool1"
  top: "norm1"
  lrn_param {
    local_size: 5
    alpha: 0.0001
    beta: 0.75
  }
}
layer {
  name: "conv2"
  type: "Convolution"
  bottom: "norm1"
  top: "conv2"
  param {
    lr_mult: 1
    decay_mult: 1
  }
  param {
    lr_mult: 2
    decay_mult: 0
  }
  convolution_param {
    num_output: 256
    pad: 2
    kernel_size: 5
    group: 2
    weight_filler {
      type: "gaussian"
      std: 0.01
    }
    bias_filler {
      type: "constant"
      value: 1
    }
  }
}
layer {
  name: "relu2"
  type: "ReLU"
  bottom: "conv2"
  top: "conv2"
}
layer {
  name: "pool2"
  type: "Pooling"
  bottom: "conv2"
  top: "pool2"
  pooling_param {
    pool: MAX
    kernel_size: 3
    stride: 2
  }
}
layer {
  name: "norm2"
  type: "LRN"
  bottom: "pool2"
  top: "norm2"
  lrn_param {
    local_size: 5
    alpha: 0.0001
    beta: 0.75
  }
}
layer {
  name: "conv3"
  type: "Convolution"
  bottom: "norm2"
  top: "conv3"
  param {
    lr_mult: 1
    decay_mult: 1
  }
  param {
    lr_mult: 2
    decay_mult: 0
  }
  convolution_param {
    num_output: 384
    pad: 1
    kernel_size: 3
    weight_filler {
      type: "gaussian"
      std: 0.01
    }
    bias_filler {
      type: "constant"
      value: 0
    }
  }
}
layer {
  name: "relu3"
  type: "ReLU"
  bottom: "conv3"
  top: "conv3"
}
layer {
  name: "conv4"
  type: "Convolution"
  bottom: "conv3"
  top: "conv4"
  param {
    lr_mult: 1
    decay_mult: 1
  }
  param {
    lr_mult: 2
    decay_mult: 0
  }
  convolution_param {
    num_output: 384
    pad: 1
    kernel_size: 3
    group: 2
    weight_filler {
      type: "gaussian"
      std: 0.01
    }
    bias_filler {
      type: "constant"
      value: 1
    }
  }
}
layer {
  name: "relu4"
  type: "ReLU"
  bottom: "conv4"
  top: "conv4"
}
layer {
  name: "conv5"
  type: "Convolution"
  bottom: "conv4"
  top: "conv5"
  param {
    lr_mult: 1
    decay_mult: 1
  }
  param {
    lr_mult: 2
    decay_mult: 0
  }
  convolution_param {
    num_output: 256
    pad: 1
    kernel_size: 3
    group: 2
    weight_filler {
      type: "gaussian"
      std: 0.01
    }
    bias_filler {
      type: "constant"
      value: 1
    }
  }
}
layer {
  name: "relu5"
  type: "ReLU"
  bottom: "conv5"
  top: "conv5"
}
layer {
  name: "pool5"
  type: "Pooling"
  bottom: "conv5"
  top: "pool5"
  pooling_param {
    pool: MAX
    kernel_size: 3
    stride: 2
  }
}
layer {
  name: "fc6"
  type: "InnerProduct"
  bottom: "pool5"
  top: "fc6"
  param {
    lr_mult: 1
    decay_mult: 1
  }
  param {
    lr_mult: 2
    decay_mult: 0
  }
  inner_product_param {
    num_output: 4096
    weight_filler {
      type: "gaussian"
      std: 0.005
    }
    bias_filler {
      type: "constant"
      value: 1
    }
  }
}
layer {
  name: "relu6"
  type: "ReLU"
  bottom: "fc6"
  top: "fc6"
}
layer {
  name: "drop6"
  type: "Dropout"
  bottom: "fc6"
  top: "fc6"
  dropout_param {
    dropout_ratio: 0.5
  }
}
layer {
  name: "fc7"
  type: "InnerProduct"
  bottom: "fc6"
  top: "fc7"
  param {
    lr_mult: 1
    decay_mult: 1
  }
  param {
    lr_mult: 2
    decay_mult: 0
  }
  inner_product_param {
    num_output: 4096
    weight_filler {
      type: "gaussian"
      std: 0.005
    }
    bias_filler {
      type: "constant"
      value: 1
    }
  }
}
layer {
  name: "relu7"
  type: "ReLU"
  bottom: "fc7"
  top: "fc7"
}
layer {
  name: "drop7"
  type: "Dropout"
  bottom: "fc7"
  top: "fc7"
  dropout_param {
    dropout_ratio: 0.5
  }
}
layer {
  name: "fc8"
  type: "InnerProduct"
  bottom: "fc7"
  top: "fc8"
  param {
    lr_mult: 1
    decay_mult: 1
  }
  param {
    lr_mult: 2
    decay_mult: 0
  }
  inner_product_param {
    num_output: 43
    weight_filler {
      type: "gaussian"
      std: 0.01
    }
    bias_filler {
      type: "constant"
      value: 0
    }
  }
}
layer {
  name: "loss"
  type: "SoftmaxWithLoss"
  bottom: "fc8"
  bottom: "label"
  top: "loss"
}
I0511 15:47:02.637137 26444 layer_factory.hpp:77] Creating layer data
I0511 15:47:02.637221 26444 db_lmdb.cpp:35] Opened lmdb /home/user1/GTSRB/input/train_lmdb_224
I0511 15:47:02.637248 26444 net.cpp:84] Creating Layer data
I0511 15:47:02.637257 26444 net.cpp:380] data -> data
I0511 15:47:02.637271 26444 net.cpp:380] data -> label
I0511 15:47:02.637280 26444 data_transformer.cpp:25] Loading mean file from: /home/user1/GTSRB/input/mean_224.binaryproto
I0511 15:47:02.639241 26444 data_layer.cpp:45] output data size: 224,3,224,224
I0511 15:47:02.786690 26444 net.cpp:122] Setting up data
I0511 15:47:02.786710 26444 net.cpp:129] Top shape: 224 3 224 224 (33718272)
I0511 15:47:02.786713 26444 net.cpp:129] Top shape: 224 (224)
I0511 15:47:02.786715 26444 net.cpp:137] Memory required for data: 134873984
I0511 15:47:02.786723 26444 layer_factory.hpp:77] Creating layer conv1
I0511 15:47:02.786737 26444 net.cpp:84] Creating Layer conv1
I0511 15:47:02.786741 26444 net.cpp:406] conv1 <- data
I0511 15:47:02.786751 26444 net.cpp:380] conv1 -> conv1
I0511 15:47:03.033241 26444 net.cpp:122] Setting up conv1
I0511 15:47:03.033262 26444 net.cpp:129] Top shape: 224 96 54 54 (62705664)
I0511 15:47:03.033264 26444 net.cpp:137] Memory required for data: 385696640
I0511 15:47:03.033280 26444 layer_factory.hpp:77] Creating layer relu1
I0511 15:47:03.033288 26444 net.cpp:84] Creating Layer relu1
I0511 15:47:03.033291 26444 net.cpp:406] relu1 <- conv1
I0511 15:47:03.033294 26444 net.cpp:367] relu1 -> conv1 (in-place)
I0511 15:47:03.033427 26444 net.cpp:122] Setting up relu1
I0511 15:47:03.033434 26444 net.cpp:129] Top shape: 224 96 54 54 (62705664)
I0511 15:47:03.033437 26444 net.cpp:137] Memory required for data: 636519296
I0511 15:47:03.033438 26444 layer_factory.hpp:77] Creating layer pool1
I0511 15:47:03.033442 26444 net.cpp:84] Creating Layer pool1
I0511 15:47:03.033444 26444 net.cpp:406] pool1 <- conv1
I0511 15:47:03.033447 26444 net.cpp:380] pool1 -> pool1
I0511 15:47:03.033484 26444 net.cpp:122] Setting up pool1
I0511 15:47:03.033489 26444 net.cpp:129] Top shape: 224 96 27 27 (15676416)
I0511 15:47:03.033491 26444 net.cpp:137] Memory required for data: 699224960
I0511 15:47:03.033507 26444 layer_factory.hpp:77] Creating layer norm1
I0511 15:47:03.033516 26444 net.cpp:84] Creating Layer norm1
I0511 15:47:03.033519 26444 net.cpp:406] norm1 <- pool1
I0511 15:47:03.033522 26444 net.cpp:380] norm1 -> norm1
I0511 15:47:03.034092 26444 net.cpp:122] Setting up norm1
I0511 15:47:03.034101 26444 net.cpp:129] Top shape: 224 96 27 27 (15676416)
I0511 15:47:03.034103 26444 net.cpp:137] Memory required for data: 761930624
I0511 15:47:03.034106 26444 layer_factory.hpp:77] Creating layer conv2
I0511 15:47:03.034112 26444 net.cpp:84] Creating Layer conv2
I0511 15:47:03.034116 26444 net.cpp:406] conv2 <- norm1
I0511 15:47:03.034121 26444 net.cpp:380] conv2 -> conv2
I0511 15:47:03.037786 26444 net.cpp:122] Setting up conv2
I0511 15:47:03.037794 26444 net.cpp:129] Top shape: 224 256 27 27 (41803776)
I0511 15:47:03.037797 26444 net.cpp:137] Memory required for data: 929145728
I0511 15:47:03.037802 26444 layer_factory.hpp:77] Creating layer relu2
I0511 15:47:03.037806 26444 net.cpp:84] Creating Layer relu2
I0511 15:47:03.037808 26444 net.cpp:406] relu2 <- conv2
I0511 15:47:03.037811 26444 net.cpp:367] relu2 -> conv2 (in-place)
I0511 15:47:03.038367 26444 net.cpp:122] Setting up relu2
I0511 15:47:03.038374 26444 net.cpp:129] Top shape: 224 256 27 27 (41803776)
I0511 15:47:03.038377 26444 net.cpp:137] Memory required for data: 1096360832
I0511 15:47:03.038378 26444 layer_factory.hpp:77] Creating layer pool2
I0511 15:47:03.038383 26444 net.cpp:84] Creating Layer pool2
I0511 15:47:03.038384 26444 net.cpp:406] pool2 <- conv2
I0511 15:47:03.038388 26444 net.cpp:380] pool2 -> pool2
I0511 15:47:03.038414 26444 net.cpp:122] Setting up pool2
I0511 15:47:03.038419 26444 net.cpp:129] Top shape: 224 256 13 13 (9691136)
I0511 15:47:03.038421 26444 net.cpp:137] Memory required for data: 1135125376
I0511 15:47:03.038424 26444 layer_factory.hpp:77] Creating layer norm2
I0511 15:47:03.038429 26444 net.cpp:84] Creating Layer norm2
I0511 15:47:03.038430 26444 net.cpp:406] norm2 <- pool2
I0511 15:47:03.038434 26444 net.cpp:380] norm2 -> norm2
I0511 15:47:03.038568 26444 net.cpp:122] Setting up norm2
I0511 15:47:03.038575 26444 net.cpp:129] Top shape: 224 256 13 13 (9691136)
I0511 15:47:03.038578 26444 net.cpp:137] Memory required for data: 1173889920
I0511 15:47:03.038579 26444 layer_factory.hpp:77] Creating layer conv3
I0511 15:47:03.038586 26444 net.cpp:84] Creating Layer conv3
I0511 15:47:03.038589 26444 net.cpp:406] conv3 <- norm2
I0511 15:47:03.038592 26444 net.cpp:380] conv3 -> conv3
I0511 15:47:03.046854 26444 net.cpp:122] Setting up conv3
I0511 15:47:03.046874 26444 net.cpp:129] Top shape: 224 384 13 13 (14536704)
I0511 15:47:03.046876 26444 net.cpp:137] Memory required for data: 1232036736
I0511 15:47:03.046885 26444 layer_factory.hpp:77] Creating layer relu3
I0511 15:47:03.046890 26444 net.cpp:84] Creating Layer relu3
I0511 15:47:03.046893 26444 net.cpp:406] relu3 <- conv3
I0511 15:47:03.046897 26444 net.cpp:367] relu3 -> conv3 (in-place)
I0511 15:47:03.047024 26444 net.cpp:122] Setting up relu3
I0511 15:47:03.047030 26444 net.cpp:129] Top shape: 224 384 13 13 (14536704)
I0511 15:47:03.047032 26444 net.cpp:137] Memory required for data: 1290183552
I0511 15:47:03.047034 26444 layer_factory.hpp:77] Creating layer conv4
I0511 15:47:03.047040 26444 net.cpp:84] Creating Layer conv4
I0511 15:47:03.047044 26444 net.cpp:406] conv4 <- conv3
I0511 15:47:03.047047 26444 net.cpp:380] conv4 -> conv4
I0511 15:47:03.053890 26444 net.cpp:122] Setting up conv4
I0511 15:47:03.053902 26444 net.cpp:129] Top shape: 224 384 13 13 (14536704)
I0511 15:47:03.053905 26444 net.cpp:137] Memory required for data: 1348330368
I0511 15:47:03.053910 26444 layer_factory.hpp:77] Creating layer relu4
I0511 15:47:03.053915 26444 net.cpp:84] Creating Layer relu4
I0511 15:47:03.053916 26444 net.cpp:406] relu4 <- conv4
I0511 15:47:03.053920 26444 net.cpp:367] relu4 -> conv4 (in-place)
I0511 15:47:03.054044 26444 net.cpp:122] Setting up relu4
I0511 15:47:03.054050 26444 net.cpp:129] Top shape: 224 384 13 13 (14536704)
I0511 15:47:03.054052 26444 net.cpp:137] Memory required for data: 1406477184
I0511 15:47:03.054064 26444 layer_factory.hpp:77] Creating layer conv5
I0511 15:47:03.054070 26444 net.cpp:84] Creating Layer conv5
I0511 15:47:03.054072 26444 net.cpp:406] conv5 <- conv4
I0511 15:47:03.054077 26444 net.cpp:380] conv5 -> conv5
I0511 15:47:03.059487 26444 net.cpp:122] Setting up conv5
I0511 15:47:03.059500 26444 net.cpp:129] Top shape: 224 256 13 13 (9691136)
I0511 15:47:03.059504 26444 net.cpp:137] Memory required for data: 1445241728
I0511 15:47:03.059515 26444 layer_factory.hpp:77] Creating layer relu5
I0511 15:47:03.059521 26444 net.cpp:84] Creating Layer relu5
I0511 15:47:03.059525 26444 net.cpp:406] relu5 <- conv5
I0511 15:47:03.059530 26444 net.cpp:367] relu5 -> conv5 (in-place)
I0511 15:47:03.059677 26444 net.cpp:122] Setting up relu5
I0511 15:47:03.059684 26444 net.cpp:129] Top shape: 224 256 13 13 (9691136)
I0511 15:47:03.059686 26444 net.cpp:137] Memory required for data: 1484006272
I0511 15:47:03.059689 26444 layer_factory.hpp:77] Creating layer pool5
I0511 15:47:03.059692 26444 net.cpp:84] Creating Layer pool5
I0511 15:47:03.059695 26444 net.cpp:406] pool5 <- conv5
I0511 15:47:03.059700 26444 net.cpp:380] pool5 -> pool5
I0511 15:47:03.059741 26444 net.cpp:122] Setting up pool5
I0511 15:47:03.059747 26444 net.cpp:129] Top shape: 224 256 6 6 (2064384)
I0511 15:47:03.059751 26444 net.cpp:137] Memory required for data: 1492263808
I0511 15:47:03.059754 26444 layer_factory.hpp:77] Creating layer fc6
I0511 15:47:03.059764 26444 net.cpp:84] Creating Layer fc6
I0511 15:47:03.059768 26444 net.cpp:406] fc6 <- pool5
I0511 15:47:03.059773 26444 net.cpp:380] fc6 -> fc6
I0511 15:47:03.313248 26444 net.cpp:122] Setting up fc6
I0511 15:47:03.313267 26444 net.cpp:129] Top shape: 224 4096 (917504)
I0511 15:47:03.313269 26444 net.cpp:137] Memory required for data: 1495933824
I0511 15:47:03.313275 26444 layer_factory.hpp:77] Creating layer relu6
I0511 15:47:03.313282 26444 net.cpp:84] Creating Layer relu6
I0511 15:47:03.313284 26444 net.cpp:406] relu6 <- fc6
I0511 15:47:03.313287 26444 net.cpp:367] relu6 -> fc6 (in-place)
I0511 15:47:03.313973 26444 net.cpp:122] Setting up relu6
I0511 15:47:03.313983 26444 net.cpp:129] Top shape: 224 4096 (917504)
I0511 15:47:03.313985 26444 net.cpp:137] Memory required for data: 1499603840
I0511 15:47:03.313987 26444 layer_factory.hpp:77] Creating layer drop6
I0511 15:47:03.313992 26444 net.cpp:84] Creating Layer drop6
I0511 15:47:03.313993 26444 net.cpp:406] drop6 <- fc6
I0511 15:47:03.313997 26444 net.cpp:367] drop6 -> fc6 (in-place)
I0511 15:47:03.314019 26444 net.cpp:122] Setting up drop6
I0511 15:47:03.314023 26444 net.cpp:129] Top shape: 224 4096 (917504)
I0511 15:47:03.314025 26444 net.cpp:137] Memory required for data: 1503273856
I0511 15:47:03.314028 26444 layer_factory.hpp:77] Creating layer fc7
I0511 15:47:03.314034 26444 net.cpp:84] Creating Layer fc7
I0511 15:47:03.314036 26444 net.cpp:406] fc7 <- fc6
I0511 15:47:03.314040 26444 net.cpp:380] fc7 -> fc7
I0511 15:47:03.426818 26444 net.cpp:122] Setting up fc7
I0511 15:47:03.426837 26444 net.cpp:129] Top shape: 224 4096 (917504)
I0511 15:47:03.426839 26444 net.cpp:137] Memory required for data: 1506943872
I0511 15:47:03.426846 26444 layer_factory.hpp:77] Creating layer relu7
I0511 15:47:03.426851 26444 net.cpp:84] Creating Layer relu7
I0511 15:47:03.426853 26444 net.cpp:406] relu7 <- fc7
I0511 15:47:03.426858 26444 net.cpp:367] relu7 -> fc7 (in-place)
I0511 15:47:03.427016 26444 net.cpp:122] Setting up relu7
I0511 15:47:03.427022 26444 net.cpp:129] Top shape: 224 4096 (917504)
I0511 15:47:03.427024 26444 net.cpp:137] Memory required for data: 1510613888
I0511 15:47:03.427026 26444 layer_factory.hpp:77] Creating layer drop7
I0511 15:47:03.427031 26444 net.cpp:84] Creating Layer drop7
I0511 15:47:03.427031 26444 net.cpp:406] drop7 <- fc7
I0511 15:47:03.427036 26444 net.cpp:367] drop7 -> fc7 (in-place)
I0511 15:47:03.427055 26444 net.cpp:122] Setting up drop7
I0511 15:47:03.427059 26444 net.cpp:129] Top shape: 224 4096 (917504)
I0511 15:47:03.427062 26444 net.cpp:137] Memory required for data: 1514283904
I0511 15:47:03.427073 26444 layer_factory.hpp:77] Creating layer fc8
I0511 15:47:03.427081 26444 net.cpp:84] Creating Layer fc8
I0511 15:47:03.427085 26444 net.cpp:406] fc8 <- fc7
I0511 15:47:03.427091 26444 net.cpp:380] fc8 -> fc8
I0511 15:47:03.428786 26444 net.cpp:122] Setting up fc8
I0511 15:47:03.428792 26444 net.cpp:129] Top shape: 224 43 (9632)
I0511 15:47:03.428795 26444 net.cpp:137] Memory required for data: 1514322432
I0511 15:47:03.428798 26444 layer_factory.hpp:77] Creating layer loss
I0511 15:47:03.428802 26444 net.cpp:84] Creating Layer loss
I0511 15:47:03.428804 26444 net.cpp:406] loss <- fc8
I0511 15:47:03.428810 26444 net.cpp:406] loss <- label
I0511 15:47:03.428815 26444 net.cpp:380] loss -> loss
I0511 15:47:03.428823 26444 layer_factory.hpp:77] Creating layer loss
…
I0511 15:47:03.429827 26444 net.cpp:294] The NetState phase (1) differed from the phase (0) specified by a rule in layer data
I0511 15:47:03.429937 26444 net.cpp:51] Initializing net from parameters: 
name: "CaffeNet"
state {
  phase: TEST
}
layer {
  name: "data"
  type: "Data"
  top: "data"
  top: "label"
  include {
    phase: TEST
  }
  transform_param {
    mirror: false
    crop_size: 224
    mean_file: "/home/user1/GTSRB/input/mean_224.binaryproto"
  }
  data_param {
    source: "/home/user1/GTSRB/input/validation_lmdb_224"
    batch_size: 50
    backend: LMDB
  }
}
layer {
  name: "conv1"
  type: "Convolution"
  bottom: "data"
  top: "conv1"
  param {
    lr_mult: 1
    decay_mult: 1
  }
  param {
    lr_mult: 2
    decay_mult: 0
  }
  convolution_param {
    num_output: 96
    kernel_size: 11
    stride: 4
    weight_filler {
      type: "gaussian"
      std: 0.01
    }
    bias_filler {
      type: "constant"
      value: 0
    }
  }
}
layer {
  name: "relu1"
  type: "ReLU"
  bottom: "conv1"
  top: "conv1"
}
layer {
  name: "pool1"
  type: "Pooling"
  bottom: "conv1"
  top: "pool1"
  pooling_param {
    pool: MAX
    kernel_size: 3
    stride: 2
  }
}
layer {
  name: "norm1"
  type: "LRN"
  bottom: "pool1"
  top: "norm1"
  lrn_param {
    local_size: 5
    alpha: 0.0001
    beta: 0.75
  }
}
layer {
  name: "conv2"
  type: "Convolution"
  bottom: "norm1"
  top: "conv2"
  param {
    lr_mult: 1
    decay_mult: 1
  }
  param {
    lr_mult: 2
    decay_mult: 0
  }
  convolution_param {
    num_output: 256
    pad: 2
    kernel_size: 5
    group: 2
    weight_filler {
      type: "gaussian"
      std: 0.01
    }
    bias_filler {
      type: "constant"
      value: 1
    }
  }
}
layer {
  name: "relu2"
  type: "ReLU"
  bottom: "conv2"
  top: "conv2"
}
layer {
  name: "pool2"
  type: "Pooling"
  bottom: "conv2"
  top: "pool2"
  pooling_param {
    pool: MAX
    kernel_size: 3
    stride: 2
  }
}
layer {
  name: "norm2"
  type: "LRN"
  bottom: "pool2"
  top: "norm2"
  lrn_param {
    local_size: 5
    alpha: 0.0001
    beta: 0.75
  }
}
layer {
  name: "conv3"
  type: "Convolution"
  bottom: "norm2"
  top: "conv3"
  param {
    lr_mult: 1
    decay_mult: 1
  }
  param {
    lr_mult: 2
    decay_mult: 0
  }
  convolution_param {
    num_output: 384
    pad: 1
    kernel_size: 3
    weight_filler {
      type: "gaussian"
      std: 0.01
    }
    bias_filler {
      type: "constant"
      value: 0
    }
  }
}
layer {
  name: "relu3"
  type: "ReLU"
  bottom: "conv3"
  top: "conv3"
}
layer {
  name: "conv4"
  type: "Convolution"
  bottom: "conv3"
  top: "conv4"
  param {
    lr_mult: 1
    decay_mult: 1
  }
  param {
    lr_mult: 2
    decay_mult: 0
  }
  convolution_param {
    num_output: 384
    pad: 1
    kernel_size: 3
    group: 2
    weight_filler {
      type: "gaussian"
      std: 0.01
    }
    bias_filler {
      type: "constant"
      value: 1
    }
  }
}
layer {
  name: "relu4"
  type: "ReLU"
  bottom: "conv4"
  top: "conv4"
}
layer {
  name: "conv5"
  type: "Convolution"
  bottom: "conv4"
  top: "conv5"
  param {
    lr_mult: 1
    decay_mult: 1
  }
  param {
    lr_mult: 2
    decay_mult: 0
  }
  convolution_param {
    num_output: 256
    pad: 1
    kernel_size: 3
    group: 2
    weight_filler {
      type: "gaussian"
      std: 0.01
    }
    bias_filler {
      type: "constant"
      value: 1
    }
  }
}
layer {
  name: "relu5"
  type: "ReLU"
  bottom: "conv5"
  top: "conv5"
}
layer {
  name: "pool5"
  type: "Pooling"
  bottom: "conv5"
  top: "pool5"
  pooling_param {
    pool: MAX
    kernel_size: 3
    stride: 2
  }
}
layer {
  name: "fc6"
  type: "InnerProduct"
  bottom: "pool5"
  top: "fc6"
  param {
    lr_mult: 1
    decay_mult: 1
  }
  param {
    lr_mult: 2
    decay_mult: 0
  }
  inner_product_param {
    num_output: 4096
    weight_filler {
      type: "gaussian"
      std: 0.005
    }
    bias_filler {
      type: "constant"
      value: 1
    }
  }
}
layer {
  name: "relu6"
  type: "ReLU"
  bottom: "fc6"
  top: "fc6"
}
layer {
  name: "drop6"
  type: "Dropout"
  bottom: "fc6"
  top: "fc6"
  dropout_param {
    dropout_ratio: 0.5
  }
}
layer {
  name: "fc7"
  type: "InnerProduct"
  bottom: "fc6"
  top: "fc7"
  param {
    lr_mult: 1
    decay_mult: 1
  }
  param {
    lr_mult: 2
    decay_mult: 0
  }
  inner_product_param {
    num_output: 4096
    weight_filler {
      type: "gaussian"
      std: 0.005
    }
    bias_filler {
      type: "constant"
      value: 1
    }
  }
}
layer {
  name: "relu7"
  type: "ReLU"
  bottom: "fc7"
  top: "fc7"
}
layer {
  name: "drop7"
  type: "Dropout"
  bottom: "fc7"
  top: "fc7"
  dropout_param {
    dropout_ratio: 0.5
  }
}
layer {
  name: "fc8"
  type: "InnerProduct"
  bottom: "fc7"
  top: "fc8"
  param {
    lr_mult: 1
    decay_mult: 1
  }
  param {
    lr_mult: 2
    decay_mult: 0
  }
  inner_product_param {
    num_output: 43
    weight_filler {
      type: "gaussian"
      std: 0.01
    }
    bias_filler {
      type: "constant"
      value: 0
    }
  }
}
layer {
  name: "accuracy"
  type: "Accuracy"
  bottom: "fc8"
  bottom: "label"
  top: "accuracy"
  include {
    phase: TEST
  }
}
layer {
  name: "loss"
  type: "SoftmaxWithLoss"
  bottom: "fc8"
  bottom: "label"
  top: "loss"
}
I0511 15:47:03.430011 26444 layer_factory.hpp:77] Creating layer data
I0511 15:47:03.430054 26444 db_lmdb.cpp:35] Opened lmdb /home/user1/GTSRB/input/validation_lmdb_224
I0511 15:47:03.432533 26444 net.cpp:84] Creating Layer data
I0511 15:47:03.432545 26444 net.cpp:380] data -> data
I0511 15:47:03.432551 26444 net.cpp:380] data -> label
I0511 15:47:03.432557 26444 data_transformer.cpp:25] Loading mean file from: /home/user1/GTSRB/input/mean_224.binaryproto
I0511 15:47:03.433830 26444 data_layer.cpp:45] output data size: 50,3,224,224
I0511 15:47:03.470324 26444 net.cpp:122] Setting up data
I0511 15:47:03.470341 26444 net.cpp:129] Top shape: 50 3 224 224 (7526400)
I0511 15:47:03.470345 26444 net.cpp:129] Top shape: 50 (50)
I0511 15:47:03.470347 26444 net.cpp:137] Memory required for data: 30105800
I0511 15:47:03.470351 26444 layer_factory.hpp:77] Creating layer label_data_1_split
I0511 15:47:03.470360 26444 net.cpp:84] Creating Layer label_data_1_split
I0511 15:47:03.470363 26444 net.cpp:406] label_data_1_split <- label
I0511 15:47:03.470367 26444 net.cpp:380] label_data_1_split -> label_data_1_split_0
I0511 15:47:03.470373 26444 net.cpp:380] label_data_1_split -> label_data_1_split_1
I0511 15:47:03.470474 26444 net.cpp:122] Setting up label_data_1_split
I0511 15:47:03.470484 26444 net.cpp:129] Top shape: 50 (50)
I0511 15:47:03.470487 26444 net.cpp:129] Top shape: 50 (50)
I0511 15:47:03.470489 26444 net.cpp:137] Memory required for data: 30106200
I0511 15:47:03.470491 26444 layer_factory.hpp:77] Creating layer conv1
I0511 15:47:03.470499 26444 net.cpp:84] Creating Layer conv1
I0511 15:47:03.470502 26444 net.cpp:406] conv1 <- data
I0511 15:47:03.470506 26444 net.cpp:380] conv1 -> conv1
I0511 15:47:03.474079 26444 net.cpp:122] Setting up conv1
I0511 15:47:03.474089 26444 net.cpp:129] Top shape: 50 96 54 54 (13996800)
I0511 15:47:03.474092 26444 net.cpp:137] Memory required for data: 86093400
I0511 15:47:03.474099 26444 layer_factory.hpp:77] Creating layer relu1
I0511 15:47:03.474104 26444 net.cpp:84] Creating Layer relu1
I0511 15:47:03.474107 26444 net.cpp:406] relu1 <- conv1
I0511 15:47:03.474110 26444 net.cpp:367] relu1 -> conv1 (in-place)
I0511 15:47:03.474223 26444 net.cpp:122] Setting up relu1
I0511 15:47:03.474230 26444 net.cpp:129] Top shape: 50 96 54 54 (13996800)
I0511 15:47:03.474231 26444 net.cpp:137] Memory required for data: 142080600
I0511 15:47:03.474233 26444 layer_factory.hpp:77] Creating layer pool1
I0511 15:47:03.474238 26444 net.cpp:84] Creating Layer pool1
I0511 15:47:03.474241 26444 net.cpp:406] pool1 <- conv1
I0511 15:47:03.474243 26444 net.cpp:380] pool1 -> pool1
I0511 15:47:03.474272 26444 net.cpp:122] Setting up pool1
I0511 15:47:03.474277 26444 net.cpp:129] Top shape: 50 96 27 27 (3499200)
I0511 15:47:03.474278 26444 net.cpp:137] Memory required for data: 156077400
I0511 15:47:03.474279 26444 layer_factory.hpp:77] Creating layer norm1
I0511 15:47:03.474284 26444 net.cpp:84] Creating Layer norm1
I0511 15:47:03.474287 26444 net.cpp:406] norm1 <- pool1
I0511 15:47:03.474289 26444 net.cpp:380] norm1 -> norm1
I0511 15:47:03.474987 26444 net.cpp:122] Setting up norm1
I0511 15:47:03.474997 26444 net.cpp:129] Top shape: 50 96 27 27 (3499200)
I0511 15:47:03.474999 26444 net.cpp:137] Memory required for data: 170074200
I0511 15:47:03.475002 26444 layer_factory.hpp:77] Creating layer conv2
I0511 15:47:03.475008 26444 net.cpp:84] Creating Layer conv2
I0511 15:47:03.475010 26444 net.cpp:406] conv2 <- norm1
I0511 15:47:03.475014 26444 net.cpp:380] conv2 -> conv2
I0511 15:47:03.478847 26444 net.cpp:122] Setting up conv2
I0511 15:47:03.478858 26444 net.cpp:129] Top shape: 50 256 27 27 (9331200)
I0511 15:47:03.478860 26444 net.cpp:137] Memory required for data: 207399000
I0511 15:47:03.478868 26444 layer_factory.hpp:77] Creating layer relu2
I0511 15:47:03.478891 26444 net.cpp:84] Creating Layer relu2
I0511 15:47:03.478894 26444 net.cpp:406] relu2 <- conv2
I0511 15:47:03.478898 26444 net.cpp:367] relu2 -> conv2 (in-place)
I0511 15:47:03.479475 26444 net.cpp:122] Setting up relu2
I0511 15:47:03.479483 26444 net.cpp:129] Top shape: 50 256 27 27 (9331200)
I0511 15:47:03.479485 26444 net.cpp:137] Memory required for data: 244723800
I0511 15:47:03.479487 26444 layer_factory.hpp:77] Creating layer pool2
I0511 15:47:03.479492 26444 net.cpp:84] Creating Layer pool2
I0511 15:47:03.479499 26444 net.cpp:406] pool2 <- conv2
I0511 15:47:03.479503 26444 net.cpp:380] pool2 -> pool2
I0511 15:47:03.479533 26444 net.cpp:122] Setting up pool2
I0511 15:47:03.479547 26444 net.cpp:129] Top shape: 50 256 13 13 (2163200)
I0511 15:47:03.479549 26444 net.cpp:137] Memory required for data: 253376600
I0511 15:47:03.479552 26444 layer_factory.hpp:77] Creating layer norm2
I0511 15:47:03.479555 26444 net.cpp:84] Creating Layer norm2
I0511 15:47:03.479557 26444 net.cpp:406] norm2 <- pool2
I0511 15:47:03.479560 26444 net.cpp:380] norm2 -> norm2
I0511 15:47:03.479683 26444 net.cpp:122] Setting up norm2
I0511 15:47:03.479688 26444 net.cpp:129] Top shape: 50 256 13 13 (2163200)
I0511 15:47:03.479691 26444 net.cpp:137] Memory required for data: 262029400
I0511 15:47:03.479693 26444 layer_factory.hpp:77] Creating layer conv3
I0511 15:47:03.479698 26444 net.cpp:84] Creating Layer conv3
I0511 15:47:03.479701 26444 net.cpp:406] conv3 <- norm2
I0511 15:47:03.479703 26444 net.cpp:380] conv3 -> conv3
I0511 15:47:03.487692 26444 net.cpp:122] Setting up conv3
I0511 15:47:03.487710 26444 net.cpp:129] Top shape: 50 384 13 13 (3244800)
I0511 15:47:03.487713 26444 net.cpp:137] Memory required for data: 275008600
I0511 15:47:03.487722 26444 layer_factory.hpp:77] Creating layer relu3
I0511 15:47:03.487730 26444 net.cpp:84] Creating Layer relu3
I0511 15:47:03.487732 26444 net.cpp:406] relu3 <- conv3
I0511 15:47:03.487736 26444 net.cpp:367] relu3 -> conv3 (in-place)
I0511 15:47:03.487876 26444 net.cpp:122] Setting up relu3
I0511 15:47:03.487884 26444 net.cpp:129] Top shape: 50 384 13 13 (3244800)
I0511 15:47:03.487885 26444 net.cpp:137] Memory required for data: 287987800
I0511 15:47:03.487887 26444 layer_factory.hpp:77] Creating layer conv4
I0511 15:47:03.487895 26444 net.cpp:84] Creating Layer conv4
I0511 15:47:03.487902 26444 net.cpp:406] conv4 <- conv3
I0511 15:47:03.487906 26444 net.cpp:380] conv4 -> conv4
I0511 15:47:03.495118 26444 net.cpp:122] Setting up conv4
I0511 15:47:03.495131 26444 net.cpp:129] Top shape: 50 384 13 13 (3244800)
I0511 15:47:03.495134 26444 net.cpp:137] Memory required for data: 300967000
I0511 15:47:03.495139 26444 layer_factory.hpp:77] Creating layer relu4
I0511 15:47:03.495144 26444 net.cpp:84] Creating Layer relu4
I0511 15:47:03.495147 26444 net.cpp:406] relu4 <- conv4
I0511 15:47:03.495151 26444 net.cpp:367] relu4 -> conv4 (in-place)
I0511 15:47:03.495276 26444 net.cpp:122] Setting up relu4
I0511 15:47:03.495281 26444 net.cpp:129] Top shape: 50 384 13 13 (3244800)
I0511 15:47:03.495283 26444 net.cpp:137] Memory required for data: 313946200
I0511 15:47:03.495286 26444 layer_factory.hpp:77] Creating layer conv5
I0511 15:47:03.495292 26444 net.cpp:84] Creating Layer conv5
I0511 15:47:03.495296 26444 net.cpp:406] conv5 <- conv4
I0511 15:47:03.495299 26444 net.cpp:380] conv5 -> conv5
I0511 15:47:03.503001 26444 net.cpp:122] Setting up conv5
I0511 15:47:03.503012 26444 net.cpp:129] Top shape: 50 256 13 13 (2163200)
I0511 15:47:03.503015 26444 net.cpp:137] Memory required for data: 322599000
I0511 15:47:03.503022 26444 layer_factory.hpp:77] Creating layer relu5
I0511 15:47:03.503027 26444 net.cpp:84] Creating Layer relu5
I0511 15:47:03.503031 26444 net.cpp:406] relu5 <- conv5
I0511 15:47:03.503036 26444 net.cpp:367] relu5 -> conv5 (in-place)
I0511 15:47:03.503151 26444 net.cpp:122] Setting up relu5
I0511 15:47:03.503157 26444 net.cpp:129] Top shape: 50 256 13 13 (2163200)
I0511 15:47:03.503159 26444 net.cpp:137] Memory required for data: 331251800
I0511 15:47:03.503161 26444 layer_factory.hpp:77] Creating layer pool5
I0511 15:47:03.503177 26444 net.cpp:84] Creating Layer pool5
I0511 15:47:03.503180 26444 net.cpp:406] pool5 <- conv5
I0511 15:47:03.503183 26444 net.cpp:380] pool5 -> pool5
I0511 15:47:03.503216 26444 net.cpp:122] Setting up pool5
I0511 15:47:03.503221 26444 net.cpp:129] Top shape: 50 256 6 6 (460800)
I0511 15:47:03.503222 26444 net.cpp:137] Memory required for data: 333095000
I0511 15:47:03.503224 26444 layer_factory.hpp:77] Creating layer fc6
I0511 15:47:03.503229 26444 net.cpp:84] Creating Layer fc6
I0511 15:47:03.503232 26444 net.cpp:406] fc6 <- pool5
I0511 15:47:03.503234 26444 net.cpp:380] fc6 -> fc6
I0511 15:47:03.760965 26444 net.cpp:122] Setting up fc6
I0511 15:47:03.760980 26444 net.cpp:129] Top shape: 50 4096 (204800)
I0511 15:47:03.760982 26444 net.cpp:137] Memory required for data: 333914200
I0511 15:47:03.760988 26444 layer_factory.hpp:77] Creating layer relu6
I0511 15:47:03.760994 26444 net.cpp:84] Creating Layer relu6
I0511 15:47:03.760998 26444 net.cpp:406] relu6 <- fc6
I0511 15:47:03.761000 26444 net.cpp:367] relu6 -> fc6 (in-place)
I0511 15:47:03.761147 26444 net.cpp:122] Setting up relu6
I0511 15:47:03.761152 26444 net.cpp:129] Top shape: 50 4096 (204800)
I0511 15:47:03.761155 26444 net.cpp:137] Memory required for data: 334733400
I0511 15:47:03.761157 26444 layer_factory.hpp:77] Creating layer drop6
I0511 15:47:03.761160 26444 net.cpp:84] Creating Layer drop6
I0511 15:47:03.761162 26444 net.cpp:406] drop6 <- fc6
I0511 15:47:03.761167 26444 net.cpp:367] drop6 -> fc6 (in-place)
I0511 15:47:03.761186 26444 net.cpp:122] Setting up drop6
I0511 15:47:03.761189 26444 net.cpp:129] Top shape: 50 4096 (204800)
I0511 15:47:03.761191 26444 net.cpp:137] Memory required for data: 335552600
I0511 15:47:03.761193 26444 layer_factory.hpp:77] Creating layer fc7
I0511 15:47:03.761198 26444 net.cpp:84] Creating Layer fc7
I0511 15:47:03.761200 26444 net.cpp:406] fc7 <- fc6
I0511 15:47:03.761204 26444 net.cpp:380] fc7 -> fc7
I0511 15:47:03.874363 26444 net.cpp:122] Setting up fc7
I0511 15:47:03.874382 26444 net.cpp:129] Top shape: 50 4096 (204800)
I0511 15:47:03.874384 26444 net.cpp:137] Memory required for data: 336371800
I0511 15:47:03.874390 26444 layer_factory.hpp:77] Creating layer relu7
I0511 15:47:03.874397 26444 net.cpp:84] Creating Layer relu7
I0511 15:47:03.874399 26444 net.cpp:406] relu7 <- fc7
I0511 15:47:03.874402 26444 net.cpp:367] relu7 -> fc7 (in-place)
I0511 15:47:03.875056 26444 net.cpp:122] Setting up relu7
I0511 15:47:03.875063 26444 net.cpp:129] Top shape: 50 4096 (204800)
I0511 15:47:03.875066 26444 net.cpp:137] Memory required for data: 337191000
I0511 15:47:03.875067 26444 layer_factory.hpp:77] Creating layer drop7
I0511 15:47:03.875072 26444 net.cpp:84] Creating Layer drop7
I0511 15:47:03.875074 26444 net.cpp:406] drop7 <- fc7
I0511 15:47:03.875077 26444 net.cpp:367] drop7 -> fc7 (in-place)
I0511 15:47:03.875098 26444 net.cpp:122] Setting up drop7
I0511 15:47:03.875102 26444 net.cpp:129] Top shape: 50 4096 (204800)
I0511 15:47:03.875103 26444 net.cpp:137] Memory required for data: 338010200
I0511 15:47:03.875105 26444 layer_factory.hpp:77] Creating layer fc8
I0511 15:47:03.875109 26444 net.cpp:84] Creating Layer fc8
I0511 15:47:03.875113 26444 net.cpp:406] fc8 <- fc7
I0511 15:47:03.875119 26444 net.cpp:380] fc8 -> fc8
I0511 15:47:03.876269 26444 net.cpp:122] Setting up fc8
I0511 15:47:03.876274 26444 net.cpp:129] Top shape: 50 43 (2150)
I0511 15:47:03.876276 26444 net.cpp:137] Memory required for data: 338018800
I0511 15:47:03.876281 26444 layer_factory.hpp:77] Creating layer fc8_fc8_0_split
I0511 15:47:03.876283 26444 net.cpp:84] Creating Layer fc8_fc8_0_split
I0511 15:47:03.876286 26444 net.cpp:406] fc8_fc8_0_split <- fc8
I0511 15:47:03.876288 26444 net.cpp:380] fc8_fc8_0_split -> fc8_fc8_0_split_0
I0511 15:47:03.876292 26444 net.cpp:380] fc8_fc8_0_split -> fc8_fc8_0_split_1
I0511 15:47:03.876317 26444 net.cpp:122] Setting up fc8_fc8_0_split
I0511 15:47:03.876322 26444 net.cpp:129] Top shape: 50 43 (2150)
I0511 15:47:03.876323 26444 net.cpp:129] Top shape: 50 43 (2150)
I0511 15:47:03.876334 26444 net.cpp:137] Memory required for data: 338036000
I0511 15:47:03.876338 26444 layer_factory.hpp:77] Creating layer accuracy
I0511 15:47:03.876341 26444 net.cpp:84] Creating Layer accuracy
I0511 15:47:03.876343 26444 net.cpp:406] accuracy <- fc8_fc8_0_split_0
I0511 15:47:03.876345 26444 net.cpp:406] accuracy <- label_data_1_split_0
I0511 15:47:03.876350 26444 net.cpp:380] accuracy -> accuracy
…
