…
I0512 12:13:37.780802  3689 net.cpp:294] The NetState phase (0) differed from the phase (1) specified by a rule in layer accuracy
I0512 12:13:37.780932  3689 net.cpp:51] Initializing net from parameters: 
name: "CaffeNet"
state {
  phase: TRAIN
  level: 0
  stage: ""
}
layer {
  name: "data"
  type: "Data"
  top: "data"
  top: "label"
  include {
    phase: TRAIN
  }
  transform_param {
    mirror: false
    crop_size: 224
    mean_file: "/home/user1/GTSRB/input/mean_224.binaryproto"
  }
  data_param {
    source: "/home/user1/GTSRB/input/train_lmdb_224"
    batch_size: 224
    backend: LMDB
  }
}
layer {
  name: "conv1"
  type: "Convolution"
  bottom: "data"
  top: "conv1"
  param {
    lr_mult: 1
    decay_mult: 1
  }
  param {
    lr_mult: 2
    decay_mult: 0
  }
  convolution_param {
    num_output: 96
    kernel_size: 11
    stride: 4
    weight_filler {
      type: "xavier"
    }
    bias_filler {
      type: "constant"
      value: 0
    }
  }
}
layer {
  name: "prelu1"
  type: "PReLU"
  bottom: "conv1"
  top: "conv1"
  param {
    lr_mult: 1
    decay_mult: 0
  }
  prelu_param {
    filler {
      type: "constant"
      value: 0
    }
    channel_shared: false
  }
}
layer {
  name: "pool1"
  type: "Pooling"
  bottom: "conv1"
  top: "pool1"
  pooling_param {
    pool: MAX
    kernel_size: 3
    stride: 2
  }
}
layer {
  name: "norm1"
  type: "LRN"
  bottom: "pool1"
  top: "norm1"
  lrn_param {
    local_size: 5
    alpha: 0.0001
    beta: 0.75
  }
}
layer {
  name: "conv2"
  type: "Convolution"
  bottom: "norm1"
  top: "conv2"
  param {
    lr_mult: 1
    decay_mult: 1
  }
  param {
    lr_mult: 2
    decay_mult: 0
  }
  convolution_param {
    num_output: 256
    pad: 2
    kernel_size: 5
    group: 2
    weight_filler {
      type: "xavier"
    }
    bias_filler {
      type: "constant"
      value: 1
    }
  }
}
layer {
  name: "prelu2"
  type: "PReLU"
  bottom: "conv2"
  top: "conv2"
  param {
    lr_mult: 1
    decay_mult: 0
  }
  prelu_param {
    filler {
      type: "constant"
      value: 0
    }
    channel_shared: false
  }
}
layer {
  name: "pool2"
  type: "Pooling"
  bottom: "conv2"
  top: "pool2"
  pooling_param {
    pool: MAX
    kernel_size: 3
    stride: 2
  }
}
layer {
  name: "norm2"
  type: "LRN"
  bottom: "pool2"
  top: "norm2"
  lrn_param {
    local_size: 5
    alpha: 0.0001
    beta: 0.75
  }
}
layer {
  name: "conv3"
  type: "Convolution"
  bottom: "norm2"
  top: "conv3"
  param {
    lr_mult: 1
    decay_mult: 1
  }
  param {
    lr_mult: 2
    decay_mult: 0
  }
  convolution_param {
    num_output: 384
    pad: 1
    kernel_size: 3
    weight_filler {
      type: "xavier"
    }
    bias_filler {
      type: "constant"
      value: 0
    }
  }
}
layer {
  name: "prelu3"
  type: "PReLU"
  bottom: "conv3"
  top: "conv3"
  param {
    lr_mult: 1
    decay_mult: 0
  }
  prelu_param {
    filler {
      type: "constant"
      value: 0
    }
    channel_shared: false
  }
}
layer {
  name: "conv4"
  type: "Convolution"
  bottom: "conv3"
  top: "conv4"
  param {
    lr_mult: 1
    decay_mult: 1
  }
  param {
    lr_mult: 2
    decay_mult: 0
  }
  convolution_param {
    num_output: 384
    pad: 1
    kernel_size: 3
    group: 2
    weight_filler {
      type: "xavier"
    }
    bias_filler {
      type: "constant"
      value: 1
    }
  }
}
layer {
  name: "prelu4"
  type: "PReLU"
  bottom: "conv4"
  top: "conv4"
  param {
    lr_mult: 1
    decay_mult: 0
  }
  prelu_param {
    filler {
      type: "constant"
      value: 0
    }
    channel_shared: false
  }
}
layer {
  name: "conv5"
  type: "Convolution"
  bottom: "conv4"
  top: "conv5"
  param {
    lr_mult: 1
    decay_mult: 1
  }
  param {
    lr_mult: 2
    decay_mult: 0
  }
  convolution_param {
    num_output: 256
    pad: 1
    kernel_size: 3
    group: 2
    weight_filler {
      type: "xavier"
    }
    bias_filler {
      type: "constant"
      value: 1
    }
  }
}
layer {
  name: "prelu5"
  type: "PReLU"
  bottom: "conv5"
  top: "conv5"
  param {
    lr_mult: 1
    decay_mult: 0
  }
  prelu_param {
    filler {
      type: "constant"
      value: 0
    }
    channel_shared: false
  }
}
layer {
  name: "pool5"
  type: "Pooling"
  bottom: "conv5"
  top: "pool5"
  pooling_param {
    pool: MAX
    kernel_size: 3
    stride: 2
  }
}
layer {
  name: "fc6"
  type: "InnerProduct"
  bottom: "pool5"
  top: "fc6"
  param {
    lr_mult: 1
    decay_mult: 1
  }
  param {
    lr_mult: 2
    decay_mult: 0
  }
  inner_product_param {
    num_output: 4096
    weight_filler {
      type: "xavier"
    }
    bias_filler {
      type: "constant"
      value: 1
    }
  }
}
layer {
  name: "prelu6"
  type: "PReLU"
  bottom: "fc6"
  top: "fc6"
  param {
    lr_mult: 1
    decay_mult: 0
  }
  prelu_param {
    filler {
      type: "constant"
      value: 0
    }
    channel_shared: false
  }
}
layer {
  name: "drop6"
  type: "Dropout"
  bottom: "fc6"
  top: "fc6"
  dropout_param {
    dropout_ratio: 0.5
  }
}
layer {
  name: "fc7"
  type: "InnerProduct"
  bottom: "fc6"
  top: "fc7"
  param {
    lr_mult: 1
    decay_mult: 1
  }
  param {
    lr_mult: 2
    decay_mult: 0
  }
  inner_product_param {
    num_output: 4096
    weight_filler {
      type: "xavier"
    }
    bias_filler {
      type: "constant"
      value: 1
    }
  }
}
layer {
  name: "prelu7"
  type: "PReLU"
  bottom: "fc7"
  top: "fc7"
  param {
    lr_mult: 1
    decay_mult: 0
  }
  prelu_param {
    filler {
      type: "constant"
      value: 0
    }
    channel_shared: false
  }
}
layer {
  name: "drop7"
  type: "Dropout"
  bottom: "fc7"
  top: "fc7"
  dropout_param {
    dropout_ratio: 0.5
  }
}
layer {
  name: "fc8"
  type: "InnerProduct"
  bottom: "fc7"
  top: "fc8"
  param {
    lr_mult: 1
    decay_mult: 1
  }
  param {
    lr_mult: 2
    decay_mult: 0
  }
  inner_product_param {
    num_output: 43
    weight_filler {
      type: "xavier"
    }
    bias_filler {
      type: "constant"
      value: 0
    }
  }
}
layer {
  name: "loss"
  type: "SoftmaxWithLoss"
  bottom: "fc8"
  bottom: "label"
  top: "loss"
}
I0512 12:13:37.781002  3689 layer_factory.hpp:77] Creating layer data
I0512 12:13:37.781072  3689 db_lmdb.cpp:35] Opened lmdb /home/user1/GTSRB/input/train_lmdb_224
I0512 12:13:37.781090  3689 net.cpp:84] Creating Layer data
I0512 12:13:37.781097  3689 net.cpp:380] data -> data
I0512 12:13:37.781111  3689 net.cpp:380] data -> label
I0512 12:13:37.781121  3689 data_transformer.cpp:25] Loading mean file from: /home/user1/GTSRB/input/mean_224.binaryproto
I0512 12:13:37.783064  3689 data_layer.cpp:45] output data size: 224,3,224,224
I0512 12:13:37.928243  3689 net.cpp:122] Setting up data
I0512 12:13:37.928261  3689 net.cpp:129] Top shape: 224 3 224 224 (33718272)
I0512 12:13:37.928264  3689 net.cpp:129] Top shape: 224 (224)
I0512 12:13:37.928267  3689 net.cpp:137] Memory required for data: 134873984
I0512 12:13:37.928273  3689 layer_factory.hpp:77] Creating layer conv1
I0512 12:13:37.928288  3689 net.cpp:84] Creating Layer conv1
I0512 12:13:37.928292  3689 net.cpp:406] conv1 <- data
I0512 12:13:37.928302  3689 net.cpp:380] conv1 -> conv1
I0512 12:13:38.176208  3689 net.cpp:122] Setting up conv1
I0512 12:13:38.176226  3689 net.cpp:129] Top shape: 224 96 54 54 (62705664)
I0512 12:13:38.176229  3689 net.cpp:137] Memory required for data: 385696640
I0512 12:13:38.176259  3689 layer_factory.hpp:77] Creating layer prelu1
I0512 12:13:38.176268  3689 net.cpp:84] Creating Layer prelu1
I0512 12:13:38.176271  3689 net.cpp:406] prelu1 <- conv1
I0512 12:13:38.176276  3689 net.cpp:367] prelu1 -> conv1 (in-place)
I0512 12:13:38.176411  3689 net.cpp:122] Setting up prelu1
I0512 12:13:38.176416  3689 net.cpp:129] Top shape: 224 96 54 54 (62705664)
I0512 12:13:38.176419  3689 net.cpp:137] Memory required for data: 636519296
I0512 12:13:38.176422  3689 layer_factory.hpp:77] Creating layer pool1
I0512 12:13:38.176426  3689 net.cpp:84] Creating Layer pool1
I0512 12:13:38.176429  3689 net.cpp:406] pool1 <- conv1
I0512 12:13:38.176432  3689 net.cpp:380] pool1 -> pool1
I0512 12:13:38.176465  3689 net.cpp:122] Setting up pool1
I0512 12:13:38.176470  3689 net.cpp:129] Top shape: 224 96 27 27 (15676416)
I0512 12:13:38.176471  3689 net.cpp:137] Memory required for data: 699224960
I0512 12:13:38.176473  3689 layer_factory.hpp:77] Creating layer norm1
I0512 12:13:38.176481  3689 net.cpp:84] Creating Layer norm1
I0512 12:13:38.176482  3689 net.cpp:406] norm1 <- pool1
I0512 12:13:38.176486  3689 net.cpp:380] norm1 -> norm1
I0512 12:13:38.176628  3689 net.cpp:122] Setting up norm1
I0512 12:13:38.176635  3689 net.cpp:129] Top shape: 224 96 27 27 (15676416)
I0512 12:13:38.176636  3689 net.cpp:137] Memory required for data: 761930624
I0512 12:13:38.176640  3689 layer_factory.hpp:77] Creating layer conv2
I0512 12:13:38.176645  3689 net.cpp:84] Creating Layer conv2
I0512 12:13:38.176648  3689 net.cpp:406] conv2 <- norm1
I0512 12:13:38.176651  3689 net.cpp:380] conv2 -> conv2
I0512 12:13:38.180472  3689 net.cpp:122] Setting up conv2
I0512 12:13:38.180482  3689 net.cpp:129] Top shape: 224 256 27 27 (41803776)
I0512 12:13:38.180485  3689 net.cpp:137] Memory required for data: 929145728
I0512 12:13:38.180490  3689 layer_factory.hpp:77] Creating layer prelu2
I0512 12:13:38.180495  3689 net.cpp:84] Creating Layer prelu2
I0512 12:13:38.180497  3689 net.cpp:406] prelu2 <- conv2
I0512 12:13:38.180501  3689 net.cpp:367] prelu2 -> conv2 (in-place)
I0512 12:13:38.180588  3689 net.cpp:122] Setting up prelu2
I0512 12:13:38.180593  3689 net.cpp:129] Top shape: 224 256 27 27 (41803776)
I0512 12:13:38.180595  3689 net.cpp:137] Memory required for data: 1096360832
I0512 12:13:38.180598  3689 layer_factory.hpp:77] Creating layer pool2
I0512 12:13:38.180601  3689 net.cpp:84] Creating Layer pool2
I0512 12:13:38.180604  3689 net.cpp:406] pool2 <- conv2
I0512 12:13:38.180606  3689 net.cpp:380] pool2 -> pool2
I0512 12:13:38.180629  3689 net.cpp:122] Setting up pool2
I0512 12:13:38.180631  3689 net.cpp:129] Top shape: 224 256 13 13 (9691136)
I0512 12:13:38.180634  3689 net.cpp:137] Memory required for data: 1135125376
I0512 12:13:38.180635  3689 layer_factory.hpp:77] Creating layer norm2
I0512 12:13:38.180639  3689 net.cpp:84] Creating Layer norm2
I0512 12:13:38.180641  3689 net.cpp:406] norm2 <- pool2
I0512 12:13:38.180644  3689 net.cpp:380] norm2 -> norm2
I0512 12:13:38.180771  3689 net.cpp:122] Setting up norm2
I0512 12:13:38.180776  3689 net.cpp:129] Top shape: 224 256 13 13 (9691136)
I0512 12:13:38.180778  3689 net.cpp:137] Memory required for data: 1173889920
I0512 12:13:38.180780  3689 layer_factory.hpp:77] Creating layer conv3
I0512 12:13:38.180785  3689 net.cpp:84] Creating Layer conv3
I0512 12:13:38.180788  3689 net.cpp:406] conv3 <- norm2
I0512 12:13:38.180791  3689 net.cpp:380] conv3 -> conv3
I0512 12:13:38.186223  3689 net.cpp:122] Setting up conv3
I0512 12:13:38.186233  3689 net.cpp:129] Top shape: 224 384 13 13 (14536704)
I0512 12:13:38.186235  3689 net.cpp:137] Memory required for data: 1232036736
I0512 12:13:38.186239  3689 layer_factory.hpp:77] Creating layer prelu3
I0512 12:13:38.186245  3689 net.cpp:84] Creating Layer prelu3
I0512 12:13:38.186249  3689 net.cpp:406] prelu3 <- conv3
I0512 12:13:38.186251  3689 net.cpp:367] prelu3 -> conv3 (in-place)
I0512 12:13:38.186326  3689 net.cpp:122] Setting up prelu3
I0512 12:13:38.186331  3689 net.cpp:129] Top shape: 224 384 13 13 (14536704)
I0512 12:13:38.186333  3689 net.cpp:137] Memory required for data: 1290183552
I0512 12:13:38.186348  3689 layer_factory.hpp:77] Creating layer conv4
I0512 12:13:38.186354  3689 net.cpp:84] Creating Layer conv4
I0512 12:13:38.186357  3689 net.cpp:406] conv4 <- conv3
I0512 12:13:38.186360  3689 net.cpp:380] conv4 -> conv4
I0512 12:13:38.191798  3689 net.cpp:122] Setting up conv4
I0512 12:13:38.191815  3689 net.cpp:129] Top shape: 224 384 13 13 (14536704)
I0512 12:13:38.191818  3689 net.cpp:137] Memory required for data: 1348330368
I0512 12:13:38.191824  3689 layer_factory.hpp:77] Creating layer prelu4
I0512 12:13:38.191830  3689 net.cpp:84] Creating Layer prelu4
I0512 12:13:38.191833  3689 net.cpp:406] prelu4 <- conv4
I0512 12:13:38.191838  3689 net.cpp:367] prelu4 -> conv4 (in-place)
I0512 12:13:38.191916  3689 net.cpp:122] Setting up prelu4
I0512 12:13:38.191921  3689 net.cpp:129] Top shape: 224 384 13 13 (14536704)
I0512 12:13:38.191923  3689 net.cpp:137] Memory required for data: 1406477184
I0512 12:13:38.191926  3689 layer_factory.hpp:77] Creating layer conv5
I0512 12:13:38.191932  3689 net.cpp:84] Creating Layer conv5
I0512 12:13:38.191934  3689 net.cpp:406] conv5 <- conv4
I0512 12:13:38.191938  3689 net.cpp:380] conv5 -> conv5
I0512 12:13:38.196286  3689 net.cpp:122] Setting up conv5
I0512 12:13:38.196295  3689 net.cpp:129] Top shape: 224 256 13 13 (9691136)
I0512 12:13:38.196297  3689 net.cpp:137] Memory required for data: 1445241728
I0512 12:13:38.196301  3689 layer_factory.hpp:77] Creating layer prelu5
I0512 12:13:38.196307  3689 net.cpp:84] Creating Layer prelu5
I0512 12:13:38.196310  3689 net.cpp:406] prelu5 <- conv5
I0512 12:13:38.196312  3689 net.cpp:367] prelu5 -> conv5 (in-place)
I0512 12:13:38.196380  3689 net.cpp:122] Setting up prelu5
I0512 12:13:38.196385  3689 net.cpp:129] Top shape: 224 256 13 13 (9691136)
I0512 12:13:38.196386  3689 net.cpp:137] Memory required for data: 1484006272
I0512 12:13:38.196389  3689 layer_factory.hpp:77] Creating layer pool5
I0512 12:13:38.196393  3689 net.cpp:84] Creating Layer pool5
I0512 12:13:38.196396  3689 net.cpp:406] pool5 <- conv5
I0512 12:13:38.196399  3689 net.cpp:380] pool5 -> pool5
I0512 12:13:38.196422  3689 net.cpp:122] Setting up pool5
I0512 12:13:38.196426  3689 net.cpp:129] Top shape: 224 256 6 6 (2064384)
I0512 12:13:38.196429  3689 net.cpp:137] Memory required for data: 1492263808
I0512 12:13:38.196431  3689 layer_factory.hpp:77] Creating layer fc6
I0512 12:13:38.196436  3689 net.cpp:84] Creating Layer fc6
I0512 12:13:38.196439  3689 net.cpp:406] fc6 <- pool5
I0512 12:13:38.196442  3689 net.cpp:380] fc6 -> fc6
I0512 12:13:38.357668  3689 net.cpp:122] Setting up fc6
I0512 12:13:38.357687  3689 net.cpp:129] Top shape: 224 4096 (917504)
I0512 12:13:38.357691  3689 net.cpp:137] Memory required for data: 1495933824
I0512 12:13:38.357699  3689 layer_factory.hpp:77] Creating layer prelu6
I0512 12:13:38.357705  3689 net.cpp:84] Creating Layer prelu6
I0512 12:13:38.357707  3689 net.cpp:406] prelu6 <- fc6
I0512 12:13:38.357712  3689 net.cpp:367] prelu6 -> fc6 (in-place)
I0512 12:13:38.357770  3689 net.cpp:122] Setting up prelu6
I0512 12:13:38.357774  3689 net.cpp:129] Top shape: 224 4096 (917504)
I0512 12:13:38.357776  3689 net.cpp:137] Memory required for data: 1499603840
I0512 12:13:38.357779  3689 layer_factory.hpp:77] Creating layer drop6
I0512 12:13:38.357782  3689 net.cpp:84] Creating Layer drop6
I0512 12:13:38.357784  3689 net.cpp:406] drop6 <- fc6
I0512 12:13:38.357786  3689 net.cpp:367] drop6 -> fc6 (in-place)
I0512 12:13:38.357803  3689 net.cpp:122] Setting up drop6
I0512 12:13:38.357808  3689 net.cpp:129] Top shape: 224 4096 (917504)
I0512 12:13:38.357810  3689 net.cpp:137] Memory required for data: 1503273856
I0512 12:13:38.357811  3689 layer_factory.hpp:77] Creating layer fc7
I0512 12:13:38.357815  3689 net.cpp:84] Creating Layer fc7
I0512 12:13:38.357817  3689 net.cpp:406] fc7 <- fc6
I0512 12:13:38.357820  3689 net.cpp:380] fc7 -> fc7
I0512 12:13:38.429770  3689 net.cpp:122] Setting up fc7
I0512 12:13:38.429790  3689 net.cpp:129] Top shape: 224 4096 (917504)
I0512 12:13:38.429792  3689 net.cpp:137] Memory required for data: 1506943872
I0512 12:13:38.429812  3689 layer_factory.hpp:77] Creating layer prelu7
I0512 12:13:38.429819  3689 net.cpp:84] Creating Layer prelu7
I0512 12:13:38.429822  3689 net.cpp:406] prelu7 <- fc7
I0512 12:13:38.429826  3689 net.cpp:367] prelu7 -> fc7 (in-place)
I0512 12:13:38.429886  3689 net.cpp:122] Setting up prelu7
I0512 12:13:38.429890  3689 net.cpp:129] Top shape: 224 4096 (917504)
I0512 12:13:38.429893  3689 net.cpp:137] Memory required for data: 1510613888
I0512 12:13:38.429895  3689 layer_factory.hpp:77] Creating layer drop7
I0512 12:13:38.429898  3689 net.cpp:84] Creating Layer drop7
I0512 12:13:38.429900  3689 net.cpp:406] drop7 <- fc7
I0512 12:13:38.429903  3689 net.cpp:367] drop7 -> fc7 (in-place)
I0512 12:13:38.429916  3689 net.cpp:122] Setting up drop7
I0512 12:13:38.429919  3689 net.cpp:129] Top shape: 224 4096 (917504)
I0512 12:13:38.429920  3689 net.cpp:137] Memory required for data: 1514283904
I0512 12:13:38.429922  3689 layer_factory.hpp:77] Creating layer fc8
I0512 12:13:38.429926  3689 net.cpp:84] Creating Layer fc8
I0512 12:13:38.429927  3689 net.cpp:406] fc8 <- fc7
I0512 12:13:38.429930  3689 net.cpp:380] fc8 -> fc8
I0512 12:13:38.431187  3689 net.cpp:122] Setting up fc8
I0512 12:13:38.431195  3689 net.cpp:129] Top shape: 224 43 (9632)
I0512 12:13:38.431196  3689 net.cpp:137] Memory required for data: 1514322432
I0512 12:13:38.431200  3689 layer_factory.hpp:77] Creating layer loss
I0512 12:13:38.431203  3689 net.cpp:84] Creating Layer loss
I0512 12:13:38.431206  3689 net.cpp:406] loss <- fc8
I0512 12:13:38.431208  3689 net.cpp:406] loss <- label
I0512 12:13:38.431213  3689 net.cpp:380] loss -> loss
I0512 12:13:38.431222  3689 layer_factory.hpp:77] Creating layer loss
…
I0512 12:13:38.432255  3689 net.cpp:294] The NetState phase (1) differed from the phase (0) specified by a rule in layer data
I0512 12:13:38.432368  3689 net.cpp:51] Initializing net from parameters: 
name: "CaffeNet"
state {
  phase: TEST
}
layer {
  name: "data"
  type: "Data"
  top: "data"
  top: "label"
  include {
    phase: TEST
  }
  transform_param {
    mirror: false
    crop_size: 224
    mean_file: "/home/user1/GTSRB/input/mean_224.binaryproto"
  }
  data_param {
    source: "/home/user1/GTSRB/input/validation_lmdb_224"
    batch_size: 50
    backend: LMDB
  }
}
layer {
  name: "conv1"
  type: "Convolution"
  bottom: "data"
  top: "conv1"
  param {
    lr_mult: 1
    decay_mult: 1
  }
  param {
    lr_mult: 2
    decay_mult: 0
  }
  convolution_param {
    num_output: 96
    kernel_size: 11
    stride: 4
    weight_filler {
      type: "xavier"
    }
    bias_filler {
      type: "constant"
      value: 0
    }
  }
}
layer {
  name: "prelu1"
  type: "PReLU"
  bottom: "conv1"
  top: "conv1"
  param {
    lr_mult: 1
    decay_mult: 0
  }
  prelu_param {
    filler {
      type: "constant"
      value: 0
    }
    channel_shared: false
  }
}
layer {
  name: "pool1"
  type: "Pooling"
  bottom: "conv1"
  top: "pool1"
  pooling_param {
    pool: MAX
    kernel_size: 3
    stride: 2
  }
}
layer {
  name: "norm1"
  type: "LRN"
  bottom: "pool1"
  top: "norm1"
  lrn_param {
    local_size: 5
    alpha: 0.0001
    beta: 0.75
  }
}
layer {
  name: "conv2"
  type: "Convolution"
  bottom: "norm1"
  top: "conv2"
  param {
    lr_mult: 1
    decay_mult: 1
  }
  param {
    lr_mult: 2
    decay_mult: 0
  }
  convolution_param {
    num_output: 256
    pad: 2
    kernel_size: 5
    group: 2
    weight_filler {
      type: "xavier"
    }
    bias_filler {
      type: "constant"
      value: 1
    }
  }
}
layer {
  name: "prelu2"
  type: "PReLU"
  bottom: "conv2"
  top: "conv2"
  param {
    lr_mult: 1
    decay_mult: 0
  }
  prelu_param {
    filler {
      type: "constant"
      value: 0
    }
    channel_shared: false
  }
}
layer {
  name: "pool2"
  type: "Pooling"
  bottom: "conv2"
  top: "pool2"
  pooling_param {
    pool: MAX
    kernel_size: 3
    stride: 2
  }
}
layer {
  name: "norm2"
  type: "LRN"
  bottom: "pool2"
  top: "norm2"
  lrn_param {
    local_size: 5
    alpha: 0.0001
    beta: 0.75
  }
}
layer {
  name: "conv3"
  type: "Convolution"
  bottom: "norm2"
  top: "conv3"
  param {
    lr_mult: 1
    decay_mult: 1
  }
  param {
    lr_mult: 2
    decay_mult: 0
  }
  convolution_param {
    num_output: 384
    pad: 1
    kernel_size: 3
    weight_filler {
      type: "xavier"
    }
    bias_filler {
      type: "constant"
      value: 0
    }
  }
}
layer {
  name: "prelu3"
  type: "PReLU"
  bottom: "conv3"
  top: "conv3"
  param {
    lr_mult: 1
    decay_mult: 0
  }
  prelu_param {
    filler {
      type: "constant"
      value: 0
    }
    channel_shared: false
  }
}
layer {
  name: "conv4"
  type: "Convolution"
  bottom: "conv3"
  top: "conv4"
  param {
    lr_mult: 1
    decay_mult: 1
  }
  param {
    lr_mult: 2
    decay_mult: 0
  }
  convolution_param {
    num_output: 384
    pad: 1
    kernel_size: 3
    group: 2
    weight_filler {
      type: "xavier"
    }
    bias_filler {
      type: "constant"
      value: 1
    }
  }
}
layer {
  name: "prelu4"
  type: "PReLU"
  bottom: "conv4"
  top: "conv4"
  param {
    lr_mult: 1
    decay_mult: 0
  }
  prelu_param {
    filler {
      type: "constant"
      value: 0
    }
    channel_shared: false
  }
}
layer {
  name: "conv5"
  type: "Convolution"
  bottom: "conv4"
  top: "conv5"
  param {
    lr_mult: 1
    decay_mult: 1
  }
  param {
    lr_mult: 2
    decay_mult: 0
  }
  convolution_param {
    num_output: 256
    pad: 1
    kernel_size: 3
    group: 2
    weight_filler {
      type: "xavier"
    }
    bias_filler {
      type: "constant"
      value: 1
    }
  }
}
layer {
  name: "prelu5"
  type: "PReLU"
  bottom: "conv5"
  top: "conv5"
  param {
    lr_mult: 1
    decay_mult: 0
  }
  prelu_param {
    filler {
      type: "constant"
      value: 0
    }
    channel_shared: false
  }
}
layer {
  name: "pool5"
  type: "Pooling"
  bottom: "conv5"
  top: "pool5"
  pooling_param {
    pool: MAX
    kernel_size: 3
    stride: 2
  }
}
layer {
  name: "fc6"
  type: "InnerProduct"
  bottom: "pool5"
  top: "fc6"
  param {
    lr_mult: 1
    decay_mult: 1
  }
  param {
    lr_mult: 2
    decay_mult: 0
  }
  inner_product_param {
    num_output: 4096
    weight_filler {
      type: "xavier"
    }
    bias_filler {
      type: "constant"
      value: 1
    }
  }
}
layer {
  name: "prelu6"
  type: "PReLU"
  bottom: "fc6"
  top: "fc6"
  param {
    lr_mult: 1
    decay_mult: 0
  }
  prelu_param {
    filler {
      type: "constant"
      value: 0
    }
    channel_shared: false
  }
}
layer {
  name: "drop6"
  type: "Dropout"
  bottom: "fc6"
  top: "fc6"
  dropout_param {
    dropout_ratio: 0.5
  }
}
layer {
  name: "fc7"
  type: "InnerProduct"
  bottom: "fc6"
  top: "fc7"
  param {
    lr_mult: 1
    decay_mult: 1
  }
  param {
    lr_mult: 2
    decay_mult: 0
  }
  inner_product_param {
    num_output: 4096
    weight_filler {
      type: "xavier"
    }
    bias_filler {
      type: "constant"
      value: 1
    }
  }
}
layer {
  name: "prelu7"
  type: "PReLU"
  bottom: "fc7"
  top: "fc7"
  param {
    lr_mult: 1
    decay_mult: 0
  }
  prelu_param {
    filler {
      type: "constant"
      value: 0
    }
    channel_shared: false
  }
}
layer {
  name: "drop7"
  type: "Dropout"
  bottom: "fc7"
  top: "fc7"
  dropout_param {
    dropout_ratio: 0.5
  }
}
layer {
  name: "fc8"
  type: "InnerProduct"
  bottom: "fc7"
  top: "fc8"
  param {
    lr_mult: 1
    decay_mult: 1
  }
  param {
    lr_mult: 2
    decay_mult: 0
  }
  inner_product_param {
    num_output: 43
    weight_filler {
      type: "xavier"
    }
    bias_filler {
      type: "constant"
      value: 0
    }
  }
}
layer {
  name: "accuracy"
  type: "Accuracy"
  bottom: "fc8"
  bottom: "label"
  top: "accuracy"
  include {
    phase: TEST
  }
}
layer {
  name: "loss"
  type: "SoftmaxWithLoss"
  bottom: "fc8"
  bottom: "label"
  top: "loss"
}
I0512 12:13:38.432432  3689 layer_factory.hpp:77] Creating layer data
I0512 12:13:38.432471  3689 db_lmdb.cpp:35] Opened lmdb /home/user1/GTSRB/input/validation_lmdb_224
I0512 12:13:38.432481  3689 net.cpp:84] Creating Layer data
I0512 12:13:38.432483  3689 net.cpp:380] data -> data
I0512 12:13:38.432488  3689 net.cpp:380] data -> label
I0512 12:13:38.432492  3689 data_transformer.cpp:25] Loading mean file from: /home/user1/GTSRB/input/mean_224.binaryproto
I0512 12:13:38.433076  3689 data_layer.cpp:45] output data size: 50,3,224,224
I0512 12:13:38.468906  3689 net.cpp:122] Setting up data
I0512 12:13:38.468924  3689 net.cpp:129] Top shape: 50 3 224 224 (7526400)
I0512 12:13:38.468926  3689 net.cpp:129] Top shape: 50 (50)
I0512 12:13:38.468928  3689 net.cpp:137] Memory required for data: 30105800
I0512 12:13:38.468932  3689 layer_factory.hpp:77] Creating layer label_data_1_split
I0512 12:13:38.468940  3689 net.cpp:84] Creating Layer label_data_1_split
I0512 12:13:38.468942  3689 net.cpp:406] label_data_1_split <- label
I0512 12:13:38.468946  3689 net.cpp:380] label_data_1_split -> label_data_1_split_0
I0512 12:13:38.468952  3689 net.cpp:380] label_data_1_split -> label_data_1_split_1
I0512 12:13:38.469010  3689 net.cpp:122] Setting up label_data_1_split
I0512 12:13:38.469014  3689 net.cpp:129] Top shape: 50 (50)
I0512 12:13:38.469017  3689 net.cpp:129] Top shape: 50 (50)
I0512 12:13:38.469018  3689 net.cpp:137] Memory required for data: 30106200
I0512 12:13:38.469020  3689 layer_factory.hpp:77] Creating layer conv1
I0512 12:13:38.469027  3689 net.cpp:84] Creating Layer conv1
I0512 12:13:38.469029  3689 net.cpp:406] conv1 <- data
I0512 12:13:38.469033  3689 net.cpp:380] conv1 -> conv1
I0512 12:13:38.472573  3689 net.cpp:122] Setting up conv1
I0512 12:13:38.472580  3689 net.cpp:129] Top shape: 50 96 54 54 (13996800)
I0512 12:13:38.472582  3689 net.cpp:137] Memory required for data: 86093400
I0512 12:13:38.472589  3689 layer_factory.hpp:77] Creating layer prelu1
I0512 12:13:38.472605  3689 net.cpp:84] Creating Layer prelu1
I0512 12:13:38.472609  3689 net.cpp:406] prelu1 <- conv1
I0512 12:13:38.472611  3689 net.cpp:367] prelu1 -> conv1 (in-place)
I0512 12:13:38.473275  3689 net.cpp:122] Setting up prelu1
I0512 12:13:38.473285  3689 net.cpp:129] Top shape: 50 96 54 54 (13996800)
I0512 12:13:38.473287  3689 net.cpp:137] Memory required for data: 142080600
I0512 12:13:38.473292  3689 layer_factory.hpp:77] Creating layer pool1
I0512 12:13:38.473299  3689 net.cpp:84] Creating Layer pool1
I0512 12:13:38.473300  3689 net.cpp:406] pool1 <- conv1
I0512 12:13:38.473304  3689 net.cpp:380] pool1 -> pool1
I0512 12:13:38.473332  3689 net.cpp:122] Setting up pool1
I0512 12:13:38.473337  3689 net.cpp:129] Top shape: 50 96 27 27 (3499200)
I0512 12:13:38.473338  3689 net.cpp:137] Memory required for data: 156077400
I0512 12:13:38.473340  3689 layer_factory.hpp:77] Creating layer norm1
I0512 12:13:38.473345  3689 net.cpp:84] Creating Layer norm1
I0512 12:13:38.473346  3689 net.cpp:406] norm1 <- pool1
I0512 12:13:38.473350  3689 net.cpp:380] norm1 -> norm1
I0512 12:13:38.473493  3689 net.cpp:122] Setting up norm1
I0512 12:13:38.473500  3689 net.cpp:129] Top shape: 50 96 27 27 (3499200)
I0512 12:13:38.473501  3689 net.cpp:137] Memory required for data: 170074200
I0512 12:13:38.473503  3689 layer_factory.hpp:77] Creating layer conv2
I0512 12:13:38.473507  3689 net.cpp:84] Creating Layer conv2
I0512 12:13:38.473510  3689 net.cpp:406] conv2 <- norm1
I0512 12:13:38.473513  3689 net.cpp:380] conv2 -> conv2
I0512 12:13:38.477013  3689 net.cpp:122] Setting up conv2
I0512 12:13:38.477025  3689 net.cpp:129] Top shape: 50 256 27 27 (9331200)
I0512 12:13:38.477026  3689 net.cpp:137] Memory required for data: 207399000
I0512 12:13:38.477033  3689 layer_factory.hpp:77] Creating layer prelu2
I0512 12:13:38.477037  3689 net.cpp:84] Creating Layer prelu2
I0512 12:13:38.477039  3689 net.cpp:406] prelu2 <- conv2
I0512 12:13:38.477042  3689 net.cpp:367] prelu2 -> conv2 (in-place)
I0512 12:13:38.477140  3689 net.cpp:122] Setting up prelu2
I0512 12:13:38.477145  3689 net.cpp:129] Top shape: 50 256 27 27 (9331200)
I0512 12:13:38.477147  3689 net.cpp:137] Memory required for data: 244723800
I0512 12:13:38.477149  3689 layer_factory.hpp:77] Creating layer pool2
I0512 12:13:38.477154  3689 net.cpp:84] Creating Layer pool2
I0512 12:13:38.477156  3689 net.cpp:406] pool2 <- conv2
I0512 12:13:38.477159  3689 net.cpp:380] pool2 -> pool2
I0512 12:13:38.477185  3689 net.cpp:122] Setting up pool2
I0512 12:13:38.477190  3689 net.cpp:129] Top shape: 50 256 13 13 (2163200)
I0512 12:13:38.477191  3689 net.cpp:137] Memory required for data: 253376600
I0512 12:13:38.477193  3689 layer_factory.hpp:77] Creating layer norm2
I0512 12:13:38.477197  3689 net.cpp:84] Creating Layer norm2
I0512 12:13:38.477200  3689 net.cpp:406] norm2 <- pool2
I0512 12:13:38.477201  3689 net.cpp:380] norm2 -> norm2
I0512 12:13:38.477337  3689 net.cpp:122] Setting up norm2
I0512 12:13:38.477342  3689 net.cpp:129] Top shape: 50 256 13 13 (2163200)
I0512 12:13:38.477344  3689 net.cpp:137] Memory required for data: 262029400
I0512 12:13:38.477346  3689 layer_factory.hpp:77] Creating layer conv3
I0512 12:13:38.477351  3689 net.cpp:84] Creating Layer conv3
I0512 12:13:38.477354  3689 net.cpp:406] conv3 <- norm2
I0512 12:13:38.477357  3689 net.cpp:380] conv3 -> conv3
I0512 12:13:38.484897  3689 net.cpp:122] Setting up conv3
I0512 12:13:38.484910  3689 net.cpp:129] Top shape: 50 384 13 13 (3244800)
I0512 12:13:38.484913  3689 net.cpp:137] Memory required for data: 275008600
I0512 12:13:38.484920  3689 layer_factory.hpp:77] Creating layer prelu3
I0512 12:13:38.484925  3689 net.cpp:84] Creating Layer prelu3
I0512 12:13:38.484927  3689 net.cpp:406] prelu3 <- conv3
I0512 12:13:38.484931  3689 net.cpp:367] prelu3 -> conv3 (in-place)
I0512 12:13:38.485023  3689 net.cpp:122] Setting up prelu3
I0512 12:13:38.485028  3689 net.cpp:129] Top shape: 50 384 13 13 (3244800)
I0512 12:13:38.485029  3689 net.cpp:137] Memory required for data: 287987800
I0512 12:13:38.485046  3689 layer_factory.hpp:77] Creating layer conv4
I0512 12:13:38.485054  3689 net.cpp:84] Creating Layer conv4
I0512 12:13:38.485055  3689 net.cpp:406] conv4 <- conv3
I0512 12:13:38.485059  3689 net.cpp:380] conv4 -> conv4
I0512 12:13:38.490903  3689 net.cpp:122] Setting up conv4
I0512 12:13:38.490921  3689 net.cpp:129] Top shape: 50 384 13 13 (3244800)
I0512 12:13:38.490924  3689 net.cpp:137] Memory required for data: 300967000
I0512 12:13:38.490931  3689 layer_factory.hpp:77] Creating layer prelu4
I0512 12:13:38.490937  3689 net.cpp:84] Creating Layer prelu4
I0512 12:13:38.490941  3689 net.cpp:406] prelu4 <- conv4
I0512 12:13:38.490944  3689 net.cpp:367] prelu4 -> conv4 (in-place)
I0512 12:13:38.491041  3689 net.cpp:122] Setting up prelu4
I0512 12:13:38.491046  3689 net.cpp:129] Top shape: 50 384 13 13 (3244800)
I0512 12:13:38.491049  3689 net.cpp:137] Memory required for data: 313946200
I0512 12:13:38.491051  3689 layer_factory.hpp:77] Creating layer conv5
I0512 12:13:38.491056  3689 net.cpp:84] Creating Layer conv5
I0512 12:13:38.491058  3689 net.cpp:406] conv5 <- conv4
I0512 12:13:38.491062  3689 net.cpp:380] conv5 -> conv5
I0512 12:13:38.497932  3689 net.cpp:122] Setting up conv5
I0512 12:13:38.497946  3689 net.cpp:129] Top shape: 50 256 13 13 (2163200)
I0512 12:13:38.497948  3689 net.cpp:137] Memory required for data: 322599000
I0512 12:13:38.497954  3689 layer_factory.hpp:77] Creating layer prelu5
I0512 12:13:38.497961  3689 net.cpp:84] Creating Layer prelu5
I0512 12:13:38.497962  3689 net.cpp:406] prelu5 <- conv5
I0512 12:13:38.497967  3689 net.cpp:367] prelu5 -> conv5 (in-place)
I0512 12:13:38.498044  3689 net.cpp:122] Setting up prelu5
I0512 12:13:38.498049  3689 net.cpp:129] Top shape: 50 256 13 13 (2163200)
I0512 12:13:38.498051  3689 net.cpp:137] Memory required for data: 331251800
I0512 12:13:38.498054  3689 layer_factory.hpp:77] Creating layer pool5
I0512 12:13:38.498060  3689 net.cpp:84] Creating Layer pool5
I0512 12:13:38.498062  3689 net.cpp:406] pool5 <- conv5
I0512 12:13:38.498065  3689 net.cpp:380] pool5 -> pool5
I0512 12:13:38.498092  3689 net.cpp:122] Setting up pool5
I0512 12:13:38.498096  3689 net.cpp:129] Top shape: 50 256 6 6 (460800)
I0512 12:13:38.498098  3689 net.cpp:137] Memory required for data: 333095000
I0512 12:13:38.498100  3689 layer_factory.hpp:77] Creating layer fc6
I0512 12:13:38.498103  3689 net.cpp:84] Creating Layer fc6
I0512 12:13:38.498108  3689 net.cpp:406] fc6 <- pool5
I0512 12:13:38.498111  3689 net.cpp:380] fc6 -> fc6
I0512 12:13:38.662812  3689 net.cpp:122] Setting up fc6
I0512 12:13:38.662828  3689 net.cpp:129] Top shape: 50 4096 (204800)
I0512 12:13:38.662832  3689 net.cpp:137] Memory required for data: 333914200
I0512 12:13:38.662839  3689 layer_factory.hpp:77] Creating layer prelu6
I0512 12:13:38.662845  3689 net.cpp:84] Creating Layer prelu6
I0512 12:13:38.662848  3689 net.cpp:406] prelu6 <- fc6
I0512 12:13:38.662853  3689 net.cpp:367] prelu6 -> fc6 (in-place)
I0512 12:13:38.662916  3689 net.cpp:122] Setting up prelu6
I0512 12:13:38.662920  3689 net.cpp:129] Top shape: 50 4096 (204800)
I0512 12:13:38.662922  3689 net.cpp:137] Memory required for data: 334733400
I0512 12:13:38.662925  3689 layer_factory.hpp:77] Creating layer drop6
I0512 12:13:38.662928  3689 net.cpp:84] Creating Layer drop6
I0512 12:13:38.662930  3689 net.cpp:406] drop6 <- fc6
I0512 12:13:38.662932  3689 net.cpp:367] drop6 -> fc6 (in-place)
I0512 12:13:38.662947  3689 net.cpp:122] Setting up drop6
I0512 12:13:38.662950  3689 net.cpp:129] Top shape: 50 4096 (204800)
I0512 12:13:38.662951  3689 net.cpp:137] Memory required for data: 335552600
I0512 12:13:38.662953  3689 layer_factory.hpp:77] Creating layer fc7
I0512 12:13:38.662957  3689 net.cpp:84] Creating Layer fc7
I0512 12:13:38.662958  3689 net.cpp:406] fc7 <- fc6
I0512 12:13:38.662961  3689 net.cpp:380] fc7 -> fc7
I0512 12:13:38.735230  3689 net.cpp:122] Setting up fc7
I0512 12:13:38.735250  3689 net.cpp:129] Top shape: 50 4096 (204800)
I0512 12:13:38.735252  3689 net.cpp:137] Memory required for data: 336371800
I0512 12:13:38.735258  3689 layer_factory.hpp:77] Creating layer prelu7
I0512 12:13:38.735280  3689 net.cpp:84] Creating Layer prelu7
I0512 12:13:38.735283  3689 net.cpp:406] prelu7 <- fc7
I0512 12:13:38.735287  3689 net.cpp:367] prelu7 -> fc7 (in-place)
I0512 12:13:38.735352  3689 net.cpp:122] Setting up prelu7
I0512 12:13:38.735355  3689 net.cpp:129] Top shape: 50 4096 (204800)
I0512 12:13:38.735357  3689 net.cpp:137] Memory required for data: 337191000
I0512 12:13:38.735360  3689 layer_factory.hpp:77] Creating layer drop7
I0512 12:13:38.735363  3689 net.cpp:84] Creating Layer drop7
I0512 12:13:38.735365  3689 net.cpp:406] drop7 <- fc7
I0512 12:13:38.735368  3689 net.cpp:367] drop7 -> fc7 (in-place)
I0512 12:13:38.735383  3689 net.cpp:122] Setting up drop7
I0512 12:13:38.735385  3689 net.cpp:129] Top shape: 50 4096 (204800)
I0512 12:13:38.735386  3689 net.cpp:137] Memory required for data: 338010200
I0512 12:13:38.735388  3689 layer_factory.hpp:77] Creating layer fc8
I0512 12:13:38.735393  3689 net.cpp:84] Creating Layer fc8
I0512 12:13:38.735394  3689 net.cpp:406] fc8 <- fc7
I0512 12:13:38.735397  3689 net.cpp:380] fc8 -> fc8
I0512 12:13:38.736114  3689 net.cpp:122] Setting up fc8
I0512 12:13:38.736117  3689 net.cpp:129] Top shape: 50 43 (2150)
I0512 12:13:38.736119  3689 net.cpp:137] Memory required for data: 338018800
I0512 12:13:38.736122  3689 layer_factory.hpp:77] Creating layer fc8_fc8_0_split
I0512 12:13:38.736126  3689 net.cpp:84] Creating Layer fc8_fc8_0_split
I0512 12:13:38.736127  3689 net.cpp:406] fc8_fc8_0_split <- fc8
I0512 12:13:38.736130  3689 net.cpp:380] fc8_fc8_0_split -> fc8_fc8_0_split_0
I0512 12:13:38.736133  3689 net.cpp:380] fc8_fc8_0_split -> fc8_fc8_0_split_1
I0512 12:13:38.736156  3689 net.cpp:122] Setting up fc8_fc8_0_split
I0512 12:13:38.736160  3689 net.cpp:129] Top shape: 50 43 (2150)
I0512 12:13:38.736161  3689 net.cpp:129] Top shape: 50 43 (2150)
I0512 12:13:38.736163  3689 net.cpp:137] Memory required for data: 338036000
I0512 12:13:38.736166  3689 layer_factory.hpp:77] Creating layer accuracy
I0512 12:13:38.736169  3689 net.cpp:84] Creating Layer accuracy
I0512 12:13:38.736171  3689 net.cpp:406] accuracy <- fc8_fc8_0_split_0
I0512 12:13:38.736173  3689 net.cpp:406] accuracy <- label_data_1_split_0
I0512 12:13:38.736184  3689 net.cpp:380] accuracy -> accuracy
…
