…
I0512 16:32:07.158696 24616 net.cpp:294] The NetState phase (0) differed from the phase (1) specified by a rule in layer accuracy
I0512 16:32:07.158795 24616 net.cpp:51] Initializing net from parameters: 
name: "CaffeNet"
state {
  phase: TRAIN
  level: 0
  stage: ""
}
layer {
  name: "data"
  type: "Data"
  top: "data"
  top: "label"
  include {
    phase: TRAIN
  }
  transform_param {
    mirror: false
    crop_size: 224
    mean_file: "/home/user1/GTSRB/input/mean_224.binaryproto"
  }
  data_param {
    source: "/home/user1/GTSRB/input/train_lmdb_224"
    batch_size: 224
    backend: LMDB
  }
}
layer {
  name: "conv1"
  type: "Convolution"
  bottom: "data"
  top: "conv1"
  param {
    lr_mult: 1
    decay_mult: 1
  }
  param {
    lr_mult: 2
    decay_mult: 0
  }
  convolution_param {
    num_output: 96
    kernel_size: 11
    stride: 4
    weight_filler {
      type: "xavier"
    }
    bias_filler {
      type: "constant"
      value: 0
    }
  }
}
layer {
  name: "relu1"
  type: "ReLU"
  bottom: "conv1"
  top: "conv1"
}
layer {
  name: "pool1"
  type: "Pooling"
  bottom: "conv1"
  top: "pool1"
  pooling_param {
    pool: MAX
    kernel_size: 3
    stride: 2
  }
}
layer {
  name: "norm1"
  type: "LRN"
  bottom: "pool1"
  top: "norm1"
  lrn_param {
    local_size: 5
    alpha: 0.0001
    beta: 0.75
  }
}
layer {
  name: "conv2"
  type: "Convolution"
  bottom: "norm1"
  top: "conv2"
  param {
    lr_mult: 1
    decay_mult: 1
  }
  param {
    lr_mult: 2
    decay_mult: 0
  }
  convolution_param {
    num_output: 256
    pad: 2
    kernel_size: 5
    group: 2
    weight_filler {
      type: "xavier"
    }
    bias_filler {
      type: "constant"
      value: 1
    }
  }
}
layer {
  name: "relu2"
  type: "ReLU"
  bottom: "conv2"
  top: "conv2"
}
layer {
  name: "pool2"
  type: "Pooling"
  bottom: "conv2"
  top: "pool2"
  pooling_param {
    pool: MAX
    kernel_size: 3
    stride: 2
  }
}
layer {
  name: "norm2"
  type: "LRN"
  bottom: "pool2"
  top: "norm2"
  lrn_param {
    local_size: 5
    alpha: 0.0001
    beta: 0.75
  }
}
layer {
  name: "conv3"
  type: "Convolution"
  bottom: "norm2"
  top: "conv3"
  param {
    lr_mult: 1
    decay_mult: 1
  }
  param {
    lr_mult: 2
    decay_mult: 0
  }
  convolution_param {
    num_output: 384
    pad: 1
    kernel_size: 3
    weight_filler {
      type: "xavier"
    }
    bias_filler {
      type: "constant"
      value: 0
    }
  }
}
layer {
  name: "relu3"
  type: "ReLU"
  bottom: "conv3"
  top: "conv3"
}
layer {
  name: "conv4"
  type: "Convolution"
  bottom: "conv3"
  top: "conv4"
  param {
    lr_mult: 1
    decay_mult: 1
  }
  param {
    lr_mult: 2
    decay_mult: 0
  }
  convolution_param {
    num_output: 384
    pad: 1
    kernel_size: 3
    group: 2
    weight_filler {
      type: "xavier"
    }
    bias_filler {
      type: "constant"
      value: 1
    }
  }
}
layer {
  name: "relu4"
  type: "ReLU"
  bottom: "conv4"
  top: "conv4"
}
layer {
  name: "conv5"
  type: "Convolution"
  bottom: "conv4"
  top: "conv5"
  param {
    lr_mult: 1
    decay_mult: 1
  }
  param {
    lr_mult: 2
    decay_mult: 0
  }
  convolution_param {
    num_output: 256
    pad: 1
    kernel_size: 3
    group: 2
    weight_filler {
      type: "xavier"
    }
    bias_filler {
      type: "constant"
      value: 1
    }
  }
}
layer {
  name: "relu5"
  type: "ReLU"
  bottom: "conv5"
  top: "conv5"
}
layer {
  name: "pool5"
  type: "Pooling"
  bottom: "conv5"
  top: "pool5"
  pooling_param {
    pool: MAX
    kernel_size: 3
    stride: 2
  }
}
layer {
  name: "fc6"
  type: "InnerProduct"
  bottom: "pool5"
  top: "fc6"
  param {
    lr_mult: 1
    decay_mult: 1
  }
  param {
    lr_mult: 2
    decay_mult: 0
  }
  inner_product_param {
    num_output: 4096
    weight_filler {
      type: "xavier"
    }
    bias_filler {
      type: "constant"
      value: 1
    }
  }
}
layer {
  name: "relu6"
  type: "ReLU"
  bottom: "fc6"
  top: "fc6"
}
layer {
  name: "drop6"
  type: "Dropout"
  bottom: "fc6"
  top: "fc6"
  dropout_param {
    dropout_ratio: 0.7
  }
}
layer {
  name: "fc7"
  type: "InnerProduct"
  bottom: "fc6"
  top: "fc7"
  param {
    lr_mult: 1
    decay_mult: 1
  }
  param {
    lr_mult: 2
    decay_mult: 0
  }
  inner_product_param {
    num_output: 4096
    weight_filler {
      type: "xavier"
    }
    bias_filler {
      type: "constant"
      value: 1
    }
  }
}
layer {
  name: "relu7"
  type: "ReLU"
  bottom: "fc7"
  top: "fc7"
}
layer {
  name: "drop7"
  type: "Dropout"
  bottom: "fc7"
  top: "fc7"
  dropout_param {
    dropout_ratio: 0.7
  }
}
layer {
  name: "fc8"
  type: "InnerProduct"
  bottom: "fc7"
  top: "fc8"
  param {
    lr_mult: 1
    decay_mult: 1
  }
  param {
    lr_mult: 2
    decay_mult: 0
  }
  inner_product_param {
    num_output: 43
    weight_filler {
      type: "xavier"
    }
    bias_filler {
      type: "constant"
      value: 0
    }
  }
}
layer {
  name: "loss"
  type: "SoftmaxWithLoss"
  bottom: "fc8"
  bottom: "label"
  top: "loss"
}
I0512 16:32:07.158866 24616 layer_factory.hpp:77] Creating layer data
I0512 16:32:07.158932 24616 db_lmdb.cpp:35] Opened lmdb /home/user1/GTSRB/input/train_lmdb_224
I0512 16:32:07.158948 24616 net.cpp:84] Creating Layer data
I0512 16:32:07.158957 24616 net.cpp:380] data -> data
I0512 16:32:07.158969 24616 net.cpp:380] data -> label
I0512 16:32:07.158978 24616 data_transformer.cpp:25] Loading mean file from: /home/user1/GTSRB/input/mean_224.binaryproto
I0512 16:32:07.160969 24616 data_layer.cpp:45] output data size: 224,3,224,224
I0512 16:32:07.310539 24616 net.cpp:122] Setting up data
I0512 16:32:07.310556 24616 net.cpp:129] Top shape: 224 3 224 224 (33718272)
I0512 16:32:07.310560 24616 net.cpp:129] Top shape: 224 (224)
I0512 16:32:07.310561 24616 net.cpp:137] Memory required for data: 134873984
I0512 16:32:07.310569 24616 layer_factory.hpp:77] Creating layer conv1
I0512 16:32:07.310583 24616 net.cpp:84] Creating Layer conv1
I0512 16:32:07.310587 24616 net.cpp:406] conv1 <- data
I0512 16:32:07.310595 24616 net.cpp:380] conv1 -> conv1
I0512 16:32:07.558634 24616 net.cpp:122] Setting up conv1
I0512 16:32:07.558652 24616 net.cpp:129] Top shape: 224 96 54 54 (62705664)
I0512 16:32:07.558655 24616 net.cpp:137] Memory required for data: 385696640
I0512 16:32:07.558670 24616 layer_factory.hpp:77] Creating layer relu1
I0512 16:32:07.558677 24616 net.cpp:84] Creating Layer relu1
I0512 16:32:07.558681 24616 net.cpp:406] relu1 <- conv1
I0512 16:32:07.558684 24616 net.cpp:367] relu1 -> conv1 (in-place)
I0512 16:32:07.558804 24616 net.cpp:122] Setting up relu1
I0512 16:32:07.558809 24616 net.cpp:129] Top shape: 224 96 54 54 (62705664)
I0512 16:32:07.558810 24616 net.cpp:137] Memory required for data: 636519296
I0512 16:32:07.558814 24616 layer_factory.hpp:77] Creating layer pool1
I0512 16:32:07.558817 24616 net.cpp:84] Creating Layer pool1
I0512 16:32:07.558820 24616 net.cpp:406] pool1 <- conv1
I0512 16:32:07.558821 24616 net.cpp:380] pool1 -> pool1
I0512 16:32:07.558856 24616 net.cpp:122] Setting up pool1
I0512 16:32:07.558861 24616 net.cpp:129] Top shape: 224 96 27 27 (15676416)
I0512 16:32:07.558861 24616 net.cpp:137] Memory required for data: 699224960
I0512 16:32:07.558863 24616 layer_factory.hpp:77] Creating layer norm1
I0512 16:32:07.558869 24616 net.cpp:84] Creating Layer norm1
I0512 16:32:07.558881 24616 net.cpp:406] norm1 <- pool1
I0512 16:32:07.558886 24616 net.cpp:380] norm1 -> norm1
I0512 16:32:07.559501 24616 net.cpp:122] Setting up norm1
I0512 16:32:07.559509 24616 net.cpp:129] Top shape: 224 96 27 27 (15676416)
I0512 16:32:07.559512 24616 net.cpp:137] Memory required for data: 761930624
I0512 16:32:07.559514 24616 layer_factory.hpp:77] Creating layer conv2
I0512 16:32:07.559521 24616 net.cpp:84] Creating Layer conv2
I0512 16:32:07.559523 24616 net.cpp:406] conv2 <- norm1
I0512 16:32:07.559527 24616 net.cpp:380] conv2 -> conv2
I0512 16:32:07.562412 24616 net.cpp:122] Setting up conv2
I0512 16:32:07.562422 24616 net.cpp:129] Top shape: 224 256 27 27 (41803776)
I0512 16:32:07.562423 24616 net.cpp:137] Memory required for data: 929145728
I0512 16:32:07.562429 24616 layer_factory.hpp:77] Creating layer relu2
I0512 16:32:07.562433 24616 net.cpp:84] Creating Layer relu2
I0512 16:32:07.562435 24616 net.cpp:406] relu2 <- conv2
I0512 16:32:07.562438 24616 net.cpp:367] relu2 -> conv2 (in-place)
I0512 16:32:07.563030 24616 net.cpp:122] Setting up relu2
I0512 16:32:07.563036 24616 net.cpp:129] Top shape: 224 256 27 27 (41803776)
I0512 16:32:07.563038 24616 net.cpp:137] Memory required for data: 1096360832
I0512 16:32:07.563040 24616 layer_factory.hpp:77] Creating layer pool2
I0512 16:32:07.563045 24616 net.cpp:84] Creating Layer pool2
I0512 16:32:07.563046 24616 net.cpp:406] pool2 <- conv2
I0512 16:32:07.563050 24616 net.cpp:380] pool2 -> pool2
I0512 16:32:07.563076 24616 net.cpp:122] Setting up pool2
I0512 16:32:07.563081 24616 net.cpp:129] Top shape: 224 256 13 13 (9691136)
I0512 16:32:07.563082 24616 net.cpp:137] Memory required for data: 1135125376
I0512 16:32:07.563083 24616 layer_factory.hpp:77] Creating layer norm2
I0512 16:32:07.563088 24616 net.cpp:84] Creating Layer norm2
I0512 16:32:07.563091 24616 net.cpp:406] norm2 <- pool2
I0512 16:32:07.563093 24616 net.cpp:380] norm2 -> norm2
I0512 16:32:07.563210 24616 net.cpp:122] Setting up norm2
I0512 16:32:07.563215 24616 net.cpp:129] Top shape: 224 256 13 13 (9691136)
I0512 16:32:07.563218 24616 net.cpp:137] Memory required for data: 1173889920
I0512 16:32:07.563220 24616 layer_factory.hpp:77] Creating layer conv3
I0512 16:32:07.563225 24616 net.cpp:84] Creating Layer conv3
I0512 16:32:07.563226 24616 net.cpp:406] conv3 <- norm2
I0512 16:32:07.563230 24616 net.cpp:380] conv3 -> conv3
I0512 16:32:07.568680 24616 net.cpp:122] Setting up conv3
I0512 16:32:07.568691 24616 net.cpp:129] Top shape: 224 384 13 13 (14536704)
I0512 16:32:07.568692 24616 net.cpp:137] Memory required for data: 1232036736
I0512 16:32:07.568699 24616 layer_factory.hpp:77] Creating layer relu3
I0512 16:32:07.568703 24616 net.cpp:84] Creating Layer relu3
I0512 16:32:07.568706 24616 net.cpp:406] relu3 <- conv3
I0512 16:32:07.568708 24616 net.cpp:367] relu3 -> conv3 (in-place)
I0512 16:32:07.568819 24616 net.cpp:122] Setting up relu3
I0512 16:32:07.568825 24616 net.cpp:129] Top shape: 224 384 13 13 (14536704)
I0512 16:32:07.568826 24616 net.cpp:137] Memory required for data: 1290183552
I0512 16:32:07.568828 24616 layer_factory.hpp:77] Creating layer conv4
I0512 16:32:07.568833 24616 net.cpp:84] Creating Layer conv4
I0512 16:32:07.568835 24616 net.cpp:406] conv4 <- conv3
I0512 16:32:07.568838 24616 net.cpp:380] conv4 -> conv4
I0512 16:32:07.574302 24616 net.cpp:122] Setting up conv4
I0512 16:32:07.574318 24616 net.cpp:129] Top shape: 224 384 13 13 (14536704)
I0512 16:32:07.574321 24616 net.cpp:137] Memory required for data: 1348330368
I0512 16:32:07.574326 24616 layer_factory.hpp:77] Creating layer relu4
I0512 16:32:07.574331 24616 net.cpp:84] Creating Layer relu4
I0512 16:32:07.574334 24616 net.cpp:406] relu4 <- conv4
I0512 16:32:07.574338 24616 net.cpp:367] relu4 -> conv4 (in-place)
I0512 16:32:07.574458 24616 net.cpp:122] Setting up relu4
I0512 16:32:07.574465 24616 net.cpp:129] Top shape: 224 384 13 13 (14536704)
I0512 16:32:07.574466 24616 net.cpp:137] Memory required for data: 1406477184
I0512 16:32:07.574468 24616 layer_factory.hpp:77] Creating layer conv5
I0512 16:32:07.574484 24616 net.cpp:84] Creating Layer conv5
I0512 16:32:07.574486 24616 net.cpp:406] conv5 <- conv4
I0512 16:32:07.574491 24616 net.cpp:380] conv5 -> conv5
I0512 16:32:07.578845 24616 net.cpp:122] Setting up conv5
I0512 16:32:07.578855 24616 net.cpp:129] Top shape: 224 256 13 13 (9691136)
I0512 16:32:07.578856 24616 net.cpp:137] Memory required for data: 1445241728
I0512 16:32:07.578863 24616 layer_factory.hpp:77] Creating layer relu5
I0512 16:32:07.578867 24616 net.cpp:84] Creating Layer relu5
I0512 16:32:07.578869 24616 net.cpp:406] relu5 <- conv5
I0512 16:32:07.578872 24616 net.cpp:367] relu5 -> conv5 (in-place)
I0512 16:32:07.578987 24616 net.cpp:122] Setting up relu5
I0512 16:32:07.578994 24616 net.cpp:129] Top shape: 224 256 13 13 (9691136)
I0512 16:32:07.578995 24616 net.cpp:137] Memory required for data: 1484006272
I0512 16:32:07.578996 24616 layer_factory.hpp:77] Creating layer pool5
I0512 16:32:07.579000 24616 net.cpp:84] Creating Layer pool5
I0512 16:32:07.579002 24616 net.cpp:406] pool5 <- conv5
I0512 16:32:07.579006 24616 net.cpp:380] pool5 -> pool5
I0512 16:32:07.579033 24616 net.cpp:122] Setting up pool5
I0512 16:32:07.579040 24616 net.cpp:129] Top shape: 224 256 6 6 (2064384)
I0512 16:32:07.579041 24616 net.cpp:137] Memory required for data: 1492263808
I0512 16:32:07.579043 24616 layer_factory.hpp:77] Creating layer fc6
I0512 16:32:07.579049 24616 net.cpp:84] Creating Layer fc6
I0512 16:32:07.579051 24616 net.cpp:406] fc6 <- pool5
I0512 16:32:07.579054 24616 net.cpp:380] fc6 -> fc6
I0512 16:32:07.741487 24616 net.cpp:122] Setting up fc6
I0512 16:32:07.741506 24616 net.cpp:129] Top shape: 224 4096 (917504)
I0512 16:32:07.741508 24616 net.cpp:137] Memory required for data: 1495933824
I0512 16:32:07.741515 24616 layer_factory.hpp:77] Creating layer relu6
I0512 16:32:07.741521 24616 net.cpp:84] Creating Layer relu6
I0512 16:32:07.741523 24616 net.cpp:406] relu6 <- fc6
I0512 16:32:07.741526 24616 net.cpp:367] relu6 -> fc6 (in-place)
I0512 16:32:07.742215 24616 net.cpp:122] Setting up relu6
I0512 16:32:07.742224 24616 net.cpp:129] Top shape: 224 4096 (917504)
I0512 16:32:07.742226 24616 net.cpp:137] Memory required for data: 1499603840
I0512 16:32:07.742228 24616 layer_factory.hpp:77] Creating layer drop6
I0512 16:32:07.742233 24616 net.cpp:84] Creating Layer drop6
I0512 16:32:07.742234 24616 net.cpp:406] drop6 <- fc6
I0512 16:32:07.742238 24616 net.cpp:367] drop6 -> fc6 (in-place)
I0512 16:32:07.742261 24616 net.cpp:122] Setting up drop6
I0512 16:32:07.742266 24616 net.cpp:129] Top shape: 224 4096 (917504)
I0512 16:32:07.742269 24616 net.cpp:137] Memory required for data: 1503273856
I0512 16:32:07.742269 24616 layer_factory.hpp:77] Creating layer fc7
I0512 16:32:07.742275 24616 net.cpp:84] Creating Layer fc7
I0512 16:32:07.742278 24616 net.cpp:406] fc7 <- fc6
I0512 16:32:07.742281 24616 net.cpp:380] fc7 -> fc7
I0512 16:32:07.814862 24616 net.cpp:122] Setting up fc7
I0512 16:32:07.814882 24616 net.cpp:129] Top shape: 224 4096 (917504)
I0512 16:32:07.814885 24616 net.cpp:137] Memory required for data: 1506943872
I0512 16:32:07.814893 24616 layer_factory.hpp:77] Creating layer relu7
I0512 16:32:07.814898 24616 net.cpp:84] Creating Layer relu7
I0512 16:32:07.814900 24616 net.cpp:406] relu7 <- fc7
I0512 16:32:07.814905 24616 net.cpp:367] relu7 -> fc7 (in-place)
I0512 16:32:07.815060 24616 net.cpp:122] Setting up relu7
I0512 16:32:07.815065 24616 net.cpp:129] Top shape: 224 4096 (917504)
I0512 16:32:07.815068 24616 net.cpp:137] Memory required for data: 1510613888
I0512 16:32:07.815069 24616 layer_factory.hpp:77] Creating layer drop7
I0512 16:32:07.815074 24616 net.cpp:84] Creating Layer drop7
I0512 16:32:07.815078 24616 net.cpp:406] drop7 <- fc7
I0512 16:32:07.815080 24616 net.cpp:367] drop7 -> fc7 (in-place)
I0512 16:32:07.815101 24616 net.cpp:122] Setting up drop7
I0512 16:32:07.815106 24616 net.cpp:129] Top shape: 224 4096 (917504)
I0512 16:32:07.815109 24616 net.cpp:137] Memory required for data: 1514283904
I0512 16:32:07.815109 24616 layer_factory.hpp:77] Creating layer fc8
I0512 16:32:07.815114 24616 net.cpp:84] Creating Layer fc8
I0512 16:32:07.815126 24616 net.cpp:406] fc8 <- fc7
I0512 16:32:07.815130 24616 net.cpp:380] fc8 -> fc8
I0512 16:32:07.816422 24616 net.cpp:122] Setting up fc8
I0512 16:32:07.816431 24616 net.cpp:129] Top shape: 224 43 (9632)
I0512 16:32:07.816432 24616 net.cpp:137] Memory required for data: 1514322432
I0512 16:32:07.816437 24616 layer_factory.hpp:77] Creating layer loss
I0512 16:32:07.816442 24616 net.cpp:84] Creating Layer loss
I0512 16:32:07.816443 24616 net.cpp:406] loss <- fc8
I0512 16:32:07.816447 24616 net.cpp:406] loss <- label
I0512 16:32:07.816450 24616 net.cpp:380] loss -> loss
I0512 16:32:07.816459 24616 layer_factory.hpp:77] Creating layer loss
…
I0512 16:32:07.817463 24616 net.cpp:294] The NetState phase (1) differed from the phase (0) specified by a rule in layer data
I0512 16:32:07.817564 24616 net.cpp:51] Initializing net from parameters: 
name: "CaffeNet"
state {
  phase: TEST
}
layer {
  name: "data"
  type: "Data"
  top: "data"
  top: "label"
  include {
    phase: TEST
  }
  transform_param {
    mirror: false
    crop_size: 224
    mean_file: "/home/user1/GTSRB/input/mean_224.binaryproto"
  }
  data_param {
    source: "/home/user1/GTSRB/input/validation_lmdb_224"
    batch_size: 50
    backend: LMDB
  }
}
layer {
  name: "conv1"
  type: "Convolution"
  bottom: "data"
  top: "conv1"
  param {
    lr_mult: 1
    decay_mult: 1
  }
  param {
    lr_mult: 2
    decay_mult: 0
  }
  convolution_param {
    num_output: 96
    kernel_size: 11
    stride: 4
    weight_filler {
      type: "xavier"
    }
    bias_filler {
      type: "constant"
      value: 0
    }
  }
}
layer {
  name: "relu1"
  type: "ReLU"
  bottom: "conv1"
  top: "conv1"
}
layer {
  name: "pool1"
  type: "Pooling"
  bottom: "conv1"
  top: "pool1"
  pooling_param {
    pool: MAX
    kernel_size: 3
    stride: 2
  }
}
layer {
  name: "norm1"
  type: "LRN"
  bottom: "pool1"
  top: "norm1"
  lrn_param {
    local_size: 5
    alpha: 0.0001
    beta: 0.75
  }
}
layer {
  name: "conv2"
  type: "Convolution"
  bottom: "norm1"
  top: "conv2"
  param {
    lr_mult: 1
    decay_mult: 1
  }
  param {
    lr_mult: 2
    decay_mult: 0
  }
  convolution_param {
    num_output: 256
    pad: 2
    kernel_size: 5
    group: 2
    weight_filler {
      type: "xavier"
    }
    bias_filler {
      type: "constant"
      value: 1
    }
  }
}
layer {
  name: "relu2"
  type: "ReLU"
  bottom: "conv2"
  top: "conv2"
}
layer {
  name: "pool2"
  type: "Pooling"
  bottom: "conv2"
  top: "pool2"
  pooling_param {
    pool: MAX
    kernel_size: 3
    stride: 2
  }
}
layer {
  name: "norm2"
  type: "LRN"
  bottom: "pool2"
  top: "norm2"
  lrn_param {
    local_size: 5
    alpha: 0.0001
    beta: 0.75
  }
}
layer {
  name: "conv3"
  type: "Convolution"
  bottom: "norm2"
  top: "conv3"
  param {
    lr_mult: 1
    decay_mult: 1
  }
  param {
    lr_mult: 2
    decay_mult: 0
  }
  convolution_param {
    num_output: 384
    pad: 1
    kernel_size: 3
    weight_filler {
      type: "xavier"
    }
    bias_filler {
      type: "constant"
      value: 0
    }
  }
}
layer {
  name: "relu3"
  type: "ReLU"
  bottom: "conv3"
  top: "conv3"
}
layer {
  name: "conv4"
  type: "Convolution"
  bottom: "conv3"
  top: "conv4"
  param {
    lr_mult: 1
    decay_mult: 1
  }
  param {
    lr_mult: 2
    decay_mult: 0
  }
  convolution_param {
    num_output: 384
    pad: 1
    kernel_size: 3
    group: 2
    weight_filler {
      type: "xavier"
    }
    bias_filler {
      type: "constant"
      value: 1
    }
  }
}
layer {
  name: "relu4"
  type: "ReLU"
  bottom: "conv4"
  top: "conv4"
}
layer {
  name: "conv5"
  type: "Convolution"
  bottom: "conv4"
  top: "conv5"
  param {
    lr_mult: 1
    decay_mult: 1
  }
  param {
    lr_mult: 2
    decay_mult: 0
  }
  convolution_param {
    num_output: 256
    pad: 1
    kernel_size: 3
    group: 2
    weight_filler {
      type: "xavier"
    }
    bias_filler {
      type: "constant"
      value: 1
    }
  }
}
layer {
  name: "relu5"
  type: "ReLU"
  bottom: "conv5"
  top: "conv5"
}
layer {
  name: "pool5"
  type: "Pooling"
  bottom: "conv5"
  top: "pool5"
  pooling_param {
    pool: MAX
    kernel_size: 3
    stride: 2
  }
}
layer {
  name: "fc6"
  type: "InnerProduct"
  bottom: "pool5"
  top: "fc6"
  param {
    lr_mult: 1
    decay_mult: 1
  }
  param {
    lr_mult: 2
    decay_mult: 0
  }
  inner_product_param {
    num_output: 4096
    weight_filler {
      type: "xavier"
    }
    bias_filler {
      type: "constant"
      value: 1
    }
  }
}
layer {
  name: "relu6"
  type: "ReLU"
  bottom: "fc6"
  top: "fc6"
}
layer {
  name: "drop6"
  type: "Dropout"
  bottom: "fc6"
  top: "fc6"
  dropout_param {
    dropout_ratio: 0.7
  }
}
layer {
  name: "fc7"
  type: "InnerProduct"
  bottom: "fc6"
  top: "fc7"
  param {
    lr_mult: 1
    decay_mult: 1
  }
  param {
    lr_mult: 2
    decay_mult: 0
  }
  inner_product_param {
    num_output: 4096
    weight_filler {
      type: "xavier"
    }
    bias_filler {
      type: "constant"
      value: 1
    }
  }
}
layer {
  name: "relu7"
  type: "ReLU"
  bottom: "fc7"
  top: "fc7"
}
layer {
  name: "drop7"
  type: "Dropout"
  bottom: "fc7"
  top: "fc7"
  dropout_param {
    dropout_ratio: 0.7
  }
}
layer {
  name: "fc8"
  type: "InnerProduct"
  bottom: "fc7"
  top: "fc8"
  param {
    lr_mult: 1
    decay_mult: 1
  }
  param {
    lr_mult: 2
    decay_mult: 0
  }
  inner_product_param {
    num_output: 43
    weight_filler {
      type: "xavier"
    }
    bias_filler {
      type: "constant"
      value: 0
    }
  }
}
layer {
  name: "accuracy"
  type: "Accuracy"
  bottom: "fc8"
  bottom: "label"
  top: "accuracy"
  include {
    phase: TEST
  }
}
layer {
  name: "loss"
  type: "SoftmaxWithLoss"
  bottom: "fc8"
  bottom: "label"
  top: "loss"
}
I0512 16:32:07.817636 24616 layer_factory.hpp:77] Creating layer data
I0512 16:32:07.817670 24616 db_lmdb.cpp:35] Opened lmdb /home/user1/GTSRB/input/validation_lmdb_224
I0512 16:32:07.817682 24616 net.cpp:84] Creating Layer data
I0512 16:32:07.817685 24616 net.cpp:380] data -> data
I0512 16:32:07.817690 24616 net.cpp:380] data -> label
I0512 16:32:07.817695 24616 data_transformer.cpp:25] Loading mean file from: /home/user1/GTSRB/input/mean_224.binaryproto
I0512 16:32:07.818547 24616 data_layer.cpp:45] output data size: 50,3,224,224
I0512 16:32:07.854456 24616 net.cpp:122] Setting up data
I0512 16:32:07.854475 24616 net.cpp:129] Top shape: 50 3 224 224 (7526400)
I0512 16:32:07.854477 24616 net.cpp:129] Top shape: 50 (50)
I0512 16:32:07.854480 24616 net.cpp:137] Memory required for data: 30105800
I0512 16:32:07.854483 24616 layer_factory.hpp:77] Creating layer label_data_1_split
I0512 16:32:07.854490 24616 net.cpp:84] Creating Layer label_data_1_split
I0512 16:32:07.854493 24616 net.cpp:406] label_data_1_split <- label
I0512 16:32:07.854497 24616 net.cpp:380] label_data_1_split -> label_data_1_split_0
I0512 16:32:07.854504 24616 net.cpp:380] label_data_1_split -> label_data_1_split_1
I0512 16:32:07.854542 24616 net.cpp:122] Setting up label_data_1_split
I0512 16:32:07.854547 24616 net.cpp:129] Top shape: 50 (50)
I0512 16:32:07.854549 24616 net.cpp:129] Top shape: 50 (50)
I0512 16:32:07.854552 24616 net.cpp:137] Memory required for data: 30106200
I0512 16:32:07.854553 24616 layer_factory.hpp:77] Creating layer conv1
I0512 16:32:07.854560 24616 net.cpp:84] Creating Layer conv1
I0512 16:32:07.854562 24616 net.cpp:406] conv1 <- data
I0512 16:32:07.854567 24616 net.cpp:380] conv1 -> conv1
I0512 16:32:07.858170 24616 net.cpp:122] Setting up conv1
I0512 16:32:07.858180 24616 net.cpp:129] Top shape: 50 96 54 54 (13996800)
I0512 16:32:07.858183 24616 net.cpp:137] Memory required for data: 86093400
I0512 16:32:07.858193 24616 layer_factory.hpp:77] Creating layer relu1
I0512 16:32:07.858197 24616 net.cpp:84] Creating Layer relu1
I0512 16:32:07.858201 24616 net.cpp:406] relu1 <- conv1
I0512 16:32:07.858202 24616 net.cpp:367] relu1 -> conv1 (in-place)
I0512 16:32:07.858310 24616 net.cpp:122] Setting up relu1
I0512 16:32:07.858315 24616 net.cpp:129] Top shape: 50 96 54 54 (13996800)
I0512 16:32:07.858317 24616 net.cpp:137] Memory required for data: 142080600
I0512 16:32:07.858319 24616 layer_factory.hpp:77] Creating layer pool1
I0512 16:32:07.858325 24616 net.cpp:84] Creating Layer pool1
I0512 16:32:07.858326 24616 net.cpp:406] pool1 <- conv1
I0512 16:32:07.858330 24616 net.cpp:380] pool1 -> pool1
I0512 16:32:07.858358 24616 net.cpp:122] Setting up pool1
I0512 16:32:07.858362 24616 net.cpp:129] Top shape: 50 96 27 27 (3499200)
I0512 16:32:07.858364 24616 net.cpp:137] Memory required for data: 156077400
I0512 16:32:07.858366 24616 layer_factory.hpp:77] Creating layer norm1
I0512 16:32:07.858369 24616 net.cpp:84] Creating Layer norm1
I0512 16:32:07.858372 24616 net.cpp:406] norm1 <- pool1
I0512 16:32:07.858374 24616 net.cpp:380] norm1 -> norm1
I0512 16:32:07.859000 24616 net.cpp:122] Setting up norm1
I0512 16:32:07.859009 24616 net.cpp:129] Top shape: 50 96 27 27 (3499200)
I0512 16:32:07.859011 24616 net.cpp:137] Memory required for data: 170074200
I0512 16:32:07.859014 24616 layer_factory.hpp:77] Creating layer conv2
I0512 16:32:07.859019 24616 net.cpp:84] Creating Layer conv2
I0512 16:32:07.859020 24616 net.cpp:406] conv2 <- norm1
I0512 16:32:07.859025 24616 net.cpp:380] conv2 -> conv2
I0512 16:32:07.862020 24616 net.cpp:122] Setting up conv2
I0512 16:32:07.862031 24616 net.cpp:129] Top shape: 50 256 27 27 (9331200)
I0512 16:32:07.862033 24616 net.cpp:137] Memory required for data: 207399000
I0512 16:32:07.862040 24616 layer_factory.hpp:77] Creating layer relu2
I0512 16:32:07.862046 24616 net.cpp:84] Creating Layer relu2
I0512 16:32:07.862047 24616 net.cpp:406] relu2 <- conv2
I0512 16:32:07.862051 24616 net.cpp:367] relu2 -> conv2 (in-place)
I0512 16:32:07.862660 24616 net.cpp:122] Setting up relu2
I0512 16:32:07.862668 24616 net.cpp:129] Top shape: 50 256 27 27 (9331200)
I0512 16:32:07.862684 24616 net.cpp:137] Memory required for data: 244723800
I0512 16:32:07.862686 24616 layer_factory.hpp:77] Creating layer pool2
I0512 16:32:07.862691 24616 net.cpp:84] Creating Layer pool2
I0512 16:32:07.862694 24616 net.cpp:406] pool2 <- conv2
I0512 16:32:07.862697 24616 net.cpp:380] pool2 -> pool2
I0512 16:32:07.862730 24616 net.cpp:122] Setting up pool2
I0512 16:32:07.862735 24616 net.cpp:129] Top shape: 50 256 13 13 (2163200)
I0512 16:32:07.862736 24616 net.cpp:137] Memory required for data: 253376600
I0512 16:32:07.862738 24616 layer_factory.hpp:77] Creating layer norm2
I0512 16:32:07.862741 24616 net.cpp:84] Creating Layer norm2
I0512 16:32:07.862743 24616 net.cpp:406] norm2 <- pool2
I0512 16:32:07.862746 24616 net.cpp:380] norm2 -> norm2
I0512 16:32:07.862870 24616 net.cpp:122] Setting up norm2
I0512 16:32:07.862875 24616 net.cpp:129] Top shape: 50 256 13 13 (2163200)
I0512 16:32:07.862877 24616 net.cpp:137] Memory required for data: 262029400
I0512 16:32:07.862879 24616 layer_factory.hpp:77] Creating layer conv3
I0512 16:32:07.862884 24616 net.cpp:84] Creating Layer conv3
I0512 16:32:07.862886 24616 net.cpp:406] conv3 <- norm2
I0512 16:32:07.862890 24616 net.cpp:380] conv3 -> conv3
I0512 16:32:07.870317 24616 net.cpp:122] Setting up conv3
I0512 16:32:07.870332 24616 net.cpp:129] Top shape: 50 384 13 13 (3244800)
I0512 16:32:07.870334 24616 net.cpp:137] Memory required for data: 275008600
I0512 16:32:07.870342 24616 layer_factory.hpp:77] Creating layer relu3
I0512 16:32:07.870347 24616 net.cpp:84] Creating Layer relu3
I0512 16:32:07.870350 24616 net.cpp:406] relu3 <- conv3
I0512 16:32:07.870354 24616 net.cpp:367] relu3 -> conv3 (in-place)
I0512 16:32:07.870476 24616 net.cpp:122] Setting up relu3
I0512 16:32:07.870481 24616 net.cpp:129] Top shape: 50 384 13 13 (3244800)
I0512 16:32:07.870482 24616 net.cpp:137] Memory required for data: 287987800
I0512 16:32:07.870486 24616 layer_factory.hpp:77] Creating layer conv4
I0512 16:32:07.870491 24616 net.cpp:84] Creating Layer conv4
I0512 16:32:07.870493 24616 net.cpp:406] conv4 <- conv3
I0512 16:32:07.870496 24616 net.cpp:380] conv4 -> conv4
I0512 16:32:07.877513 24616 net.cpp:122] Setting up conv4
I0512 16:32:07.877530 24616 net.cpp:129] Top shape: 50 384 13 13 (3244800)
I0512 16:32:07.877533 24616 net.cpp:137] Memory required for data: 300967000
I0512 16:32:07.877538 24616 layer_factory.hpp:77] Creating layer relu4
I0512 16:32:07.877544 24616 net.cpp:84] Creating Layer relu4
I0512 16:32:07.877547 24616 net.cpp:406] relu4 <- conv4
I0512 16:32:07.877550 24616 net.cpp:367] relu4 -> conv4 (in-place)
I0512 16:32:07.877684 24616 net.cpp:122] Setting up relu4
I0512 16:32:07.877691 24616 net.cpp:129] Top shape: 50 384 13 13 (3244800)
I0512 16:32:07.877693 24616 net.cpp:137] Memory required for data: 313946200
I0512 16:32:07.877696 24616 layer_factory.hpp:77] Creating layer conv5
I0512 16:32:07.877702 24616 net.cpp:84] Creating Layer conv5
I0512 16:32:07.877704 24616 net.cpp:406] conv5 <- conv4
I0512 16:32:07.877708 24616 net.cpp:380] conv5 -> conv5
I0512 16:32:07.884970 24616 net.cpp:122] Setting up conv5
I0512 16:32:07.884984 24616 net.cpp:129] Top shape: 50 256 13 13 (2163200)
I0512 16:32:07.884985 24616 net.cpp:137] Memory required for data: 322599000
I0512 16:32:07.884994 24616 layer_factory.hpp:77] Creating layer relu5
I0512 16:32:07.884999 24616 net.cpp:84] Creating Layer relu5
I0512 16:32:07.885001 24616 net.cpp:406] relu5 <- conv5
I0512 16:32:07.885005 24616 net.cpp:367] relu5 -> conv5 (in-place)
I0512 16:32:07.885126 24616 net.cpp:122] Setting up relu5
I0512 16:32:07.885133 24616 net.cpp:129] Top shape: 50 256 13 13 (2163200)
I0512 16:32:07.885134 24616 net.cpp:137] Memory required for data: 331251800
I0512 16:32:07.885136 24616 layer_factory.hpp:77] Creating layer pool5
I0512 16:32:07.885143 24616 net.cpp:84] Creating Layer pool5
I0512 16:32:07.885144 24616 net.cpp:406] pool5 <- conv5
I0512 16:32:07.885148 24616 net.cpp:380] pool5 -> pool5
I0512 16:32:07.885181 24616 net.cpp:122] Setting up pool5
I0512 16:32:07.885196 24616 net.cpp:129] Top shape: 50 256 6 6 (460800)
I0512 16:32:07.885198 24616 net.cpp:137] Memory required for data: 333095000
I0512 16:32:07.885200 24616 layer_factory.hpp:77] Creating layer fc6
I0512 16:32:07.885205 24616 net.cpp:84] Creating Layer fc6
I0512 16:32:07.885207 24616 net.cpp:406] fc6 <- pool5
I0512 16:32:07.885211 24616 net.cpp:380] fc6 -> fc6
I0512 16:32:08.051080 24616 net.cpp:122] Setting up fc6
I0512 16:32:08.051096 24616 net.cpp:129] Top shape: 50 4096 (204800)
I0512 16:32:08.051100 24616 net.cpp:137] Memory required for data: 333914200
I0512 16:32:08.051105 24616 layer_factory.hpp:77] Creating layer relu6
I0512 16:32:08.051110 24616 net.cpp:84] Creating Layer relu6
I0512 16:32:08.051113 24616 net.cpp:406] relu6 <- fc6
I0512 16:32:08.051117 24616 net.cpp:367] relu6 -> fc6 (in-place)
I0512 16:32:08.051268 24616 net.cpp:122] Setting up relu6
I0512 16:32:08.051275 24616 net.cpp:129] Top shape: 50 4096 (204800)
I0512 16:32:08.051275 24616 net.cpp:137] Memory required for data: 334733400
I0512 16:32:08.051278 24616 layer_factory.hpp:77] Creating layer drop6
I0512 16:32:08.051281 24616 net.cpp:84] Creating Layer drop6
I0512 16:32:08.051283 24616 net.cpp:406] drop6 <- fc6
I0512 16:32:08.051286 24616 net.cpp:367] drop6 -> fc6 (in-place)
I0512 16:32:08.051306 24616 net.cpp:122] Setting up drop6
I0512 16:32:08.051309 24616 net.cpp:129] Top shape: 50 4096 (204800)
I0512 16:32:08.051311 24616 net.cpp:137] Memory required for data: 335552600
I0512 16:32:08.051312 24616 layer_factory.hpp:77] Creating layer fc7
I0512 16:32:08.051317 24616 net.cpp:84] Creating Layer fc7
I0512 16:32:08.051319 24616 net.cpp:406] fc7 <- fc6
I0512 16:32:08.051322 24616 net.cpp:380] fc7 -> fc7
I0512 16:32:08.123693 24616 net.cpp:122] Setting up fc7
I0512 16:32:08.123713 24616 net.cpp:129] Top shape: 50 4096 (204800)
I0512 16:32:08.123715 24616 net.cpp:137] Memory required for data: 336371800
I0512 16:32:08.123721 24616 layer_factory.hpp:77] Creating layer relu7
I0512 16:32:08.123728 24616 net.cpp:84] Creating Layer relu7
I0512 16:32:08.123730 24616 net.cpp:406] relu7 <- fc7
I0512 16:32:08.123733 24616 net.cpp:367] relu7 -> fc7 (in-place)
I0512 16:32:08.124428 24616 net.cpp:122] Setting up relu7
I0512 16:32:08.124435 24616 net.cpp:129] Top shape: 50 4096 (204800)
I0512 16:32:08.124439 24616 net.cpp:137] Memory required for data: 337191000
I0512 16:32:08.124440 24616 layer_factory.hpp:77] Creating layer drop7
I0512 16:32:08.124444 24616 net.cpp:84] Creating Layer drop7
I0512 16:32:08.124446 24616 net.cpp:406] drop7 <- fc7
I0512 16:32:08.124449 24616 net.cpp:367] drop7 -> fc7 (in-place)
I0512 16:32:08.124470 24616 net.cpp:122] Setting up drop7
I0512 16:32:08.124475 24616 net.cpp:129] Top shape: 50 4096 (204800)
I0512 16:32:08.124477 24616 net.cpp:137] Memory required for data: 338010200
I0512 16:32:08.124480 24616 layer_factory.hpp:77] Creating layer fc8
I0512 16:32:08.124485 24616 net.cpp:84] Creating Layer fc8
I0512 16:32:08.124487 24616 net.cpp:406] fc8 <- fc7
I0512 16:32:08.124490 24616 net.cpp:380] fc8 -> fc8
I0512 16:32:08.125219 24616 net.cpp:122] Setting up fc8
I0512 16:32:08.125224 24616 net.cpp:129] Top shape: 50 43 (2150)
I0512 16:32:08.125226 24616 net.cpp:137] Memory required for data: 338018800
I0512 16:32:08.125229 24616 layer_factory.hpp:77] Creating layer fc8_fc8_0_split
I0512 16:32:08.125234 24616 net.cpp:84] Creating Layer fc8_fc8_0_split
I0512 16:32:08.125236 24616 net.cpp:406] fc8_fc8_0_split <- fc8
I0512 16:32:08.125238 24616 net.cpp:380] fc8_fc8_0_split -> fc8_fc8_0_split_0
I0512 16:32:08.125242 24616 net.cpp:380] fc8_fc8_0_split -> fc8_fc8_0_split_1
I0512 16:32:08.125267 24616 net.cpp:122] Setting up fc8_fc8_0_split
I0512 16:32:08.125272 24616 net.cpp:129] Top shape: 50 43 (2150)
I0512 16:32:08.125273 24616 net.cpp:129] Top shape: 50 43 (2150)
I0512 16:32:08.125274 24616 net.cpp:137] Memory required for data: 338036000
I0512 16:32:08.125277 24616 layer_factory.hpp:77] Creating layer accuracy
I0512 16:32:08.125285 24616 net.cpp:84] Creating Layer accuracy
I0512 16:32:08.125288 24616 net.cpp:406] accuracy <- fc8_fc8_0_split_0
I0512 16:32:08.125299 24616 net.cpp:406] accuracy <- label_data_1_split_0
I0512 16:32:08.125303 24616 net.cpp:380] accuracy -> accuracy
…
