…
I0511 18:32:09.058712 27539 net.cpp:294] The NetState phase (0) differed from the phase (1) specified by a rule in layer accuracy
I0511 18:32:09.058809 27539 net.cpp:51] Initializing net from parameters: 
name: "CaffeNet"
state {
  phase: TRAIN
  level: 0
  stage: ""
}
layer {
  name: "data"
  type: "Data"
  top: "data"
  top: "label"
  include {
    phase: TRAIN
  }
  transform_param {
    mirror: false
    crop_size: 224
    mean_file: "/home/user1/GTSRB/input/mean_224.binaryproto"
  }
  data_param {
    source: "/home/user1/GTSRB/input/train_lmdb_224"
    batch_size: 224
    backend: LMDB
  }
}
layer {
  name: "conv1"
  type: "Convolution"
  bottom: "data"
  top: "conv1"
  param {
    lr_mult: 1
    decay_mult: 1
  }
  param {
    lr_mult: 2
    decay_mult: 0
  }
  convolution_param {
    num_output: 96
    kernel_size: 11
    stride: 4
    weight_filler {
      type: "xavier"
    }
    bias_filler {
      type: "constant"
      value: 0
    }
  }
}
layer {
  name: "relu1"
  type: "ReLU"
  bottom: "conv1"
  top: "conv1"
}
layer {
  name: "pool1"
  type: "Pooling"
  bottom: "conv1"
  top: "pool1"
  pooling_param {
    pool: MAX
    kernel_size: 3
    stride: 2
  }
}
layer {
  name: "norm1"
  type: "LRN"
  bottom: "pool1"
  top: "norm1"
  lrn_param {
    local_size: 5
    alpha: 0.0001
    beta: 0.75
  }
}
layer {
  name: "conv2"
  type: "Convolution"
  bottom: "norm1"
  top: "conv2"
  param {
    lr_mult: 1
    decay_mult: 1
  }
  param {
    lr_mult: 2
    decay_mult: 0
  }
  convolution_param {
    num_output: 256
    pad: 2
    kernel_size: 5
    group: 2
    weight_filler {
      type: "xavier"
    }
    bias_filler {
      type: "constant"
      value: 1
    }
  }
}
layer {
  name: "relu2"
  type: "ReLU"
  bottom: "conv2"
  top: "conv2"
}
layer {
  name: "pool2"
  type: "Pooling"
  bottom: "conv2"
  top: "pool2"
  pooling_param {
    pool: MAX
    kernel_size: 3
    stride: 2
  }
}
layer {
  name: "norm2"
  type: "LRN"
  bottom: "pool2"
  top: "norm2"
  lrn_param {
    local_size: 5
    alpha: 0.0001
    beta: 0.75
  }
}
layer {
  name: "conv3"
  type: "Convolution"
  bottom: "norm2"
  top: "conv3"
  param {
    lr_mult: 1
    decay_mult: 1
  }
  param {
    lr_mult: 2
    decay_mult: 0
  }
  convolution_param {
    num_output: 384
    pad: 1
    kernel_size: 3
    weight_filler {
      type: "xavier"
    }
    bias_filler {
      type: "constant"
      value: 0
    }
  }
}
layer {
  name: "relu3"
  type: "ReLU"
  bottom: "conv3"
  top: "conv3"
}
layer {
  name: "conv4"
  type: "Convolution"
  bottom: "conv3"
  top: "conv4"
  param {
    lr_mult: 1
    decay_mult: 1
  }
  param {
    lr_mult: 2
    decay_mult: 0
  }
  convolution_param {
    num_output: 384
    pad: 1
    kernel_size: 3
    group: 2
    weight_filler {
      type: "xavier"
    }
    bias_filler {
      type: "constant"
      value: 1
    }
  }
}
layer {
  name: "relu4"
  type: "ReLU"
  bottom: "conv4"
  top: "conv4"
}
layer {
  name: "conv5"
  type: "Convolution"
  bottom: "conv4"
  top: "conv5"
  param {
    lr_mult: 1
    decay_mult: 1
  }
  param {
    lr_mult: 2
    decay_mult: 0
  }
  convolution_param {
    num_output: 256
    pad: 1
    kernel_size: 3
    group: 2
    weight_filler {
      type: "xavier"
    }
    bias_filler {
      type: "constant"
      value: 1
    }
  }
}
layer {
  name: "relu5"
  type: "ReLU"
  bottom: "conv5"
  top: "conv5"
}
layer {
  name: "pool5"
  type: "Pooling"
  bottom: "conv5"
  top: "pool5"
  pooling_param {
    pool: MAX
    kernel_size: 3
    stride: 2
  }
}
layer {
  name: "fc6"
  type: "InnerProduct"
  bottom: "pool5"
  top: "fc6"
  param {
    lr_mult: 1
    decay_mult: 1
  }
  param {
    lr_mult: 2
    decay_mult: 0
  }
  inner_product_param {
    num_output: 4096
    weight_filler {
      type: "xavier"
    }
    bias_filler {
      type: "constant"
      value: 1
    }
  }
}
layer {
  name: "relu6"
  type: "ReLU"
  bottom: "fc6"
  top: "fc6"
}
layer {
  name: "drop6"
  type: "Dropout"
  bottom: "fc6"
  top: "fc6"
  dropout_param {
    dropout_ratio: 0.5
  }
}
layer {
  name: "fc7"
  type: "InnerProduct"
  bottom: "fc6"
  top: "fc7"
  param {
    lr_mult: 1
    decay_mult: 1
  }
  param {
    lr_mult: 2
    decay_mult: 0
  }
  inner_product_param {
    num_output: 4096
    weight_filler {
      type: "xavier"
    }
    bias_filler {
      type: "constant"
      value: 1
    }
  }
}
layer {
  name: "relu7"
  type: "ReLU"
  bottom: "fc7"
  top: "fc7"
}
layer {
  name: "drop7"
  type: "Dropout"
  bottom: "fc7"
  top: "fc7"
  dropout_param {
    dropout_ratio: 0.5
  }
}
layer {
  name: "fc8"
  type: "InnerProduct"
  bottom: "fc7"
  top: "fc8"
  param {
    lr_mult: 1
    decay_mult: 1
  }
  param {
    lr_mult: 2
    decay_mult: 0
  }
  inner_product_param {
    num_output: 43
    weight_filler {
      type: "xavier"
    }
    bias_filler {
      type: "constant"
      value: 0
    }
  }
}
layer {
  name: "loss"
  type: "SoftmaxWithLoss"
  bottom: "fc8"
  bottom: "label"
  top: "loss"
}
I0511 18:32:09.058874 27539 layer_factory.hpp:77] Creating layer data
I0511 18:32:09.058949 27539 db_lmdb.cpp:35] Opened lmdb /home/user1/GTSRB/input/train_lmdb_224
I0511 18:32:09.058967 27539 net.cpp:84] Creating Layer data
I0511 18:32:09.058974 27539 net.cpp:380] data -> data
I0511 18:32:09.058987 27539 net.cpp:380] data -> label
I0511 18:32:09.058997 27539 data_transformer.cpp:25] Loading mean file from: /home/user1/GTSRB/input/mean_224.binaryproto
I0511 18:32:09.060958 27539 data_layer.cpp:45] output data size: 224,3,224,224
I0511 18:32:09.208390 27539 net.cpp:122] Setting up data
I0511 18:32:09.208410 27539 net.cpp:129] Top shape: 224 3 224 224 (33718272)
I0511 18:32:09.208413 27539 net.cpp:129] Top shape: 224 (224)
I0511 18:32:09.208415 27539 net.cpp:137] Memory required for data: 134873984
I0511 18:32:09.208421 27539 layer_factory.hpp:77] Creating layer conv1
I0511 18:32:09.208436 27539 net.cpp:84] Creating Layer conv1
I0511 18:32:09.208441 27539 net.cpp:406] conv1 <- data
I0511 18:32:09.208448 27539 net.cpp:380] conv1 -> conv1
I0511 18:32:09.454505 27539 net.cpp:122] Setting up conv1
I0511 18:32:09.454525 27539 net.cpp:129] Top shape: 224 96 54 54 (62705664)
I0511 18:32:09.454529 27539 net.cpp:137] Memory required for data: 385696640
I0511 18:32:09.454542 27539 layer_factory.hpp:77] Creating layer relu1
I0511 18:32:09.454550 27539 net.cpp:84] Creating Layer relu1
I0511 18:32:09.454553 27539 net.cpp:406] relu1 <- conv1
I0511 18:32:09.454556 27539 net.cpp:367] relu1 -> conv1 (in-place)
I0511 18:32:09.454684 27539 net.cpp:122] Setting up relu1
I0511 18:32:09.454691 27539 net.cpp:129] Top shape: 224 96 54 54 (62705664)
I0511 18:32:09.454694 27539 net.cpp:137] Memory required for data: 636519296
I0511 18:32:09.454695 27539 layer_factory.hpp:77] Creating layer pool1
I0511 18:32:09.454699 27539 net.cpp:84] Creating Layer pool1
I0511 18:32:09.454701 27539 net.cpp:406] pool1 <- conv1
I0511 18:32:09.454704 27539 net.cpp:380] pool1 -> pool1
I0511 18:32:09.454743 27539 net.cpp:122] Setting up pool1
I0511 18:32:09.454748 27539 net.cpp:129] Top shape: 224 96 27 27 (15676416)
I0511 18:32:09.454751 27539 net.cpp:137] Memory required for data: 699224960
I0511 18:32:09.454752 27539 layer_factory.hpp:77] Creating layer norm1
I0511 18:32:09.454758 27539 net.cpp:84] Creating Layer norm1
I0511 18:32:09.454773 27539 net.cpp:406] norm1 <- pool1
I0511 18:32:09.454777 27539 net.cpp:380] norm1 -> norm1
I0511 18:32:09.455380 27539 net.cpp:122] Setting up norm1
I0511 18:32:09.455389 27539 net.cpp:129] Top shape: 224 96 27 27 (15676416)
I0511 18:32:09.455390 27539 net.cpp:137] Memory required for data: 761930624
I0511 18:32:09.455392 27539 layer_factory.hpp:77] Creating layer conv2
I0511 18:32:09.455399 27539 net.cpp:84] Creating Layer conv2
I0511 18:32:09.455401 27539 net.cpp:406] conv2 <- norm1
I0511 18:32:09.455404 27539 net.cpp:380] conv2 -> conv2
I0511 18:32:09.458189 27539 net.cpp:122] Setting up conv2
I0511 18:32:09.458199 27539 net.cpp:129] Top shape: 224 256 27 27 (41803776)
I0511 18:32:09.458201 27539 net.cpp:137] Memory required for data: 929145728
I0511 18:32:09.458207 27539 layer_factory.hpp:77] Creating layer relu2
I0511 18:32:09.458210 27539 net.cpp:84] Creating Layer relu2
I0511 18:32:09.458212 27539 net.cpp:406] relu2 <- conv2
I0511 18:32:09.458215 27539 net.cpp:367] relu2 -> conv2 (in-place)
I0511 18:32:09.458798 27539 net.cpp:122] Setting up relu2
I0511 18:32:09.458806 27539 net.cpp:129] Top shape: 224 256 27 27 (41803776)
I0511 18:32:09.458808 27539 net.cpp:137] Memory required for data: 1096360832
I0511 18:32:09.458811 27539 layer_factory.hpp:77] Creating layer pool2
I0511 18:32:09.458814 27539 net.cpp:84] Creating Layer pool2
I0511 18:32:09.458817 27539 net.cpp:406] pool2 <- conv2
I0511 18:32:09.458818 27539 net.cpp:380] pool2 -> pool2
I0511 18:32:09.458844 27539 net.cpp:122] Setting up pool2
I0511 18:32:09.458848 27539 net.cpp:129] Top shape: 224 256 13 13 (9691136)
I0511 18:32:09.458850 27539 net.cpp:137] Memory required for data: 1135125376
I0511 18:32:09.458853 27539 layer_factory.hpp:77] Creating layer norm2
I0511 18:32:09.458856 27539 net.cpp:84] Creating Layer norm2
I0511 18:32:09.458858 27539 net.cpp:406] norm2 <- pool2
I0511 18:32:09.458860 27539 net.cpp:380] norm2 -> norm2
I0511 18:32:09.458974 27539 net.cpp:122] Setting up norm2
I0511 18:32:09.458979 27539 net.cpp:129] Top shape: 224 256 13 13 (9691136)
I0511 18:32:09.458981 27539 net.cpp:137] Memory required for data: 1173889920
I0511 18:32:09.458983 27539 layer_factory.hpp:77] Creating layer conv3
I0511 18:32:09.458988 27539 net.cpp:84] Creating Layer conv3
I0511 18:32:09.458991 27539 net.cpp:406] conv3 <- norm2
I0511 18:32:09.458993 27539 net.cpp:380] conv3 -> conv3
I0511 18:32:09.464346 27539 net.cpp:122] Setting up conv3
I0511 18:32:09.464356 27539 net.cpp:129] Top shape: 224 384 13 13 (14536704)
I0511 18:32:09.464359 27539 net.cpp:137] Memory required for data: 1232036736
I0511 18:32:09.464365 27539 layer_factory.hpp:77] Creating layer relu3
I0511 18:32:09.464368 27539 net.cpp:84] Creating Layer relu3
I0511 18:32:09.464370 27539 net.cpp:406] relu3 <- conv3
I0511 18:32:09.464373 27539 net.cpp:367] relu3 -> conv3 (in-place)
I0511 18:32:09.464480 27539 net.cpp:122] Setting up relu3
I0511 18:32:09.464485 27539 net.cpp:129] Top shape: 224 384 13 13 (14536704)
I0511 18:32:09.464488 27539 net.cpp:137] Memory required for data: 1290183552
I0511 18:32:09.464489 27539 layer_factory.hpp:77] Creating layer conv4
I0511 18:32:09.464494 27539 net.cpp:84] Creating Layer conv4
I0511 18:32:09.464496 27539 net.cpp:406] conv4 <- conv3
I0511 18:32:09.464499 27539 net.cpp:380] conv4 -> conv4
I0511 18:32:09.469986 27539 net.cpp:122] Setting up conv4
I0511 18:32:09.470003 27539 net.cpp:129] Top shape: 224 384 13 13 (14536704)
I0511 18:32:09.470006 27539 net.cpp:137] Memory required for data: 1348330368
I0511 18:32:09.470011 27539 layer_factory.hpp:77] Creating layer relu4
I0511 18:32:09.470017 27539 net.cpp:84] Creating Layer relu4
I0511 18:32:09.470021 27539 net.cpp:406] relu4 <- conv4
I0511 18:32:09.470023 27539 net.cpp:367] relu4 -> conv4 (in-place)
I0511 18:32:09.470132 27539 net.cpp:122] Setting up relu4
I0511 18:32:09.470137 27539 net.cpp:129] Top shape: 224 384 13 13 (14536704)
I0511 18:32:09.470140 27539 net.cpp:137] Memory required for data: 1406477184
I0511 18:32:09.470141 27539 layer_factory.hpp:77] Creating layer conv5
I0511 18:32:09.470158 27539 net.cpp:84] Creating Layer conv5
I0511 18:32:09.470161 27539 net.cpp:406] conv5 <- conv4
I0511 18:32:09.470165 27539 net.cpp:380] conv5 -> conv5
I0511 18:32:09.474431 27539 net.cpp:122] Setting up conv5
I0511 18:32:09.474441 27539 net.cpp:129] Top shape: 224 256 13 13 (9691136)
I0511 18:32:09.474442 27539 net.cpp:137] Memory required for data: 1445241728
I0511 18:32:09.474448 27539 layer_factory.hpp:77] Creating layer relu5
I0511 18:32:09.474452 27539 net.cpp:84] Creating Layer relu5
I0511 18:32:09.474454 27539 net.cpp:406] relu5 <- conv5
I0511 18:32:09.474457 27539 net.cpp:367] relu5 -> conv5 (in-place)
I0511 18:32:09.474565 27539 net.cpp:122] Setting up relu5
I0511 18:32:09.474570 27539 net.cpp:129] Top shape: 224 256 13 13 (9691136)
I0511 18:32:09.474571 27539 net.cpp:137] Memory required for data: 1484006272
I0511 18:32:09.474573 27539 layer_factory.hpp:77] Creating layer pool5
I0511 18:32:09.474577 27539 net.cpp:84] Creating Layer pool5
I0511 18:32:09.474580 27539 net.cpp:406] pool5 <- conv5
I0511 18:32:09.474582 27539 net.cpp:380] pool5 -> pool5
I0511 18:32:09.474608 27539 net.cpp:122] Setting up pool5
I0511 18:32:09.474613 27539 net.cpp:129] Top shape: 224 256 6 6 (2064384)
I0511 18:32:09.474614 27539 net.cpp:137] Memory required for data: 1492263808
I0511 18:32:09.474617 27539 layer_factory.hpp:77] Creating layer fc6
I0511 18:32:09.474622 27539 net.cpp:84] Creating Layer fc6
I0511 18:32:09.474623 27539 net.cpp:406] fc6 <- pool5
I0511 18:32:09.474627 27539 net.cpp:380] fc6 -> fc6
I0511 18:32:09.636549 27539 net.cpp:122] Setting up fc6
I0511 18:32:09.636569 27539 net.cpp:129] Top shape: 224 4096 (917504)
I0511 18:32:09.636571 27539 net.cpp:137] Memory required for data: 1495933824
I0511 18:32:09.636577 27539 layer_factory.hpp:77] Creating layer relu6
I0511 18:32:09.636584 27539 net.cpp:84] Creating Layer relu6
I0511 18:32:09.636585 27539 net.cpp:406] relu6 <- fc6
I0511 18:32:09.636590 27539 net.cpp:367] relu6 -> fc6 (in-place)
I0511 18:32:09.637225 27539 net.cpp:122] Setting up relu6
I0511 18:32:09.637236 27539 net.cpp:129] Top shape: 224 4096 (917504)
I0511 18:32:09.637239 27539 net.cpp:137] Memory required for data: 1499603840
I0511 18:32:09.637241 27539 layer_factory.hpp:77] Creating layer drop6
I0511 18:32:09.637245 27539 net.cpp:84] Creating Layer drop6
I0511 18:32:09.637248 27539 net.cpp:406] drop6 <- fc6
I0511 18:32:09.637250 27539 net.cpp:367] drop6 -> fc6 (in-place)
I0511 18:32:09.637274 27539 net.cpp:122] Setting up drop6
I0511 18:32:09.637279 27539 net.cpp:129] Top shape: 224 4096 (917504)
I0511 18:32:09.637279 27539 net.cpp:137] Memory required for data: 1503273856
I0511 18:32:09.637281 27539 layer_factory.hpp:77] Creating layer fc7
I0511 18:32:09.637285 27539 net.cpp:84] Creating Layer fc7
I0511 18:32:09.637287 27539 net.cpp:406] fc7 <- fc6
I0511 18:32:09.637290 27539 net.cpp:380] fc7 -> fc7
I0511 18:32:09.709926 27539 net.cpp:122] Setting up fc7
I0511 18:32:09.709945 27539 net.cpp:129] Top shape: 224 4096 (917504)
I0511 18:32:09.709949 27539 net.cpp:137] Memory required for data: 1506943872
I0511 18:32:09.709954 27539 layer_factory.hpp:77] Creating layer relu7
I0511 18:32:09.709959 27539 net.cpp:84] Creating Layer relu7
I0511 18:32:09.709961 27539 net.cpp:406] relu7 <- fc7
I0511 18:32:09.709965 27539 net.cpp:367] relu7 -> fc7 (in-place)
I0511 18:32:09.710115 27539 net.cpp:122] Setting up relu7
I0511 18:32:09.710121 27539 net.cpp:129] Top shape: 224 4096 (917504)
I0511 18:32:09.710124 27539 net.cpp:137] Memory required for data: 1510613888
I0511 18:32:09.710125 27539 layer_factory.hpp:77] Creating layer drop7
I0511 18:32:09.710129 27539 net.cpp:84] Creating Layer drop7
I0511 18:32:09.710131 27539 net.cpp:406] drop7 <- fc7
I0511 18:32:09.710134 27539 net.cpp:367] drop7 -> fc7 (in-place)
I0511 18:32:09.710152 27539 net.cpp:122] Setting up drop7
I0511 18:32:09.710155 27539 net.cpp:129] Top shape: 224 4096 (917504)
I0511 18:32:09.710157 27539 net.cpp:137] Memory required for data: 1514283904
I0511 18:32:09.710160 27539 layer_factory.hpp:77] Creating layer fc8
I0511 18:32:09.710166 27539 net.cpp:84] Creating Layer fc8
I0511 18:32:09.710180 27539 net.cpp:406] fc8 <- fc7
I0511 18:32:09.710183 27539 net.cpp:380] fc8 -> fc8
I0511 18:32:09.711437 27539 net.cpp:122] Setting up fc8
I0511 18:32:09.711446 27539 net.cpp:129] Top shape: 224 43 (9632)
I0511 18:32:09.711447 27539 net.cpp:137] Memory required for data: 1514322432
I0511 18:32:09.711452 27539 layer_factory.hpp:77] Creating layer loss
I0511 18:32:09.711455 27539 net.cpp:84] Creating Layer loss
I0511 18:32:09.711457 27539 net.cpp:406] loss <- fc8
I0511 18:32:09.711459 27539 net.cpp:406] loss <- label
I0511 18:32:09.711464 27539 net.cpp:380] loss -> loss
I0511 18:32:09.711473 27539 layer_factory.hpp:77] Creating layer loss
…
I0511 18:32:09.712424 27539 net.cpp:294] The NetState phase (1) differed from the phase (0) specified by a rule in layer data
I0511 18:32:09.712523 27539 net.cpp:51] Initializing net from parameters: 
name: "CaffeNet"
state {
  phase: TEST
}
layer {
  name: "data"
  type: "Data"
  top: "data"
  top: "label"
  include {
    phase: TEST
  }
  transform_param {
    mirror: false
    crop_size: 224
    mean_file: "/home/user1/GTSRB/input/mean_224.binaryproto"
  }
  data_param {
    source: "/home/user1/GTSRB/input/validation_lmdb_224"
    batch_size: 50
    backend: LMDB
  }
}
layer {
  name: "conv1"
  type: "Convolution"
  bottom: "data"
  top: "conv1"
  param {
    lr_mult: 1
    decay_mult: 1
  }
  param {
    lr_mult: 2
    decay_mult: 0
  }
  convolution_param {
    num_output: 96
    kernel_size: 11
    stride: 4
    weight_filler {
      type: "xavier"
    }
    bias_filler {
      type: "constant"
      value: 0
    }
  }
}
layer {
  name: "relu1"
  type: "ReLU"
  bottom: "conv1"
  top: "conv1"
}
layer {
  name: "pool1"
  type: "Pooling"
  bottom: "conv1"
  top: "pool1"
  pooling_param {
    pool: MAX
    kernel_size: 3
    stride: 2
  }
}
layer {
  name: "norm1"
  type: "LRN"
  bottom: "pool1"
  top: "norm1"
  lrn_param {
    local_size: 5
    alpha: 0.0001
    beta: 0.75
  }
}
layer {
  name: "conv2"
  type: "Convolution"
  bottom: "norm1"
  top: "conv2"
  param {
    lr_mult: 1
    decay_mult: 1
  }
  param {
    lr_mult: 2
    decay_mult: 0
  }
  convolution_param {
    num_output: 256
    pad: 2
    kernel_size: 5
    group: 2
    weight_filler {
      type: "xavier"
    }
    bias_filler {
      type: "constant"
      value: 1
    }
  }
}
layer {
  name: "relu2"
  type: "ReLU"
  bottom: "conv2"
  top: "conv2"
}
layer {
  name: "pool2"
  type: "Pooling"
  bottom: "conv2"
  top: "pool2"
  pooling_param {
    pool: MAX
    kernel_size: 3
    stride: 2
  }
}
layer {
  name: "norm2"
  type: "LRN"
  bottom: "pool2"
  top: "norm2"
  lrn_param {
    local_size: 5
    alpha: 0.0001
    beta: 0.75
  }
}
layer {
  name: "conv3"
  type: "Convolution"
  bottom: "norm2"
  top: "conv3"
  param {
    lr_mult: 1
    decay_mult: 1
  }
  param {
    lr_mult: 2
    decay_mult: 0
  }
  convolution_param {
    num_output: 384
    pad: 1
    kernel_size: 3
    weight_filler {
      type: "xavier"
    }
    bias_filler {
      type: "constant"
      value: 0
    }
  }
}
layer {
  name: "relu3"
  type: "ReLU"
  bottom: "conv3"
  top: "conv3"
}
layer {
  name: "conv4"
  type: "Convolution"
  bottom: "conv3"
  top: "conv4"
  param {
    lr_mult: 1
    decay_mult: 1
  }
  param {
    lr_mult: 2
    decay_mult: 0
  }
  convolution_param {
    num_output: 384
    pad: 1
    kernel_size: 3
    group: 2
    weight_filler {
      type: "xavier"
    }
    bias_filler {
      type: "constant"
      value: 1
    }
  }
}
layer {
  name: "relu4"
  type: "ReLU"
  bottom: "conv4"
  top: "conv4"
}
layer {
  name: "conv5"
  type: "Convolution"
  bottom: "conv4"
  top: "conv5"
  param {
    lr_mult: 1
    decay_mult: 1
  }
  param {
    lr_mult: 2
    decay_mult: 0
  }
  convolution_param {
    num_output: 256
    pad: 1
    kernel_size: 3
    group: 2
    weight_filler {
      type: "xavier"
    }
    bias_filler {
      type: "constant"
      value: 1
    }
  }
}
layer {
  name: "relu5"
  type: "ReLU"
  bottom: "conv5"
  top: "conv5"
}
layer {
  name: "pool5"
  type: "Pooling"
  bottom: "conv5"
  top: "pool5"
  pooling_param {
    pool: MAX
    kernel_size: 3
    stride: 2
  }
}
layer {
  name: "fc6"
  type: "InnerProduct"
  bottom: "pool5"
  top: "fc6"
  param {
    lr_mult: 1
    decay_mult: 1
  }
  param {
    lr_mult: 2
    decay_mult: 0
  }
  inner_product_param {
    num_output: 4096
    weight_filler {
      type: "xavier"
    }
    bias_filler {
      type: "constant"
      value: 1
    }
  }
}
layer {
  name: "relu6"
  type: "ReLU"
  bottom: "fc6"
  top: "fc6"
}
layer {
  name: "drop6"
  type: "Dropout"
  bottom: "fc6"
  top: "fc6"
  dropout_param {
    dropout_ratio: 0.5
  }
}
layer {
  name: "fc7"
  type: "InnerProduct"
  bottom: "fc6"
  top: "fc7"
  param {
    lr_mult: 1
    decay_mult: 1
  }
  param {
    lr_mult: 2
    decay_mult: 0
  }
  inner_product_param {
    num_output: 4096
    weight_filler {
      type: "xavier"
    }
    bias_filler {
      type: "constant"
      value: 1
    }
  }
}
layer {
  name: "relu7"
  type: "ReLU"
  bottom: "fc7"
  top: "fc7"
}
layer {
  name: "drop7"
  type: "Dropout"
  bottom: "fc7"
  top: "fc7"
  dropout_param {
    dropout_ratio: 0.5
  }
}
layer {
  name: "fc8"
  type: "InnerProduct"
  bottom: "fc7"
  top: "fc8"
  param {
    lr_mult: 1
    decay_mult: 1
  }
  param {
    lr_mult: 2
    decay_mult: 0
  }
  inner_product_param {
    num_output: 43
    weight_filler {
      type: "xavier"
    }
    bias_filler {
      type: "constant"
      value: 0
    }
  }
}
layer {
  name: "accuracy"
  type: "Accuracy"
  bottom: "fc8"
  bottom: "label"
  top: "accuracy"
  include {
    phase: TEST
  }
}
layer {
  name: "loss"
  type: "SoftmaxWithLoss"
  bottom: "fc8"
  bottom: "label"
  top: "loss"
}
I0511 18:32:09.712590 27539 layer_factory.hpp:77] Creating layer data
I0511 18:32:09.712628 27539 db_lmdb.cpp:35] Opened lmdb /home/user1/GTSRB/input/validation_lmdb_224
I0511 18:32:09.712638 27539 net.cpp:84] Creating Layer data
I0511 18:32:09.712642 27539 net.cpp:380] data -> data
I0511 18:32:09.712646 27539 net.cpp:380] data -> label
I0511 18:32:09.712651 27539 data_transformer.cpp:25] Loading mean file from: /home/user1/GTSRB/input/mean_224.binaryproto
I0511 18:32:09.713335 27539 data_layer.cpp:45] output data size: 50,3,224,224
I0511 18:32:09.749595 27539 net.cpp:122] Setting up data
I0511 18:32:09.749614 27539 net.cpp:129] Top shape: 50 3 224 224 (7526400)
I0511 18:32:09.749617 27539 net.cpp:129] Top shape: 50 (50)
I0511 18:32:09.749619 27539 net.cpp:137] Memory required for data: 30105800
I0511 18:32:09.749624 27539 layer_factory.hpp:77] Creating layer label_data_1_split
I0511 18:32:09.749631 27539 net.cpp:84] Creating Layer label_data_1_split
I0511 18:32:09.749634 27539 net.cpp:406] label_data_1_split <- label
I0511 18:32:09.749639 27539 net.cpp:380] label_data_1_split -> label_data_1_split_0
I0511 18:32:09.749644 27539 net.cpp:380] label_data_1_split -> label_data_1_split_1
I0511 18:32:09.749747 27539 net.cpp:122] Setting up label_data_1_split
I0511 18:32:09.749758 27539 net.cpp:129] Top shape: 50 (50)
I0511 18:32:09.749761 27539 net.cpp:129] Top shape: 50 (50)
I0511 18:32:09.749763 27539 net.cpp:137] Memory required for data: 30106200
I0511 18:32:09.749764 27539 layer_factory.hpp:77] Creating layer conv1
I0511 18:32:09.749773 27539 net.cpp:84] Creating Layer conv1
I0511 18:32:09.749776 27539 net.cpp:406] conv1 <- data
I0511 18:32:09.749780 27539 net.cpp:380] conv1 -> conv1
I0511 18:32:09.753262 27539 net.cpp:122] Setting up conv1
I0511 18:32:09.753273 27539 net.cpp:129] Top shape: 50 96 54 54 (13996800)
I0511 18:32:09.753275 27539 net.cpp:137] Memory required for data: 86093400
I0511 18:32:09.753283 27539 layer_factory.hpp:77] Creating layer relu1
I0511 18:32:09.753286 27539 net.cpp:84] Creating Layer relu1
I0511 18:32:09.753289 27539 net.cpp:406] relu1 <- conv1
I0511 18:32:09.753293 27539 net.cpp:367] relu1 -> conv1 (in-place)
I0511 18:32:09.753397 27539 net.cpp:122] Setting up relu1
I0511 18:32:09.753402 27539 net.cpp:129] Top shape: 50 96 54 54 (13996800)
I0511 18:32:09.753404 27539 net.cpp:137] Memory required for data: 142080600
I0511 18:32:09.753407 27539 layer_factory.hpp:77] Creating layer pool1
I0511 18:32:09.753412 27539 net.cpp:84] Creating Layer pool1
I0511 18:32:09.753414 27539 net.cpp:406] pool1 <- conv1
I0511 18:32:09.753417 27539 net.cpp:380] pool1 -> pool1
I0511 18:32:09.753445 27539 net.cpp:122] Setting up pool1
I0511 18:32:09.753449 27539 net.cpp:129] Top shape: 50 96 27 27 (3499200)
I0511 18:32:09.753451 27539 net.cpp:137] Memory required for data: 156077400
I0511 18:32:09.753453 27539 layer_factory.hpp:77] Creating layer norm1
I0511 18:32:09.753456 27539 net.cpp:84] Creating Layer norm1
I0511 18:32:09.753458 27539 net.cpp:406] norm1 <- pool1
I0511 18:32:09.753461 27539 net.cpp:380] norm1 -> norm1
I0511 18:32:09.754019 27539 net.cpp:122] Setting up norm1
I0511 18:32:09.754026 27539 net.cpp:129] Top shape: 50 96 27 27 (3499200)
I0511 18:32:09.754029 27539 net.cpp:137] Memory required for data: 170074200
I0511 18:32:09.754031 27539 layer_factory.hpp:77] Creating layer conv2
I0511 18:32:09.754036 27539 net.cpp:84] Creating Layer conv2
I0511 18:32:09.754040 27539 net.cpp:406] conv2 <- norm1
I0511 18:32:09.754043 27539 net.cpp:380] conv2 -> conv2
I0511 18:32:09.756950 27539 net.cpp:122] Setting up conv2
I0511 18:32:09.756959 27539 net.cpp:129] Top shape: 50 256 27 27 (9331200)
I0511 18:32:09.756961 27539 net.cpp:137] Memory required for data: 207399000
I0511 18:32:09.756968 27539 layer_factory.hpp:77] Creating layer relu2
I0511 18:32:09.756973 27539 net.cpp:84] Creating Layer relu2
I0511 18:32:09.756976 27539 net.cpp:406] relu2 <- conv2
I0511 18:32:09.756979 27539 net.cpp:367] relu2 -> conv2 (in-place)
I0511 18:32:09.757532 27539 net.cpp:122] Setting up relu2
I0511 18:32:09.757540 27539 net.cpp:129] Top shape: 50 256 27 27 (9331200)
I0511 18:32:09.757555 27539 net.cpp:137] Memory required for data: 244723800
I0511 18:32:09.757557 27539 layer_factory.hpp:77] Creating layer pool2
I0511 18:32:09.757563 27539 net.cpp:84] Creating Layer pool2
I0511 18:32:09.757575 27539 net.cpp:406] pool2 <- conv2
I0511 18:32:09.757577 27539 net.cpp:380] pool2 -> pool2
I0511 18:32:09.757606 27539 net.cpp:122] Setting up pool2
I0511 18:32:09.757611 27539 net.cpp:129] Top shape: 50 256 13 13 (2163200)
I0511 18:32:09.757613 27539 net.cpp:137] Memory required for data: 253376600
I0511 18:32:09.757616 27539 layer_factory.hpp:77] Creating layer norm2
I0511 18:32:09.757621 27539 net.cpp:84] Creating Layer norm2
I0511 18:32:09.757622 27539 net.cpp:406] norm2 <- pool2
I0511 18:32:09.757627 27539 net.cpp:380] norm2 -> norm2
I0511 18:32:09.757743 27539 net.cpp:122] Setting up norm2
I0511 18:32:09.757750 27539 net.cpp:129] Top shape: 50 256 13 13 (2163200)
I0511 18:32:09.757751 27539 net.cpp:137] Memory required for data: 262029400
I0511 18:32:09.757753 27539 layer_factory.hpp:77] Creating layer conv3
I0511 18:32:09.757758 27539 net.cpp:84] Creating Layer conv3
I0511 18:32:09.757761 27539 net.cpp:406] conv3 <- norm2
I0511 18:32:09.757764 27539 net.cpp:380] conv3 -> conv3
I0511 18:32:09.765547 27539 net.cpp:122] Setting up conv3
I0511 18:32:09.765563 27539 net.cpp:129] Top shape: 50 384 13 13 (3244800)
I0511 18:32:09.765565 27539 net.cpp:137] Memory required for data: 275008600
I0511 18:32:09.765573 27539 layer_factory.hpp:77] Creating layer relu3
I0511 18:32:09.765580 27539 net.cpp:84] Creating Layer relu3
I0511 18:32:09.765583 27539 net.cpp:406] relu3 <- conv3
I0511 18:32:09.765586 27539 net.cpp:367] relu3 -> conv3 (in-place)
I0511 18:32:09.765702 27539 net.cpp:122] Setting up relu3
I0511 18:32:09.765708 27539 net.cpp:129] Top shape: 50 384 13 13 (3244800)
I0511 18:32:09.765710 27539 net.cpp:137] Memory required for data: 287987800
I0511 18:32:09.765712 27539 layer_factory.hpp:77] Creating layer conv4
I0511 18:32:09.765718 27539 net.cpp:84] Creating Layer conv4
I0511 18:32:09.765722 27539 net.cpp:406] conv4 <- conv3
I0511 18:32:09.765724 27539 net.cpp:380] conv4 -> conv4
I0511 18:32:09.772850 27539 net.cpp:122] Setting up conv4
I0511 18:32:09.772864 27539 net.cpp:129] Top shape: 50 384 13 13 (3244800)
I0511 18:32:09.772867 27539 net.cpp:137] Memory required for data: 300967000
I0511 18:32:09.772873 27539 layer_factory.hpp:77] Creating layer relu4
I0511 18:32:09.772879 27539 net.cpp:84] Creating Layer relu4
I0511 18:32:09.772882 27539 net.cpp:406] relu4 <- conv4
I0511 18:32:09.772886 27539 net.cpp:367] relu4 -> conv4 (in-place)
I0511 18:32:09.773008 27539 net.cpp:122] Setting up relu4
I0511 18:32:09.773013 27539 net.cpp:129] Top shape: 50 384 13 13 (3244800)
I0511 18:32:09.773015 27539 net.cpp:137] Memory required for data: 313946200
I0511 18:32:09.773017 27539 layer_factory.hpp:77] Creating layer conv5
I0511 18:32:09.773023 27539 net.cpp:84] Creating Layer conv5
I0511 18:32:09.773026 27539 net.cpp:406] conv5 <- conv4
I0511 18:32:09.773030 27539 net.cpp:380] conv5 -> conv5
I0511 18:32:09.780136 27539 net.cpp:122] Setting up conv5
I0511 18:32:09.780151 27539 net.cpp:129] Top shape: 50 256 13 13 (2163200)
I0511 18:32:09.780153 27539 net.cpp:137] Memory required for data: 322599000
I0511 18:32:09.780160 27539 layer_factory.hpp:77] Creating layer relu5
I0511 18:32:09.780166 27539 net.cpp:84] Creating Layer relu5
I0511 18:32:09.780169 27539 net.cpp:406] relu5 <- conv5
I0511 18:32:09.780172 27539 net.cpp:367] relu5 -> conv5 (in-place)
I0511 18:32:09.780287 27539 net.cpp:122] Setting up relu5
I0511 18:32:09.780292 27539 net.cpp:129] Top shape: 50 256 13 13 (2163200)
I0511 18:32:09.780295 27539 net.cpp:137] Memory required for data: 331251800
I0511 18:32:09.780297 27539 layer_factory.hpp:77] Creating layer pool5
I0511 18:32:09.780303 27539 net.cpp:84] Creating Layer pool5
I0511 18:32:09.780305 27539 net.cpp:406] pool5 <- conv5
I0511 18:32:09.780309 27539 net.cpp:380] pool5 -> pool5
I0511 18:32:09.780341 27539 net.cpp:122] Setting up pool5
I0511 18:32:09.780359 27539 net.cpp:129] Top shape: 50 256 6 6 (460800)
I0511 18:32:09.780361 27539 net.cpp:137] Memory required for data: 333095000
I0511 18:32:09.780364 27539 layer_factory.hpp:77] Creating layer fc6
I0511 18:32:09.780369 27539 net.cpp:84] Creating Layer fc6
I0511 18:32:09.780371 27539 net.cpp:406] fc6 <- pool5
I0511 18:32:09.780375 27539 net.cpp:380] fc6 -> fc6
I0511 18:32:09.945371 27539 net.cpp:122] Setting up fc6
I0511 18:32:09.945387 27539 net.cpp:129] Top shape: 50 4096 (204800)
I0511 18:32:09.945389 27539 net.cpp:137] Memory required for data: 333914200
I0511 18:32:09.945395 27539 layer_factory.hpp:77] Creating layer relu6
I0511 18:32:09.945400 27539 net.cpp:84] Creating Layer relu6
I0511 18:32:09.945403 27539 net.cpp:406] relu6 <- fc6
I0511 18:32:09.945406 27539 net.cpp:367] relu6 -> fc6 (in-place)
I0511 18:32:09.945557 27539 net.cpp:122] Setting up relu6
I0511 18:32:09.945564 27539 net.cpp:129] Top shape: 50 4096 (204800)
I0511 18:32:09.945565 27539 net.cpp:137] Memory required for data: 334733400
I0511 18:32:09.945567 27539 layer_factory.hpp:77] Creating layer drop6
I0511 18:32:09.945571 27539 net.cpp:84] Creating Layer drop6
I0511 18:32:09.945574 27539 net.cpp:406] drop6 <- fc6
I0511 18:32:09.945576 27539 net.cpp:367] drop6 -> fc6 (in-place)
I0511 18:32:09.945596 27539 net.cpp:122] Setting up drop6
I0511 18:32:09.945600 27539 net.cpp:129] Top shape: 50 4096 (204800)
I0511 18:32:09.945601 27539 net.cpp:137] Memory required for data: 335552600
I0511 18:32:09.945603 27539 layer_factory.hpp:77] Creating layer fc7
I0511 18:32:09.945608 27539 net.cpp:84] Creating Layer fc7
I0511 18:32:09.945611 27539 net.cpp:406] fc7 <- fc6
I0511 18:32:09.945616 27539 net.cpp:380] fc7 -> fc7
I0511 18:32:10.018056 27539 net.cpp:122] Setting up fc7
I0511 18:32:10.018075 27539 net.cpp:129] Top shape: 50 4096 (204800)
I0511 18:32:10.018077 27539 net.cpp:137] Memory required for data: 336371800
I0511 18:32:10.018085 27539 layer_factory.hpp:77] Creating layer relu7
I0511 18:32:10.018090 27539 net.cpp:84] Creating Layer relu7
I0511 18:32:10.018092 27539 net.cpp:406] relu7 <- fc7
I0511 18:32:10.018095 27539 net.cpp:367] relu7 -> fc7 (in-place)
I0511 18:32:10.018792 27539 net.cpp:122] Setting up relu7
I0511 18:32:10.018800 27539 net.cpp:129] Top shape: 50 4096 (204800)
I0511 18:32:10.018802 27539 net.cpp:137] Memory required for data: 337191000
I0511 18:32:10.018805 27539 layer_factory.hpp:77] Creating layer drop7
I0511 18:32:10.018808 27539 net.cpp:84] Creating Layer drop7
I0511 18:32:10.018810 27539 net.cpp:406] drop7 <- fc7
I0511 18:32:10.018813 27539 net.cpp:367] drop7 -> fc7 (in-place)
I0511 18:32:10.018832 27539 net.cpp:122] Setting up drop7
I0511 18:32:10.018837 27539 net.cpp:129] Top shape: 50 4096 (204800)
I0511 18:32:10.018839 27539 net.cpp:137] Memory required for data: 338010200
I0511 18:32:10.018841 27539 layer_factory.hpp:77] Creating layer fc8
I0511 18:32:10.018846 27539 net.cpp:84] Creating Layer fc8
I0511 18:32:10.018847 27539 net.cpp:406] fc8 <- fc7
I0511 18:32:10.018851 27539 net.cpp:380] fc8 -> fc8
I0511 18:32:10.019567 27539 net.cpp:122] Setting up fc8
I0511 18:32:10.019570 27539 net.cpp:129] Top shape: 50 43 (2150)
I0511 18:32:10.019572 27539 net.cpp:137] Memory required for data: 338018800
I0511 18:32:10.019575 27539 layer_factory.hpp:77] Creating layer fc8_fc8_0_split
I0511 18:32:10.019579 27539 net.cpp:84] Creating Layer fc8_fc8_0_split
I0511 18:32:10.019580 27539 net.cpp:406] fc8_fc8_0_split <- fc8
I0511 18:32:10.019583 27539 net.cpp:380] fc8_fc8_0_split -> fc8_fc8_0_split_0
I0511 18:32:10.019587 27539 net.cpp:380] fc8_fc8_0_split -> fc8_fc8_0_split_1
I0511 18:32:10.019610 27539 net.cpp:122] Setting up fc8_fc8_0_split
I0511 18:32:10.019613 27539 net.cpp:129] Top shape: 50 43 (2150)
I0511 18:32:10.019615 27539 net.cpp:129] Top shape: 50 43 (2150)
I0511 18:32:10.019618 27539 net.cpp:137] Memory required for data: 338036000
I0511 18:32:10.019618 27539 layer_factory.hpp:77] Creating layer accuracy
I0511 18:32:10.019623 27539 net.cpp:84] Creating Layer accuracy
I0511 18:32:10.019624 27539 net.cpp:406] accuracy <- fc8_fc8_0_split_0
I0511 18:32:10.019639 27539 net.cpp:406] accuracy <- label_data_1_split_0
I0511 18:32:10.019642 27539 net.cpp:380] accuracy -> accuracy
…
