…
I0511 14:46:55.422802 25555 net.cpp:294] The NetState phase (0) differed from the phase (1) specified by a rule in layer accuracy
I0511 14:46:55.422904 25555 net.cpp:51] Initializing net from parameters: 
name: "CaffeNet"
state {
  phase: TRAIN
  level: 0
  stage: ""
}
layer {
  name: "data"
  type: "Data"
  top: "data"
  top: "label"
  include {
    phase: TRAIN
  }
  transform_param {
    mirror: true
    crop_size: 224
    mean_file: "/home/user1/GTSRB/input/mean_224.binaryproto"
  }
  data_param {
    source: "/home/user1/GTSRB/input/train_lmdb_224"
    batch_size: 224
    backend: LMDB
  }
}
layer {
  name: "conv1"
  type: "Convolution"
  bottom: "data"
  top: "conv1"
  param {
    lr_mult: 1
    decay_mult: 1
  }
  param {
    lr_mult: 2
    decay_mult: 0
  }
  convolution_param {
    num_output: 96
    kernel_size: 11
    stride: 4
    weight_filler {
      type: "gaussian"
      std: 0.01
    }
    bias_filler {
      type: "constant"
      value: 0
    }
  }
}
layer {
  name: "relu1"
  type: "ReLU"
  bottom: "conv1"
  top: "conv1"
}
layer {
  name: "pool1"
  type: "Pooling"
  bottom: "conv1"
  top: "pool1"
  pooling_param {
    pool: MAX
    kernel_size: 3
    stride: 2
  }
}
layer {
  name: "norm1"
  type: "LRN"
  bottom: "pool1"
  top: "norm1"
  lrn_param {
    local_size: 5
    alpha: 0.0001
    beta: 0.75
  }
}
layer {
  name: "conv2"
  type: "Convolution"
  bottom: "norm1"
  top: "conv2"
  param {
    lr_mult: 1
    decay_mult: 1
  }
  param {
    lr_mult: 2
    decay_mult: 0
  }
  convolution_param {
    num_output: 256
    pad: 2
    kernel_size: 5
    group: 2
    weight_filler {
      type: "gaussian"
      std: 0.01
    }
    bias_filler {
      type: "constant"
      value: 1
    }
  }
}
layer {
  name: "relu2"
  type: "ReLU"
  bottom: "conv2"
  top: "conv2"
}
layer {
  name: "pool2"
  type: "Pooling"
  bottom: "conv2"
  top: "pool2"
  pooling_param {
    pool: MAX
    kernel_size: 3
    stride: 2
  }
}
layer {
  name: "norm2"
  type: "LRN"
  bottom: "pool2"
  top: "norm2"
  lrn_param {
    local_size: 5
    alpha: 0.0001
    beta: 0.75
  }
}
layer {
  name: "conv3"
  type: "Convolution"
  bottom: "norm2"
  top: "conv3"
  param {
    lr_mult: 1
    decay_mult: 1
  }
  param {
    lr_mult: 2
    decay_mult: 0
  }
  convolution_param {
    num_output: 384
    pad: 1
    kernel_size: 3
    weight_filler {
      type: "gaussian"
      std: 0.01
    }
    bias_filler {
      type: "constant"
      value: 0
    }
  }
}
layer {
  name: "relu3"
  type: "ReLU"
  bottom: "conv3"
  top: "conv3"
}
layer {
  name: "conv4"
  type: "Convolution"
  bottom: "conv3"
  top: "conv4"
  param {
    lr_mult: 1
    decay_mult: 1
  }
  param {
    lr_mult: 2
    decay_mult: 0
  }
  convolution_param {
    num_output: 384
    pad: 1
    kernel_size: 3
    group: 2
    weight_filler {
      type: "gaussian"
      std: 0.01
    }
    bias_filler {
      type: "constant"
      value: 1
    }
  }
}
layer {
  name: "relu4"
  type: "ReLU"
  bottom: "conv4"
  top: "conv4"
}
layer {
  name: "conv5"
  type: "Convolution"
  bottom: "conv4"
  top: "conv5"
  param {
    lr_mult: 1
    decay_mult: 1
  }
  param {
    lr_mult: 2
    decay_mult: 0
  }
  convolution_param {
    num_output: 256
    pad: 1
    kernel_size: 3
    group: 2
    weight_filler {
      type: "gaussian"
      std: 0.01
    }
    bias_filler {
      type: "constant"
      value: 1
    }
  }
}
layer {
  name: "relu5"
  type: "ReLU"
  bottom: "conv5"
  top: "conv5"
}
layer {
  name: "pool5"
  type: "Pooling"
  bottom: "conv5"
  top: "pool5"
  pooling_param {
    pool: MAX
    kernel_size: 3
    stride: 2
  }
}
layer {
  name: "fc6"
  type: "InnerProduct"
  bottom: "pool5"
  top: "fc6"
  param {
    lr_mult: 1
    decay_mult: 1
  }
  param {
    lr_mult: 2
    decay_mult: 0
  }
  inner_product_param {
    num_output: 4096
    weight_filler {
      type: "gaussian"
      std: 0.005
    }
    bias_filler {
      type: "constant"
      value: 1
    }
  }
}
layer {
  name: "relu6"
  type: "ReLU"
  bottom: "fc6"
  top: "fc6"
}
layer {
  name: "drop6"
  type: "Dropout"
  bottom: "fc6"
  top: "fc6"
  dropout_param {
    dropout_ratio: 0.5
  }
}
layer {
  name: "fc7"
  type: "InnerProduct"
  bottom: "fc6"
  top: "fc7"
  param {
    lr_mult: 1
    decay_mult: 1
  }
  param {
    lr_mult: 2
    decay_mult: 0
  }
  inner_product_param {
    num_output: 4096
    weight_filler {
      type: "gaussian"
      std: 0.005
    }
    bias_filler {
      type: "constant"
      value: 1
    }
  }
}
layer {
  name: "relu7"
  type: "ReLU"
  bottom: "fc7"
  top: "fc7"
}
layer {
  name: "drop7"
  type: "Dropout"
  bottom: "fc7"
  top: "fc7"
  dropout_param {
    dropout_ratio: 0.5
  }
}
layer {
  name: "fc8"
  type: "InnerProduct"
  bottom: "fc7"
  top: "fc8"
  param {
    lr_mult: 1
    decay_mult: 1
  }
  param {
    lr_mult: 2
    decay_mult: 0
  }
  inner_product_param {
    num_output: 43
    weight_filler {
      type: "gaussian"
      std: 0.01
    }
    bias_filler {
      type: "constant"
      value: 0
    }
  }
}
layer {
  name: "loss"
  type: "SoftmaxWithLoss"
  bottom: "fc8"
  bottom: "label"
  top: "loss"
}
I0511 14:46:55.422966 25555 layer_factory.hpp:77] Creating layer data
I0511 14:46:55.423034 25555 db_lmdb.cpp:35] Opened lmdb /home/user1/GTSRB/input/train_lmdb_224
I0511 14:46:55.423051 25555 net.cpp:84] Creating Layer data
I0511 14:46:55.423058 25555 net.cpp:380] data -> data
I0511 14:46:55.423071 25555 net.cpp:380] data -> label
I0511 14:46:55.423080 25555 data_transformer.cpp:25] Loading mean file from: /home/user1/GTSRB/input/mean_224.binaryproto
I0511 14:46:55.425024 25555 data_layer.cpp:45] output data size: 224,3,224,224
I0511 14:46:55.570487 25555 net.cpp:122] Setting up data
I0511 14:46:55.570507 25555 net.cpp:129] Top shape: 224 3 224 224 (33718272)
I0511 14:46:55.570509 25555 net.cpp:129] Top shape: 224 (224)
I0511 14:46:55.570513 25555 net.cpp:137] Memory required for data: 134873984
I0511 14:46:55.570519 25555 layer_factory.hpp:77] Creating layer conv1
I0511 14:46:55.570533 25555 net.cpp:84] Creating Layer conv1
I0511 14:46:55.570538 25555 net.cpp:406] conv1 <- data
I0511 14:46:55.570545 25555 net.cpp:380] conv1 -> conv1
I0511 14:46:55.808935 25555 net.cpp:122] Setting up conv1
I0511 14:46:55.808956 25555 net.cpp:129] Top shape: 224 96 54 54 (62705664)
I0511 14:46:55.808959 25555 net.cpp:137] Memory required for data: 385696640
I0511 14:46:55.808977 25555 layer_factory.hpp:77] Creating layer relu1
I0511 14:46:55.808984 25555 net.cpp:84] Creating Layer relu1
I0511 14:46:55.808989 25555 net.cpp:406] relu1 <- conv1
I0511 14:46:55.808991 25555 net.cpp:367] relu1 -> conv1 (in-place)
I0511 14:46:55.809113 25555 net.cpp:122] Setting up relu1
I0511 14:46:55.809119 25555 net.cpp:129] Top shape: 224 96 54 54 (62705664)
I0511 14:46:55.809121 25555 net.cpp:137] Memory required for data: 636519296
I0511 14:46:55.809123 25555 layer_factory.hpp:77] Creating layer pool1
I0511 14:46:55.809128 25555 net.cpp:84] Creating Layer pool1
I0511 14:46:55.809129 25555 net.cpp:406] pool1 <- conv1
I0511 14:46:55.809132 25555 net.cpp:380] pool1 -> pool1
I0511 14:46:55.809167 25555 net.cpp:122] Setting up pool1
I0511 14:46:55.809171 25555 net.cpp:129] Top shape: 224 96 27 27 (15676416)
I0511 14:46:55.809173 25555 net.cpp:137] Memory required for data: 699224960
I0511 14:46:55.809175 25555 layer_factory.hpp:77] Creating layer norm1
I0511 14:46:55.809192 25555 net.cpp:84] Creating Layer norm1
I0511 14:46:55.809195 25555 net.cpp:406] norm1 <- pool1
I0511 14:46:55.809198 25555 net.cpp:380] norm1 -> norm1
I0511 14:46:55.809809 25555 net.cpp:122] Setting up norm1
I0511 14:46:55.809816 25555 net.cpp:129] Top shape: 224 96 27 27 (15676416)
I0511 14:46:55.809819 25555 net.cpp:137] Memory required for data: 761930624
I0511 14:46:55.809821 25555 layer_factory.hpp:77] Creating layer conv2
I0511 14:46:55.809828 25555 net.cpp:84] Creating Layer conv2
I0511 14:46:55.809830 25555 net.cpp:406] conv2 <- norm1
I0511 14:46:55.809834 25555 net.cpp:380] conv2 -> conv2
I0511 14:46:55.813426 25555 net.cpp:122] Setting up conv2
I0511 14:46:55.813436 25555 net.cpp:129] Top shape: 224 256 27 27 (41803776)
I0511 14:46:55.813437 25555 net.cpp:137] Memory required for data: 929145728
I0511 14:46:55.813444 25555 layer_factory.hpp:77] Creating layer relu2
I0511 14:46:55.813448 25555 net.cpp:84] Creating Layer relu2
I0511 14:46:55.813450 25555 net.cpp:406] relu2 <- conv2
I0511 14:46:55.813453 25555 net.cpp:367] relu2 -> conv2 (in-place)
I0511 14:46:55.814041 25555 net.cpp:122] Setting up relu2
I0511 14:46:55.814049 25555 net.cpp:129] Top shape: 224 256 27 27 (41803776)
I0511 14:46:55.814050 25555 net.cpp:137] Memory required for data: 1096360832
I0511 14:46:55.814052 25555 layer_factory.hpp:77] Creating layer pool2
I0511 14:46:55.814056 25555 net.cpp:84] Creating Layer pool2
I0511 14:46:55.814059 25555 net.cpp:406] pool2 <- conv2
I0511 14:46:55.814061 25555 net.cpp:380] pool2 -> pool2
I0511 14:46:55.814087 25555 net.cpp:122] Setting up pool2
I0511 14:46:55.814091 25555 net.cpp:129] Top shape: 224 256 13 13 (9691136)
I0511 14:46:55.814093 25555 net.cpp:137] Memory required for data: 1135125376
I0511 14:46:55.814095 25555 layer_factory.hpp:77] Creating layer norm2
I0511 14:46:55.814100 25555 net.cpp:84] Creating Layer norm2
I0511 14:46:55.814101 25555 net.cpp:406] norm2 <- pool2
I0511 14:46:55.814103 25555 net.cpp:380] norm2 -> norm2
I0511 14:46:55.814216 25555 net.cpp:122] Setting up norm2
I0511 14:46:55.814221 25555 net.cpp:129] Top shape: 224 256 13 13 (9691136)
I0511 14:46:55.814224 25555 net.cpp:137] Memory required for data: 1173889920
I0511 14:46:55.814225 25555 layer_factory.hpp:77] Creating layer conv3
I0511 14:46:55.814231 25555 net.cpp:84] Creating Layer conv3
I0511 14:46:55.814234 25555 net.cpp:406] conv3 <- norm2
I0511 14:46:55.814236 25555 net.cpp:380] conv3 -> conv3
I0511 14:46:55.822052 25555 net.cpp:122] Setting up conv3
I0511 14:46:55.822069 25555 net.cpp:129] Top shape: 224 384 13 13 (14536704)
I0511 14:46:55.822072 25555 net.cpp:137] Memory required for data: 1232036736
I0511 14:46:55.822080 25555 layer_factory.hpp:77] Creating layer relu3
I0511 14:46:55.822087 25555 net.cpp:84] Creating Layer relu3
I0511 14:46:55.822088 25555 net.cpp:406] relu3 <- conv3
I0511 14:46:55.822093 25555 net.cpp:367] relu3 -> conv3 (in-place)
I0511 14:46:55.822202 25555 net.cpp:122] Setting up relu3
I0511 14:46:55.822208 25555 net.cpp:129] Top shape: 224 384 13 13 (14536704)
I0511 14:46:55.822209 25555 net.cpp:137] Memory required for data: 1290183552
I0511 14:46:55.822211 25555 layer_factory.hpp:77] Creating layer conv4
I0511 14:46:55.822218 25555 net.cpp:84] Creating Layer conv4
I0511 14:46:55.822221 25555 net.cpp:406] conv4 <- conv3
I0511 14:46:55.822223 25555 net.cpp:380] conv4 -> conv4
I0511 14:46:55.829098 25555 net.cpp:122] Setting up conv4
I0511 14:46:55.829109 25555 net.cpp:129] Top shape: 224 384 13 13 (14536704)
I0511 14:46:55.829111 25555 net.cpp:137] Memory required for data: 1348330368
I0511 14:46:55.829116 25555 layer_factory.hpp:77] Creating layer relu4
I0511 14:46:55.829120 25555 net.cpp:84] Creating Layer relu4
I0511 14:46:55.829123 25555 net.cpp:406] relu4 <- conv4
I0511 14:46:55.829125 25555 net.cpp:367] relu4 -> conv4 (in-place)
I0511 14:46:55.829231 25555 net.cpp:122] Setting up relu4
I0511 14:46:55.829241 25555 net.cpp:129] Top shape: 224 384 13 13 (14536704)
I0511 14:46:55.829242 25555 net.cpp:137] Memory required for data: 1406477184
I0511 14:46:55.829257 25555 layer_factory.hpp:77] Creating layer conv5
I0511 14:46:55.829262 25555 net.cpp:84] Creating Layer conv5
I0511 14:46:55.829264 25555 net.cpp:406] conv5 <- conv4
I0511 14:46:55.829267 25555 net.cpp:380] conv5 -> conv5
I0511 14:46:55.834661 25555 net.cpp:122] Setting up conv5
I0511 14:46:55.834669 25555 net.cpp:129] Top shape: 224 256 13 13 (9691136)
I0511 14:46:55.834671 25555 net.cpp:137] Memory required for data: 1445241728
I0511 14:46:55.834678 25555 layer_factory.hpp:77] Creating layer relu5
I0511 14:46:55.834682 25555 net.cpp:84] Creating Layer relu5
I0511 14:46:55.834684 25555 net.cpp:406] relu5 <- conv5
I0511 14:46:55.834687 25555 net.cpp:367] relu5 -> conv5 (in-place)
I0511 14:46:55.834792 25555 net.cpp:122] Setting up relu5
I0511 14:46:55.834797 25555 net.cpp:129] Top shape: 224 256 13 13 (9691136)
I0511 14:46:55.834800 25555 net.cpp:137] Memory required for data: 1484006272
I0511 14:46:55.834800 25555 layer_factory.hpp:77] Creating layer pool5
I0511 14:46:55.834805 25555 net.cpp:84] Creating Layer pool5
I0511 14:46:55.834806 25555 net.cpp:406] pool5 <- conv5
I0511 14:46:55.834810 25555 net.cpp:380] pool5 -> pool5
I0511 14:46:55.834837 25555 net.cpp:122] Setting up pool5
I0511 14:46:55.834842 25555 net.cpp:129] Top shape: 224 256 6 6 (2064384)
I0511 14:46:55.834843 25555 net.cpp:137] Memory required for data: 1492263808
I0511 14:46:55.834846 25555 layer_factory.hpp:77] Creating layer fc6
I0511 14:46:55.834851 25555 net.cpp:84] Creating Layer fc6
I0511 14:46:55.834853 25555 net.cpp:406] fc6 <- pool5
I0511 14:46:55.834856 25555 net.cpp:380] fc6 -> fc6
I0511 14:46:56.087656 25555 net.cpp:122] Setting up fc6
I0511 14:46:56.087674 25555 net.cpp:129] Top shape: 224 4096 (917504)
I0511 14:46:56.087677 25555 net.cpp:137] Memory required for data: 1495933824
I0511 14:46:56.087683 25555 layer_factory.hpp:77] Creating layer relu6
I0511 14:46:56.087689 25555 net.cpp:84] Creating Layer relu6
I0511 14:46:56.087692 25555 net.cpp:406] relu6 <- fc6
I0511 14:46:56.087695 25555 net.cpp:367] relu6 -> fc6 (in-place)
I0511 14:46:56.088363 25555 net.cpp:122] Setting up relu6
I0511 14:46:56.088371 25555 net.cpp:129] Top shape: 224 4096 (917504)
I0511 14:46:56.088373 25555 net.cpp:137] Memory required for data: 1499603840
I0511 14:46:56.088376 25555 layer_factory.hpp:77] Creating layer drop6
I0511 14:46:56.088380 25555 net.cpp:84] Creating Layer drop6
I0511 14:46:56.088382 25555 net.cpp:406] drop6 <- fc6
I0511 14:46:56.088384 25555 net.cpp:367] drop6 -> fc6 (in-place)
I0511 14:46:56.088410 25555 net.cpp:122] Setting up drop6
I0511 14:46:56.088414 25555 net.cpp:129] Top shape: 224 4096 (917504)
I0511 14:46:56.088416 25555 net.cpp:137] Memory required for data: 1503273856
I0511 14:46:56.088418 25555 layer_factory.hpp:77] Creating layer fc7
I0511 14:46:56.088423 25555 net.cpp:84] Creating Layer fc7
I0511 14:46:56.088424 25555 net.cpp:406] fc7 <- fc6
I0511 14:46:56.088428 25555 net.cpp:380] fc7 -> fc7
I0511 14:46:56.200927 25555 net.cpp:122] Setting up fc7
I0511 14:46:56.200945 25555 net.cpp:129] Top shape: 224 4096 (917504)
I0511 14:46:56.200947 25555 net.cpp:137] Memory required for data: 1506943872
I0511 14:46:56.200953 25555 layer_factory.hpp:77] Creating layer relu7
I0511 14:46:56.200960 25555 net.cpp:84] Creating Layer relu7
I0511 14:46:56.200963 25555 net.cpp:406] relu7 <- fc7
I0511 14:46:56.200966 25555 net.cpp:367] relu7 -> fc7 (in-place)
I0511 14:46:56.201108 25555 net.cpp:122] Setting up relu7
I0511 14:46:56.201113 25555 net.cpp:129] Top shape: 224 4096 (917504)
I0511 14:46:56.201115 25555 net.cpp:137] Memory required for data: 1510613888
I0511 14:46:56.201117 25555 layer_factory.hpp:77] Creating layer drop7
I0511 14:46:56.201122 25555 net.cpp:84] Creating Layer drop7
I0511 14:46:56.201123 25555 net.cpp:406] drop7 <- fc7
I0511 14:46:56.201126 25555 net.cpp:367] drop7 -> fc7 (in-place)
I0511 14:46:56.201146 25555 net.cpp:122] Setting up drop7
I0511 14:46:56.201149 25555 net.cpp:129] Top shape: 224 4096 (917504)
I0511 14:46:56.201151 25555 net.cpp:137] Memory required for data: 1514283904
I0511 14:46:56.201164 25555 layer_factory.hpp:77] Creating layer fc8
I0511 14:46:56.201169 25555 net.cpp:84] Creating Layer fc8
I0511 14:46:56.201170 25555 net.cpp:406] fc8 <- fc7
I0511 14:46:56.201172 25555 net.cpp:380] fc8 -> fc8
I0511 14:46:56.202857 25555 net.cpp:122] Setting up fc8
I0511 14:46:56.202865 25555 net.cpp:129] Top shape: 224 43 (9632)
I0511 14:46:56.202867 25555 net.cpp:137] Memory required for data: 1514322432
I0511 14:46:56.202872 25555 layer_factory.hpp:77] Creating layer loss
I0511 14:46:56.202875 25555 net.cpp:84] Creating Layer loss
I0511 14:46:56.202877 25555 net.cpp:406] loss <- fc8
I0511 14:46:56.202879 25555 net.cpp:406] loss <- label
I0511 14:46:56.202884 25555 net.cpp:380] loss -> loss
I0511 14:46:56.202893 25555 layer_factory.hpp:77] Creating layer loss
…
I0511 14:46:56.203850 25555 net.cpp:294] The NetState phase (1) differed from the phase (0) specified by a rule in layer data
I0511 14:46:56.203955 25555 net.cpp:51] Initializing net from parameters: 
name: "CaffeNet"
state {
  phase: TEST
}
layer {
  name: "data"
  type: "Data"
  top: "data"
  top: "label"
  include {
    phase: TEST
  }
  transform_param {
    mirror: false
    crop_size: 224
    mean_file: "/home/user1/GTSRB/input/mean_224.binaryproto"
  }
  data_param {
    source: "/home/user1/GTSRB/input/validation_lmdb_224"
    batch_size: 50
    backend: LMDB
  }
}
layer {
  name: "conv1"
  type: "Convolution"
  bottom: "data"
  top: "conv1"
  param {
    lr_mult: 1
    decay_mult: 1
  }
  param {
    lr_mult: 2
    decay_mult: 0
  }
  convolution_param {
    num_output: 96
    kernel_size: 11
    stride: 4
    weight_filler {
      type: "gaussian"
      std: 0.01
    }
    bias_filler {
      type: "constant"
      value: 0
    }
  }
}
layer {
  name: "relu1"
  type: "ReLU"
  bottom: "conv1"
  top: "conv1"
}
layer {
  name: "pool1"
  type: "Pooling"
  bottom: "conv1"
  top: "pool1"
  pooling_param {
    pool: MAX
    kernel_size: 3
    stride: 2
  }
}
layer {
  name: "norm1"
  type: "LRN"
  bottom: "pool1"
  top: "norm1"
  lrn_param {
    local_size: 5
    alpha: 0.0001
    beta: 0.75
  }
}
layer {
  name: "conv2"
  type: "Convolution"
  bottom: "norm1"
  top: "conv2"
  param {
    lr_mult: 1
    decay_mult: 1
  }
  param {
    lr_mult: 2
    decay_mult: 0
  }
  convolution_param {
    num_output: 256
    pad: 2
    kernel_size: 5
    group: 2
    weight_filler {
      type: "gaussian"
      std: 0.01
    }
    bias_filler {
      type: "constant"
      value: 1
    }
  }
}
layer {
  name: "relu2"
  type: "ReLU"
  bottom: "conv2"
  top: "conv2"
}
layer {
  name: "pool2"
  type: "Pooling"
  bottom: "conv2"
  top: "pool2"
  pooling_param {
    pool: MAX
    kernel_size: 3
    stride: 2
  }
}
layer {
  name: "norm2"
  type: "LRN"
  bottom: "pool2"
  top: "norm2"
  lrn_param {
    local_size: 5
    alpha: 0.0001
    beta: 0.75
  }
}
layer {
  name: "conv3"
  type: "Convolution"
  bottom: "norm2"
  top: "conv3"
  param {
    lr_mult: 1
    decay_mult: 1
  }
  param {
    lr_mult: 2
    decay_mult: 0
  }
  convolution_param {
    num_output: 384
    pad: 1
    kernel_size: 3
    weight_filler {
      type: "gaussian"
      std: 0.01
    }
    bias_filler {
      type: "constant"
      value: 0
    }
  }
}
layer {
  name: "relu3"
  type: "ReLU"
  bottom: "conv3"
  top: "conv3"
}
layer {
  name: "conv4"
  type: "Convolution"
  bottom: "conv3"
  top: "conv4"
  param {
    lr_mult: 1
    decay_mult: 1
  }
  param {
    lr_mult: 2
    decay_mult: 0
  }
  convolution_param {
    num_output: 384
    pad: 1
    kernel_size: 3
    group: 2
    weight_filler {
      type: "gaussian"
      std: 0.01
    }
    bias_filler {
      type: "constant"
      value: 1
    }
  }
}
layer {
  name: "relu4"
  type: "ReLU"
  bottom: "conv4"
  top: "conv4"
}
layer {
  name: "conv5"
  type: "Convolution"
  bottom: "conv4"
  top: "conv5"
  param {
    lr_mult: 1
    decay_mult: 1
  }
  param {
    lr_mult: 2
    decay_mult: 0
  }
  convolution_param {
    num_output: 256
    pad: 1
    kernel_size: 3
    group: 2
    weight_filler {
      type: "gaussian"
      std: 0.01
    }
    bias_filler {
      type: "constant"
      value: 1
    }
  }
}
layer {
  name: "relu5"
  type: "ReLU"
  bottom: "conv5"
  top: "conv5"
}
layer {
  name: "pool5"
  type: "Pooling"
  bottom: "conv5"
  top: "pool5"
  pooling_param {
    pool: MAX
    kernel_size: 3
    stride: 2
  }
}
layer {
  name: "fc6"
  type: "InnerProduct"
  bottom: "pool5"
  top: "fc6"
  param {
    lr_mult: 1
    decay_mult: 1
  }
  param {
    lr_mult: 2
    decay_mult: 0
  }
  inner_product_param {
    num_output: 4096
    weight_filler {
      type: "gaussian"
      std: 0.005
    }
    bias_filler {
      type: "constant"
      value: 1
    }
  }
}
layer {
  name: "relu6"
  type: "ReLU"
  bottom: "fc6"
  top: "fc6"
}
layer {
  name: "drop6"
  type: "Dropout"
  bottom: "fc6"
  top: "fc6"
  dropout_param {
    dropout_ratio: 0.5
  }
}
layer {
  name: "fc7"
  type: "InnerProduct"
  bottom: "fc6"
  top: "fc7"
  param {
    lr_mult: 1
    decay_mult: 1
  }
  param {
    lr_mult: 2
    decay_mult: 0
  }
  inner_product_param {
    num_output: 4096
    weight_filler {
      type: "gaussian"
      std: 0.005
    }
    bias_filler {
      type: "constant"
      value: 1
    }
  }
}
layer {
  name: "relu7"
  type: "ReLU"
  bottom: "fc7"
  top: "fc7"
}
layer {
  name: "drop7"
  type: "Dropout"
  bottom: "fc7"
  top: "fc7"
  dropout_param {
    dropout_ratio: 0.5
  }
}
layer {
  name: "fc8"
  type: "InnerProduct"
  bottom: "fc7"
  top: "fc8"
  param {
    lr_mult: 1
    decay_mult: 1
  }
  param {
    lr_mult: 2
    decay_mult: 0
  }
  inner_product_param {
    num_output: 43
    weight_filler {
      type: "gaussian"
      std: 0.01
    }
    bias_filler {
      type: "constant"
      value: 0
    }
  }
}
layer {
  name: "accuracy"
  type: "Accuracy"
  bottom: "fc8"
  bottom: "label"
  top: "accuracy"
  include {
    phase: TEST
  }
}
layer {
  name: "loss"
  type: "SoftmaxWithLoss"
  bottom: "fc8"
  bottom: "label"
  top: "loss"
}
I0511 14:46:56.204022 25555 layer_factory.hpp:77] Creating layer data
I0511 14:46:56.204061 25555 db_lmdb.cpp:35] Opened lmdb /home/user1/GTSRB/input/validation_lmdb_224
I0511 14:46:56.204071 25555 net.cpp:84] Creating Layer data
I0511 14:46:56.204074 25555 net.cpp:380] data -> data
I0511 14:46:56.204079 25555 net.cpp:380] data -> label
I0511 14:46:56.204084 25555 data_transformer.cpp:25] Loading mean file from: /home/user1/GTSRB/input/mean_224.binaryproto
I0511 14:46:56.204907 25555 data_layer.cpp:45] output data size: 50,3,224,224
I0511 14:46:56.240514 25555 net.cpp:122] Setting up data
I0511 14:46:56.240533 25555 net.cpp:129] Top shape: 50 3 224 224 (7526400)
I0511 14:46:56.240536 25555 net.cpp:129] Top shape: 50 (50)
I0511 14:46:56.240538 25555 net.cpp:137] Memory required for data: 30105800
I0511 14:46:56.240542 25555 layer_factory.hpp:77] Creating layer label_data_1_split
I0511 14:46:56.240551 25555 net.cpp:84] Creating Layer label_data_1_split
I0511 14:46:56.240553 25555 net.cpp:406] label_data_1_split <- label
I0511 14:46:56.240558 25555 net.cpp:380] label_data_1_split -> label_data_1_split_0
I0511 14:46:56.240564 25555 net.cpp:380] label_data_1_split -> label_data_1_split_1
I0511 14:46:56.240607 25555 net.cpp:122] Setting up label_data_1_split
I0511 14:46:56.240610 25555 net.cpp:129] Top shape: 50 (50)
I0511 14:46:56.240613 25555 net.cpp:129] Top shape: 50 (50)
I0511 14:46:56.240615 25555 net.cpp:137] Memory required for data: 30106200
I0511 14:46:56.240617 25555 layer_factory.hpp:77] Creating layer conv1
I0511 14:46:56.240624 25555 net.cpp:84] Creating Layer conv1
I0511 14:46:56.240627 25555 net.cpp:406] conv1 <- data
I0511 14:46:56.240629 25555 net.cpp:380] conv1 -> conv1
I0511 14:46:56.244138 25555 net.cpp:122] Setting up conv1
I0511 14:46:56.244148 25555 net.cpp:129] Top shape: 50 96 54 54 (13996800)
I0511 14:46:56.244149 25555 net.cpp:137] Memory required for data: 86093400
I0511 14:46:56.244156 25555 layer_factory.hpp:77] Creating layer relu1
I0511 14:46:56.244160 25555 net.cpp:84] Creating Layer relu1
I0511 14:46:56.244163 25555 net.cpp:406] relu1 <- conv1
I0511 14:46:56.244166 25555 net.cpp:367] relu1 -> conv1 (in-place)
I0511 14:46:56.244267 25555 net.cpp:122] Setting up relu1
I0511 14:46:56.244272 25555 net.cpp:129] Top shape: 50 96 54 54 (13996800)
I0511 14:46:56.244274 25555 net.cpp:137] Memory required for data: 142080600
I0511 14:46:56.244277 25555 layer_factory.hpp:77] Creating layer pool1
I0511 14:46:56.244282 25555 net.cpp:84] Creating Layer pool1
I0511 14:46:56.244284 25555 net.cpp:406] pool1 <- conv1
I0511 14:46:56.244287 25555 net.cpp:380] pool1 -> pool1
I0511 14:46:56.244315 25555 net.cpp:122] Setting up pool1
I0511 14:46:56.244318 25555 net.cpp:129] Top shape: 50 96 27 27 (3499200)
I0511 14:46:56.244320 25555 net.cpp:137] Memory required for data: 156077400
I0511 14:46:56.244323 25555 layer_factory.hpp:77] Creating layer norm1
I0511 14:46:56.244326 25555 net.cpp:84] Creating Layer norm1
I0511 14:46:56.244328 25555 net.cpp:406] norm1 <- pool1
I0511 14:46:56.244330 25555 net.cpp:380] norm1 -> norm1
I0511 14:46:56.244879 25555 net.cpp:122] Setting up norm1
I0511 14:46:56.244887 25555 net.cpp:129] Top shape: 50 96 27 27 (3499200)
I0511 14:46:56.244889 25555 net.cpp:137] Memory required for data: 170074200
I0511 14:46:56.244891 25555 layer_factory.hpp:77] Creating layer conv2
I0511 14:46:56.244896 25555 net.cpp:84] Creating Layer conv2
I0511 14:46:56.244899 25555 net.cpp:406] conv2 <- norm1
I0511 14:46:56.244902 25555 net.cpp:380] conv2 -> conv2
I0511 14:46:56.248637 25555 net.cpp:122] Setting up conv2
I0511 14:46:56.248648 25555 net.cpp:129] Top shape: 50 256 27 27 (9331200)
I0511 14:46:56.248651 25555 net.cpp:137] Memory required for data: 207399000
I0511 14:46:56.248656 25555 layer_factory.hpp:77] Creating layer relu2
I0511 14:46:56.248661 25555 net.cpp:84] Creating Layer relu2
I0511 14:46:56.248673 25555 net.cpp:406] relu2 <- conv2
I0511 14:46:56.248677 25555 net.cpp:367] relu2 -> conv2 (in-place)
I0511 14:46:56.249280 25555 net.cpp:122] Setting up relu2
I0511 14:46:56.249289 25555 net.cpp:129] Top shape: 50 256 27 27 (9331200)
I0511 14:46:56.249290 25555 net.cpp:137] Memory required for data: 244723800
I0511 14:46:56.249294 25555 layer_factory.hpp:77] Creating layer pool2
I0511 14:46:56.249297 25555 net.cpp:84] Creating Layer pool2
I0511 14:46:56.249300 25555 net.cpp:406] pool2 <- conv2
I0511 14:46:56.249303 25555 net.cpp:380] pool2 -> pool2
I0511 14:46:56.249333 25555 net.cpp:122] Setting up pool2
I0511 14:46:56.249338 25555 net.cpp:129] Top shape: 50 256 13 13 (2163200)
I0511 14:46:56.249339 25555 net.cpp:137] Memory required for data: 253376600
I0511 14:46:56.249341 25555 layer_factory.hpp:77] Creating layer norm2
I0511 14:46:56.249346 25555 net.cpp:84] Creating Layer norm2
I0511 14:46:56.249347 25555 net.cpp:406] norm2 <- pool2
I0511 14:46:56.249349 25555 net.cpp:380] norm2 -> norm2
I0511 14:46:56.249471 25555 net.cpp:122] Setting up norm2
I0511 14:46:56.249476 25555 net.cpp:129] Top shape: 50 256 13 13 (2163200)
I0511 14:46:56.249478 25555 net.cpp:137] Memory required for data: 262029400
I0511 14:46:56.249480 25555 layer_factory.hpp:77] Creating layer conv3
I0511 14:46:56.249485 25555 net.cpp:84] Creating Layer conv3
I0511 14:46:56.249487 25555 net.cpp:406] conv3 <- norm2
I0511 14:46:56.249491 25555 net.cpp:380] conv3 -> conv3
I0511 14:46:56.257218 25555 net.cpp:122] Setting up conv3
I0511 14:46:56.257237 25555 net.cpp:129] Top shape: 50 384 13 13 (3244800)
I0511 14:46:56.257241 25555 net.cpp:137] Memory required for data: 275008600
I0511 14:46:56.257248 25555 layer_factory.hpp:77] Creating layer relu3
I0511 14:46:56.257253 25555 net.cpp:84] Creating Layer relu3
I0511 14:46:56.257256 25555 net.cpp:406] relu3 <- conv3
I0511 14:46:56.257261 25555 net.cpp:367] relu3 -> conv3 (in-place)
I0511 14:46:56.257385 25555 net.cpp:122] Setting up relu3
I0511 14:46:56.257390 25555 net.cpp:129] Top shape: 50 384 13 13 (3244800)
I0511 14:46:56.257391 25555 net.cpp:137] Memory required for data: 287987800
I0511 14:46:56.257393 25555 layer_factory.hpp:77] Creating layer conv4
I0511 14:46:56.257400 25555 net.cpp:84] Creating Layer conv4
I0511 14:46:56.257401 25555 net.cpp:406] conv4 <- conv3
I0511 14:46:56.257405 25555 net.cpp:380] conv4 -> conv4
I0511 14:46:56.267992 25555 net.cpp:122] Setting up conv4
I0511 14:46:56.268009 25555 net.cpp:129] Top shape: 50 384 13 13 (3244800)
I0511 14:46:56.268013 25555 net.cpp:137] Memory required for data: 300967000
I0511 14:46:56.268018 25555 layer_factory.hpp:77] Creating layer relu4
I0511 14:46:56.268025 25555 net.cpp:84] Creating Layer relu4
I0511 14:46:56.268028 25555 net.cpp:406] relu4 <- conv4
I0511 14:46:56.268033 25555 net.cpp:367] relu4 -> conv4 (in-place)
I0511 14:46:56.268160 25555 net.cpp:122] Setting up relu4
I0511 14:46:56.268167 25555 net.cpp:129] Top shape: 50 384 13 13 (3244800)
I0511 14:46:56.268168 25555 net.cpp:137] Memory required for data: 313946200
I0511 14:46:56.268170 25555 layer_factory.hpp:77] Creating layer conv5
I0511 14:46:56.268177 25555 net.cpp:84] Creating Layer conv5
I0511 14:46:56.268179 25555 net.cpp:406] conv5 <- conv4
I0511 14:46:56.268183 25555 net.cpp:380] conv5 -> conv5
I0511 14:46:56.275638 25555 net.cpp:122] Setting up conv5
I0511 14:46:56.275648 25555 net.cpp:129] Top shape: 50 256 13 13 (2163200)
I0511 14:46:56.275651 25555 net.cpp:137] Memory required for data: 322599000
I0511 14:46:56.275658 25555 layer_factory.hpp:77] Creating layer relu5
I0511 14:46:56.275663 25555 net.cpp:84] Creating Layer relu5
I0511 14:46:56.275665 25555 net.cpp:406] relu5 <- conv5
I0511 14:46:56.275668 25555 net.cpp:367] relu5 -> conv5 (in-place)
I0511 14:46:56.278071 25555 net.cpp:122] Setting up relu5
I0511 14:46:56.278082 25555 net.cpp:129] Top shape: 50 256 13 13 (2163200)
I0511 14:46:56.278084 25555 net.cpp:137] Memory required for data: 331251800
I0511 14:46:56.278087 25555 layer_factory.hpp:77] Creating layer pool5
I0511 14:46:56.278095 25555 net.cpp:84] Creating Layer pool5
I0511 14:46:56.278108 25555 net.cpp:406] pool5 <- conv5
I0511 14:46:56.278112 25555 net.cpp:380] pool5 -> pool5
I0511 14:46:56.278147 25555 net.cpp:122] Setting up pool5
I0511 14:46:56.278152 25555 net.cpp:129] Top shape: 50 256 6 6 (460800)
I0511 14:46:56.278154 25555 net.cpp:137] Memory required for data: 333095000
I0511 14:46:56.278156 25555 layer_factory.hpp:77] Creating layer fc6
I0511 14:46:56.278161 25555 net.cpp:84] Creating Layer fc6
I0511 14:46:56.278162 25555 net.cpp:406] fc6 <- pool5
I0511 14:46:56.278165 25555 net.cpp:380] fc6 -> fc6
I0511 14:46:56.532125 25555 net.cpp:122] Setting up fc6
I0511 14:46:56.532143 25555 net.cpp:129] Top shape: 50 4096 (204800)
I0511 14:46:56.532146 25555 net.cpp:137] Memory required for data: 333914200
I0511 14:46:56.532151 25555 layer_factory.hpp:77] Creating layer relu6
I0511 14:46:56.532157 25555 net.cpp:84] Creating Layer relu6
I0511 14:46:56.532160 25555 net.cpp:406] relu6 <- fc6
I0511 14:46:56.532165 25555 net.cpp:367] relu6 -> fc6 (in-place)
I0511 14:46:56.532315 25555 net.cpp:122] Setting up relu6
I0511 14:46:56.532321 25555 net.cpp:129] Top shape: 50 4096 (204800)
I0511 14:46:56.532323 25555 net.cpp:137] Memory required for data: 334733400
I0511 14:46:56.532325 25555 layer_factory.hpp:77] Creating layer drop6
I0511 14:46:56.532328 25555 net.cpp:84] Creating Layer drop6
I0511 14:46:56.532330 25555 net.cpp:406] drop6 <- fc6
I0511 14:46:56.532333 25555 net.cpp:367] drop6 -> fc6 (in-place)
I0511 14:46:56.532352 25555 net.cpp:122] Setting up drop6
I0511 14:46:56.532356 25555 net.cpp:129] Top shape: 50 4096 (204800)
I0511 14:46:56.532357 25555 net.cpp:137] Memory required for data: 335552600
I0511 14:46:56.532359 25555 layer_factory.hpp:77] Creating layer fc7
I0511 14:46:56.532363 25555 net.cpp:84] Creating Layer fc7
I0511 14:46:56.532366 25555 net.cpp:406] fc7 <- fc6
I0511 14:46:56.532369 25555 net.cpp:380] fc7 -> fc7
I0511 14:46:56.645311 25555 net.cpp:122] Setting up fc7
I0511 14:46:56.645329 25555 net.cpp:129] Top shape: 50 4096 (204800)
I0511 14:46:56.645331 25555 net.cpp:137] Memory required for data: 336371800
I0511 14:46:56.645337 25555 layer_factory.hpp:77] Creating layer relu7
I0511 14:46:56.645344 25555 net.cpp:84] Creating Layer relu7
I0511 14:46:56.645345 25555 net.cpp:406] relu7 <- fc7
I0511 14:46:56.645349 25555 net.cpp:367] relu7 -> fc7 (in-place)
I0511 14:46:56.646052 25555 net.cpp:122] Setting up relu7
I0511 14:46:56.646061 25555 net.cpp:129] Top shape: 50 4096 (204800)
I0511 14:46:56.646062 25555 net.cpp:137] Memory required for data: 337191000
I0511 14:46:56.646064 25555 layer_factory.hpp:77] Creating layer drop7
I0511 14:46:56.646069 25555 net.cpp:84] Creating Layer drop7
I0511 14:46:56.646071 25555 net.cpp:406] drop7 <- fc7
I0511 14:46:56.646073 25555 net.cpp:367] drop7 -> fc7 (in-place)
I0511 14:46:56.646095 25555 net.cpp:122] Setting up drop7
I0511 14:46:56.646100 25555 net.cpp:129] Top shape: 50 4096 (204800)
I0511 14:46:56.646101 25555 net.cpp:137] Memory required for data: 338010200
I0511 14:46:56.646103 25555 layer_factory.hpp:77] Creating layer fc8
I0511 14:46:56.646107 25555 net.cpp:84] Creating Layer fc8
I0511 14:46:56.646109 25555 net.cpp:406] fc8 <- fc7
I0511 14:46:56.646113 25555 net.cpp:380] fc8 -> fc8
I0511 14:46:56.647254 25555 net.cpp:122] Setting up fc8
I0511 14:46:56.647259 25555 net.cpp:129] Top shape: 50 43 (2150)
I0511 14:46:56.647260 25555 net.cpp:137] Memory required for data: 338018800
I0511 14:46:56.647264 25555 layer_factory.hpp:77] Creating layer fc8_fc8_0_split
I0511 14:46:56.647269 25555 net.cpp:84] Creating Layer fc8_fc8_0_split
I0511 14:46:56.647269 25555 net.cpp:406] fc8_fc8_0_split <- fc8
I0511 14:46:56.647272 25555 net.cpp:380] fc8_fc8_0_split -> fc8_fc8_0_split_0
I0511 14:46:56.647276 25555 net.cpp:380] fc8_fc8_0_split -> fc8_fc8_0_split_1
I0511 14:46:56.647300 25555 net.cpp:122] Setting up fc8_fc8_0_split
I0511 14:46:56.647305 25555 net.cpp:129] Top shape: 50 43 (2150)
I0511 14:46:56.647306 25555 net.cpp:129] Top shape: 50 43 (2150)
I0511 14:46:56.647307 25555 net.cpp:137] Memory required for data: 338036000
I0511 14:46:56.647320 25555 layer_factory.hpp:77] Creating layer accuracy
I0511 14:46:56.647323 25555 net.cpp:84] Creating Layer accuracy
I0511 14:46:56.647326 25555 net.cpp:406] accuracy <- fc8_fc8_0_split_0
I0511 14:46:56.647330 25555 net.cpp:406] accuracy <- label_data_1_split_0
I0511 14:46:56.647333 25555 net.cpp:380] accuracy -> accuracy
…
