…
I0410 16:21:41.365938 26653 net.cpp:294] The NetState phase (0) differed from the phase (1) specified by a rule in layer accuracy
I0410 16:21:41.366051 26653 net.cpp:51] Initializing net from parameters: 
name: "CaffeNet"
state {
  phase: TRAIN
  level: 0
  stage: ""
}
layer {
  name: "data"
  type: "Data"
  top: "data"
  top: "label"
  include {
    phase: TRAIN
  }
  transform_param {
    mirror: true
    crop_size: 250
    mean_file: "/home/user1/GTSRB/input/mean.binaryproto"
  }
  data_param {
    source: "/home/user1/GTSRB/input/train_lmdb"
    batch_size: 256
    backend: LMDB
  }
}
layer {
  name: "conv1"
  type: "Convolution"
  bottom: "data"
  top: "conv1"
  param {
    lr_mult: 1
    decay_mult: 1
  }
  param {
    lr_mult: 2
    decay_mult: 0
  }
  convolution_param {
    num_output: 96
    kernel_size: 11
    stride: 4
    weight_filler {
      type: "gaussian"
      std: 0.01
    }
    bias_filler {
      type: "constant"
      value: 0
    }
  }
}
layer {
  name: "relu1"
  type: "ReLU"
  bottom: "conv1"
  top: "conv1"
}
layer {
  name: "pool1"
  type: "Pooling"
  bottom: "conv1"
  top: "pool1"
  pooling_param {
    pool: MAX
    kernel_size: 3
    stride: 2
  }
}
layer {
  name: "norm1"
  type: "LRN"
  bottom: "pool1"
  top: "norm1"
  lrn_param {
    local_size: 5
    alpha: 0.0001
    beta: 0.75
  }
}
layer {
  name: "conv2"
  type: "Convolution"
  bottom: "norm1"
  top: "conv2"
  param {
    lr_mult: 1
    decay_mult: 1
  }
  param {
    lr_mult: 2
    decay_mult: 0
  }
  convolution_param {
    num_output: 256
    pad: 2
    kernel_size: 5
    group: 2
    weight_filler {
      type: "gaussian"
      std: 0.01
    }
    bias_filler {
      type: "constant"
      value: 1
    }
  }
}
layer {
  name: "relu2"
  type: "ReLU"
  bottom: "conv2"
  top: "conv2"
}
layer {
  name: "pool2"
  type: "Pooling"
  bottom: "conv2"
  top: "pool2"
  pooling_param {
    pool: MAX
    kernel_size: 3
    stride: 2
  }
}
layer {
  name: "norm2"
  type: "LRN"
  bottom: "pool2"
  top: "norm2"
  lrn_param {
    local_size: 5
    alpha: 0.0001
    beta: 0.75
  }
}
layer {
  name: "conv3"
  type: "Convolution"
  bottom: "norm2"
  top: "conv3"
  param {
    lr_mult: 1
    decay_mult: 1
  }
  param {
    lr_mult: 2
    decay_mult: 0
  }
  convolution_param {
    num_output: 384
    pad: 1
    kernel_size: 3
    weight_filler {
      type: "gaussian"
      std: 0.01
    }
    bias_filler {
      type: "constant"
      value: 0
    }
  }
}
layer {
  name: "relu3"
  type: "ReLU"
  bottom: "conv3"
  top: "conv3"
}
layer {
  name: "conv4"
  type: "Convolution"
  bottom: "conv3"
  top: "conv4"
  param {
    lr_mult: 1
    decay_mult: 1
  }
  param {
    lr_mult: 2
    decay_mult: 0
  }
  convolution_param {
    num_output: 384
    pad: 1
    kernel_size: 3
    group: 2
    weight_filler {
      type: "gaussian"
      std: 0.01
    }
    bias_filler {
      type: "constant"
      value: 1
    }
  }
}
layer {
  name: "relu4"
  type: "ReLU"
  bottom: "conv4"
  top: "conv4"
}
layer {
  name: "conv5"
  type: "Convolution"
  bottom: "conv4"
  top: "conv5"
  param {
    lr_mult: 1
    decay_mult: 1
  }
  param {
    lr_mult: 2
    decay_mult: 0
  }
  convolution_param {
    num_output: 256
    pad: 1
    kernel_size: 3
    group: 2
    weight_filler {
      type: "gaussian"
      std: 0.01
    }
    bias_filler {
      type: "constant"
      value: 1
    }
  }
}
layer {
  name: "relu5"
  type: "ReLU"
  bottom: "conv5"
  top: "conv5"
}
layer {
  name: "pool5"
  type: "Pooling"
  bottom: "conv5"
  top: "pool5"
  pooling_param {
    pool: MAX
    kernel_size: 3
    stride: 2
  }
}
layer {
  name: "fc6"
  type: "InnerProduct"
  bottom: "pool5"
  top: "fc6"
  param {
    lr_mult: 1
    decay_mult: 1
  }
  param {
    lr_mult: 2
    decay_mult: 0
  }
  inner_product_param {
    num_output: 4096
    weight_filler {
      type: "gaussian"
      std: 0.005
    }
    bias_filler {
      type: "constant"
      value: 1
    }
  }
}
layer {
  name: "relu6"
  type: "ReLU"
  bottom: "fc6"
  top: "fc6"
}
layer {
  name: "drop6"
  type: "Dropout"
  bottom: "fc6"
  top: "fc6"
  dropout_param {
    dropout_ratio: 0.5
  }
}
layer {
  name: "fc7"
  type: "InnerProduct"
  bottom: "fc6"
  top: "fc7"
  param {
    lr_mult: 1
    decay_mult: 1
  }
  param {
    lr_mult: 2
    decay_mult: 0
  }
  inner_product_param {
    num_output: 4096
    weight_filler {
      type: "gaussian"
      std: 0.005
    }
    bias_filler {
      type: "constant"
      value: 1
    }
  }
}
layer {
  name: "relu7"
  type: "ReLU"
  bottom: "fc7"
  top: "fc7"
}
layer {
  name: "drop7"
  type: "Dropout"
  bottom: "fc7"
  top: "fc7"
  dropout_param {
    dropout_ratio: 0.5
  }
}
layer {
  name: "fc8"
  type: "InnerProduct"
  bottom: "fc7"
  top: "fc8"
  param {
    lr_mult: 1
    decay_mult: 1
  }
  param {
    lr_mult: 2
    decay_mult: 0
  }
  inner_product_param {
    num_output: 42
    weight_filler {
      type: "gaussian"
      std: 0.01
    }
    bias_filler {
      type: "constant"
      value: 0
    }
  }
}
layer {
  name: "loss"
  type: "SoftmaxWithLoss"
  bottom: "fc8"
  bottom: "label"
  top: "loss"
}
I0410 16:21:41.366117 26653 layer_factory.hpp:77] Creating layer data
I0410 16:21:41.366194 26653 db_lmdb.cpp:35] Opened lmdb /home/user1/GTSRB/input/train_lmdb
I0410 16:21:41.366214 26653 net.cpp:84] Creating Layer data
I0410 16:21:41.366220 26653 net.cpp:380] data -> data
I0410 16:21:41.366235 26653 net.cpp:380] data -> label
I0410 16:21:41.366243 26653 data_transformer.cpp:25] Loading mean file from: /home/user1/GTSRB/input/mean.binaryproto
I0410 16:21:41.368332 26653 data_layer.cpp:45] output data size: 256,3,250,250
I0410 16:21:41.573916 26653 net.cpp:122] Setting up data
I0410 16:21:41.573933 26653 net.cpp:129] Top shape: 256 3 250 250 (48000000)
I0410 16:21:41.573936 26653 net.cpp:129] Top shape: 256 (256)
I0410 16:21:41.573938 26653 net.cpp:137] Memory required for data: 192001024
I0410 16:21:41.573945 26653 layer_factory.hpp:77] Creating layer conv1
I0410 16:21:41.573958 26653 net.cpp:84] Creating Layer conv1
I0410 16:21:41.573962 26653 net.cpp:406] conv1 <- data
I0410 16:21:41.573971 26653 net.cpp:380] conv1 -> conv1
I0410 16:21:41.851205 26653 net.cpp:122] Setting up conv1
I0410 16:21:41.851222 26653 net.cpp:129] Top shape: 256 96 60 60 (88473600)
I0410 16:21:41.851225 26653 net.cpp:137] Memory required for data: 545895424
I0410 16:21:41.851241 26653 layer_factory.hpp:77] Creating layer relu1
I0410 16:21:41.851249 26653 net.cpp:84] Creating Layer relu1
I0410 16:21:41.851251 26653 net.cpp:406] relu1 <- conv1
I0410 16:21:41.851255 26653 net.cpp:367] relu1 -> conv1 (in-place)
I0410 16:21:41.851392 26653 net.cpp:122] Setting up relu1
I0410 16:21:41.851398 26653 net.cpp:129] Top shape: 256 96 60 60 (88473600)
I0410 16:21:41.851400 26653 net.cpp:137] Memory required for data: 899789824
I0410 16:21:41.851402 26653 layer_factory.hpp:77] Creating layer pool1
I0410 16:21:41.851407 26653 net.cpp:84] Creating Layer pool1
I0410 16:21:41.851408 26653 net.cpp:406] pool1 <- conv1
I0410 16:21:41.851411 26653 net.cpp:380] pool1 -> pool1
I0410 16:21:41.851450 26653 net.cpp:122] Setting up pool1
I0410 16:21:41.851455 26653 net.cpp:129] Top shape: 256 96 30 30 (22118400)
I0410 16:21:41.851457 26653 net.cpp:137] Memory required for data: 988263424
I0410 16:21:41.851459 26653 layer_factory.hpp:77] Creating layer norm1
I0410 16:21:41.851464 26653 net.cpp:84] Creating Layer norm1
I0410 16:21:41.851477 26653 net.cpp:406] norm1 <- pool1
I0410 16:21:41.851481 26653 net.cpp:380] norm1 -> norm1
I0410 16:21:41.852068 26653 net.cpp:122] Setting up norm1
I0410 16:21:41.852077 26653 net.cpp:129] Top shape: 256 96 30 30 (22118400)
I0410 16:21:41.852078 26653 net.cpp:137] Memory required for data: 1076737024
I0410 16:21:41.852080 26653 layer_factory.hpp:77] Creating layer conv2
I0410 16:21:41.852088 26653 net.cpp:84] Creating Layer conv2
I0410 16:21:41.852090 26653 net.cpp:406] conv2 <- norm1
I0410 16:21:41.852093 26653 net.cpp:380] conv2 -> conv2
I0410 16:21:41.855677 26653 net.cpp:122] Setting up conv2
I0410 16:21:41.855690 26653 net.cpp:129] Top shape: 256 256 30 30 (58982400)
I0410 16:21:41.855691 26653 net.cpp:137] Memory required for data: 1312666624
I0410 16:21:41.855698 26653 layer_factory.hpp:77] Creating layer relu2
I0410 16:21:41.855703 26653 net.cpp:84] Creating Layer relu2
I0410 16:21:41.855705 26653 net.cpp:406] relu2 <- conv2
I0410 16:21:41.855708 26653 net.cpp:367] relu2 -> conv2 (in-place)
I0410 16:21:41.856286 26653 net.cpp:122] Setting up relu2
I0410 16:21:41.856293 26653 net.cpp:129] Top shape: 256 256 30 30 (58982400)
I0410 16:21:41.856295 26653 net.cpp:137] Memory required for data: 1548596224
I0410 16:21:41.856297 26653 layer_factory.hpp:77] Creating layer pool2
I0410 16:21:41.856302 26653 net.cpp:84] Creating Layer pool2
I0410 16:21:41.856303 26653 net.cpp:406] pool2 <- conv2
I0410 16:21:41.856307 26653 net.cpp:380] pool2 -> pool2
I0410 16:21:41.856333 26653 net.cpp:122] Setting up pool2
I0410 16:21:41.856338 26653 net.cpp:129] Top shape: 256 256 15 15 (14745600)
I0410 16:21:41.856340 26653 net.cpp:137] Memory required for data: 1607578624
I0410 16:21:41.856341 26653 layer_factory.hpp:77] Creating layer norm2
I0410 16:21:41.856348 26653 net.cpp:84] Creating Layer norm2
I0410 16:21:41.856350 26653 net.cpp:406] norm2 <- pool2
I0410 16:21:41.856353 26653 net.cpp:380] norm2 -> norm2
I0410 16:21:41.856468 26653 net.cpp:122] Setting up norm2
I0410 16:21:41.856473 26653 net.cpp:129] Top shape: 256 256 15 15 (14745600)
I0410 16:21:41.856475 26653 net.cpp:137] Memory required for data: 1666561024
I0410 16:21:41.856477 26653 layer_factory.hpp:77] Creating layer conv3
I0410 16:21:41.856483 26653 net.cpp:84] Creating Layer conv3
I0410 16:21:41.856485 26653 net.cpp:406] conv3 <- norm2
I0410 16:21:41.856488 26653 net.cpp:380] conv3 -> conv3
I0410 16:21:41.864336 26653 net.cpp:122] Setting up conv3
I0410 16:21:41.864354 26653 net.cpp:129] Top shape: 256 384 15 15 (22118400)
I0410 16:21:41.864356 26653 net.cpp:137] Memory required for data: 1755034624
I0410 16:21:41.864367 26653 layer_factory.hpp:77] Creating layer relu3
I0410 16:21:41.864375 26653 net.cpp:84] Creating Layer relu3
I0410 16:21:41.864378 26653 net.cpp:406] relu3 <- conv3
I0410 16:21:41.864382 26653 net.cpp:367] relu3 -> conv3 (in-place)
I0410 16:21:41.864504 26653 net.cpp:122] Setting up relu3
I0410 16:21:41.864511 26653 net.cpp:129] Top shape: 256 384 15 15 (22118400)
I0410 16:21:41.864512 26653 net.cpp:137] Memory required for data: 1843508224
I0410 16:21:41.864513 26653 layer_factory.hpp:77] Creating layer conv4
I0410 16:21:41.864521 26653 net.cpp:84] Creating Layer conv4
I0410 16:21:41.864522 26653 net.cpp:406] conv4 <- conv3
I0410 16:21:41.864526 26653 net.cpp:380] conv4 -> conv4
I0410 16:21:41.871561 26653 net.cpp:122] Setting up conv4
I0410 16:21:41.871577 26653 net.cpp:129] Top shape: 256 384 15 15 (22118400)
I0410 16:21:41.871579 26653 net.cpp:137] Memory required for data: 1931981824
I0410 16:21:41.871585 26653 layer_factory.hpp:77] Creating layer relu4
I0410 16:21:41.871590 26653 net.cpp:84] Creating Layer relu4
I0410 16:21:41.871594 26653 net.cpp:406] relu4 <- conv4
I0410 16:21:41.871598 26653 net.cpp:367] relu4 -> conv4 (in-place)
I0410 16:21:41.871713 26653 net.cpp:122] Setting up relu4
I0410 16:21:41.871718 26653 net.cpp:129] Top shape: 256 384 15 15 (22118400)
I0410 16:21:41.871721 26653 net.cpp:137] Memory required for data: 2020455424
I0410 16:21:41.871722 26653 layer_factory.hpp:77] Creating layer conv5
I0410 16:21:41.871740 26653 net.cpp:84] Creating Layer conv5
I0410 16:21:41.871742 26653 net.cpp:406] conv5 <- conv4
I0410 16:21:41.871747 26653 net.cpp:380] conv5 -> conv5
I0410 16:21:41.877257 26653 net.cpp:122] Setting up conv5
I0410 16:21:41.877274 26653 net.cpp:129] Top shape: 256 256 15 15 (14745600)
I0410 16:21:41.877276 26653 net.cpp:137] Memory required for data: 2079437824
I0410 16:21:41.877286 26653 layer_factory.hpp:77] Creating layer relu5
I0410 16:21:41.877295 26653 net.cpp:84] Creating Layer relu5
I0410 16:21:41.877300 26653 net.cpp:406] relu5 <- conv5
I0410 16:21:41.877306 26653 net.cpp:367] relu5 -> conv5 (in-place)
I0410 16:21:41.877442 26653 net.cpp:122] Setting up relu5
I0410 16:21:41.877449 26653 net.cpp:129] Top shape: 256 256 15 15 (14745600)
I0410 16:21:41.877451 26653 net.cpp:137] Memory required for data: 2138420224
I0410 16:21:41.877454 26653 layer_factory.hpp:77] Creating layer pool5
I0410 16:21:41.877463 26653 net.cpp:84] Creating Layer pool5
I0410 16:21:41.877467 26653 net.cpp:406] pool5 <- conv5
I0410 16:21:41.877472 26653 net.cpp:380] pool5 -> pool5
I0410 16:21:41.877514 26653 net.cpp:122] Setting up pool5
I0410 16:21:41.877521 26653 net.cpp:129] Top shape: 256 256 7 7 (3211264)
I0410 16:21:41.877523 26653 net.cpp:137] Memory required for data: 2151265280
I0410 16:21:41.877526 26653 layer_factory.hpp:77] Creating layer fc6
I0410 16:21:41.877535 26653 net.cpp:84] Creating Layer fc6
I0410 16:21:41.877542 26653 net.cpp:406] fc6 <- pool5
I0410 16:21:41.877548 26653 net.cpp:380] fc6 -> fc6
I0410 16:21:42.226559 26653 net.cpp:122] Setting up fc6
I0410 16:21:42.226580 26653 net.cpp:129] Top shape: 256 4096 (1048576)
I0410 16:21:42.226584 26653 net.cpp:137] Memory required for data: 2155459584
I0410 16:21:42.226593 26653 layer_factory.hpp:77] Creating layer relu6
I0410 16:21:42.226599 26653 net.cpp:84] Creating Layer relu6
I0410 16:21:42.226603 26653 net.cpp:406] relu6 <- fc6
I0410 16:21:42.226610 26653 net.cpp:367] relu6 -> fc6 (in-place)
I0410 16:21:42.227296 26653 net.cpp:122] Setting up relu6
I0410 16:21:42.227304 26653 net.cpp:129] Top shape: 256 4096 (1048576)
I0410 16:21:42.227308 26653 net.cpp:137] Memory required for data: 2159653888
I0410 16:21:42.227311 26653 layer_factory.hpp:77] Creating layer drop6
I0410 16:21:42.227321 26653 net.cpp:84] Creating Layer drop6
I0410 16:21:42.227325 26653 net.cpp:406] drop6 <- fc6
I0410 16:21:42.227329 26653 net.cpp:367] drop6 -> fc6 (in-place)
I0410 16:21:42.227355 26653 net.cpp:122] Setting up drop6
I0410 16:21:42.227360 26653 net.cpp:129] Top shape: 256 4096 (1048576)
I0410 16:21:42.227363 26653 net.cpp:137] Memory required for data: 2163848192
I0410 16:21:42.227366 26653 layer_factory.hpp:77] Creating layer fc7
I0410 16:21:42.227373 26653 net.cpp:84] Creating Layer fc7
I0410 16:21:42.227377 26653 net.cpp:406] fc7 <- fc6
I0410 16:21:42.227382 26653 net.cpp:380] fc7 -> fc7
I0410 16:21:42.340013 26653 net.cpp:122] Setting up fc7
I0410 16:21:42.340032 26653 net.cpp:129] Top shape: 256 4096 (1048576)
I0410 16:21:42.340035 26653 net.cpp:137] Memory required for data: 2168042496
I0410 16:21:42.340044 26653 layer_factory.hpp:77] Creating layer relu7
I0410 16:21:42.340052 26653 net.cpp:84] Creating Layer relu7
I0410 16:21:42.340057 26653 net.cpp:406] relu7 <- fc7
I0410 16:21:42.340065 26653 net.cpp:367] relu7 -> fc7 (in-place)
I0410 16:21:42.340220 26653 net.cpp:122] Setting up relu7
I0410 16:21:42.340229 26653 net.cpp:129] Top shape: 256 4096 (1048576)
I0410 16:21:42.340234 26653 net.cpp:137] Memory required for data: 2172236800
I0410 16:21:42.340236 26653 layer_factory.hpp:77] Creating layer drop7
I0410 16:21:42.340243 26653 net.cpp:84] Creating Layer drop7
I0410 16:21:42.340247 26653 net.cpp:406] drop7 <- fc7
I0410 16:21:42.340252 26653 net.cpp:367] drop7 -> fc7 (in-place)
I0410 16:21:42.340271 26653 net.cpp:122] Setting up drop7
I0410 16:21:42.340276 26653 net.cpp:129] Top shape: 256 4096 (1048576)
I0410 16:21:42.340279 26653 net.cpp:137] Memory required for data: 2176431104
I0410 16:21:42.340282 26653 layer_factory.hpp:77] Creating layer fc8
I0410 16:21:42.340301 26653 net.cpp:84] Creating Layer fc8
I0410 16:21:42.340306 26653 net.cpp:406] fc8 <- fc7
I0410 16:21:42.340312 26653 net.cpp:380] fc8 -> fc8
I0410 16:21:42.341982 26653 net.cpp:122] Setting up fc8
I0410 16:21:42.341990 26653 net.cpp:129] Top shape: 256 42 (10752)
I0410 16:21:42.341994 26653 net.cpp:137] Memory required for data: 2176474112
I0410 16:21:42.342000 26653 layer_factory.hpp:77] Creating layer loss
I0410 16:21:42.342007 26653 net.cpp:84] Creating Layer loss
I0410 16:21:42.342011 26653 net.cpp:406] loss <- fc8
I0410 16:21:42.342015 26653 net.cpp:406] loss <- label
I0410 16:21:42.342022 26653 net.cpp:380] loss -> loss
I0410 16:21:42.342034 26653 layer_factory.hpp:77] Creating layer loss
…
I0410 16:21:42.343096 26653 net.cpp:294] The NetState phase (1) differed from the phase (0) specified by a rule in layer data
I0410 16:21:42.343205 26653 net.cpp:51] Initializing net from parameters: 
name: "CaffeNet"
state {
  phase: TEST
}
layer {
  name: "data"
  type: "Data"
  top: "data"
  top: "label"
  include {
    phase: TEST
  }
  transform_param {
    mirror: false
    crop_size: 250
    mean_file: "/home/user1/GTSRB/input/mean.binaryproto"
  }
  data_param {
    source: "/home/user1/GTSRB/input/validation_lmdb"
    batch_size: 50
    backend: LMDB
  }
}
layer {
  name: "conv1"
  type: "Convolution"
  bottom: "data"
  top: "conv1"
  param {
    lr_mult: 1
    decay_mult: 1
  }
  param {
    lr_mult: 2
    decay_mult: 0
  }
  convolution_param {
    num_output: 96
    kernel_size: 11
    stride: 4
    weight_filler {
      type: "gaussian"
      std: 0.01
    }
    bias_filler {
      type: "constant"
      value: 0
    }
  }
}
layer {
  name: "relu1"
  type: "ReLU"
  bottom: "conv1"
  top: "conv1"
}
layer {
  name: "pool1"
  type: "Pooling"
  bottom: "conv1"
  top: "pool1"
  pooling_param {
    pool: MAX
    kernel_size: 3
    stride: 2
  }
}
layer {
  name: "norm1"
  type: "LRN"
  bottom: "pool1"
  top: "norm1"
  lrn_param {
    local_size: 5
    alpha: 0.0001
    beta: 0.75
  }
}
layer {
  name: "conv2"
  type: "Convolution"
  bottom: "norm1"
  top: "conv2"
  param {
    lr_mult: 1
    decay_mult: 1
  }
  param {
    lr_mult: 2
    decay_mult: 0
  }
  convolution_param {
    num_output: 256
    pad: 2
    kernel_size: 5
    group: 2
    weight_filler {
      type: "gaussian"
      std: 0.01
    }
    bias_filler {
      type: "constant"
      value: 1
    }
  }
}
layer {
  name: "relu2"
  type: "ReLU"
  bottom: "conv2"
  top: "conv2"
}
layer {
  name: "pool2"
  type: "Pooling"
  bottom: "conv2"
  top: "pool2"
  pooling_param {
    pool: MAX
    kernel_size: 3
    stride: 2
  }
}
layer {
  name: "norm2"
  type: "LRN"
  bottom: "pool2"
  top: "norm2"
  lrn_param {
    local_size: 5
    alpha: 0.0001
    beta: 0.75
  }
}
layer {
  name: "conv3"
  type: "Convolution"
  bottom: "norm2"
  top: "conv3"
  param {
    lr_mult: 1
    decay_mult: 1
  }
  param {
    lr_mult: 2
    decay_mult: 0
  }
  convolution_param {
    num_output: 384
    pad: 1
    kernel_size: 3
    weight_filler {
      type: "gaussian"
      std: 0.01
    }
    bias_filler {
      type: "constant"
      value: 0
    }
  }
}
layer {
  name: "relu3"
  type: "ReLU"
  bottom: "conv3"
  top: "conv3"
}
layer {
  name: "conv4"
  type: "Convolution"
  bottom: "conv3"
  top: "conv4"
  param {
    lr_mult: 1
    decay_mult: 1
  }
  param {
    lr_mult: 2
    decay_mult: 0
  }
  convolution_param {
    num_output: 384
    pad: 1
    kernel_size: 3
    group: 2
    weight_filler {
      type: "gaussian"
      std: 0.01
    }
    bias_filler {
      type: "constant"
      value: 1
    }
  }
}
layer {
  name: "relu4"
  type: "ReLU"
  bottom: "conv4"
  top: "conv4"
}
layer {
  name: "conv5"
  type: "Convolution"
  bottom: "conv4"
  top: "conv5"
  param {
    lr_mult: 1
    decay_mult: 1
  }
  param {
    lr_mult: 2
    decay_mult: 0
  }
  convolution_param {
    num_output: 256
    pad: 1
    kernel_size: 3
    group: 2
    weight_filler {
      type: "gaussian"
      std: 0.01
    }
    bias_filler {
      type: "constant"
      value: 1
    }
  }
}
layer {
  name: "relu5"
  type: "ReLU"
  bottom: "conv5"
  top: "conv5"
}
layer {
  name: "pool5"
  type: "Pooling"
  bottom: "conv5"
  top: "pool5"
  pooling_param {
    pool: MAX
    kernel_size: 3
    stride: 2
  }
}
layer {
  name: "fc6"
  type: "InnerProduct"
  bottom: "pool5"
  top: "fc6"
  param {
    lr_mult: 1
    decay_mult: 1
  }
  param {
    lr_mult: 2
    decay_mult: 0
  }
  inner_product_param {
    num_output: 4096
    weight_filler {
      type: "gaussian"
      std: 0.005
    }
    bias_filler {
      type: "constant"
      value: 1
    }
  }
}
layer {
  name: "relu6"
  type: "ReLU"
  bottom: "fc6"
  top: "fc6"
}
layer {
  name: "drop6"
  type: "Dropout"
  bottom: "fc6"
  top: "fc6"
  dropout_param {
    dropout_ratio: 0.5
  }
}
layer {
  name: "fc7"
  type: "InnerProduct"
  bottom: "fc6"
  top: "fc7"
  param {
    lr_mult: 1
    decay_mult: 1
  }
  param {
    lr_mult: 2
    decay_mult: 0
  }
  inner_product_param {
    num_output: 4096
    weight_filler {
      type: "gaussian"
      std: 0.005
    }
    bias_filler {
      type: "constant"
      value: 1
    }
  }
}
layer {
  name: "relu7"
  type: "ReLU"
  bottom: "fc7"
  top: "fc7"
}
layer {
  name: "drop7"
  type: "Dropout"
  bottom: "fc7"
  top: "fc7"
  dropout_param {
    dropout_ratio: 0.5
  }
}
layer {
  name: "fc8"
  type: "InnerProduct"
  bottom: "fc7"
  top: "fc8"
  param {
    lr_mult: 1
    decay_mult: 1
  }
  param {
    lr_mult: 2
    decay_mult: 0
  }
  inner_product_param {
    num_output: 42
    weight_filler {
      type: "gaussian"
      std: 0.01
    }
    bias_filler {
      type: "constant"
      value: 0
    }
  }
}
layer {
  name: "accuracy"
  type: "Accuracy"
  bottom: "fc8"
  bottom: "label"
  top: "accuracy"
  include {
    phase: TEST
  }
}
layer {
  name: "loss"
  type: "SoftmaxWithLoss"
  bottom: "fc8"
  bottom: "label"
  top: "loss"
}
I0410 16:21:42.343302 26653 layer_factory.hpp:77] Creating layer data
I0410 16:21:42.343348 26653 db_lmdb.cpp:35] Opened lmdb /home/user1/GTSRB/input/validation_lmdb
I0410 16:21:42.343363 26653 net.cpp:84] Creating Layer data
I0410 16:21:42.343370 26653 net.cpp:380] data -> data
I0410 16:21:42.343379 26653 net.cpp:380] data -> label
I0410 16:21:42.343389 26653 data_transformer.cpp:25] Loading mean file from: /home/user1/GTSRB/input/mean.binaryproto
I0410 16:21:42.344413 26653 data_layer.cpp:45] output data size: 50,3,250,250
I0410 16:21:42.388682 26653 net.cpp:122] Setting up data
I0410 16:21:42.388701 26653 net.cpp:129] Top shape: 50 3 250 250 (9375000)
I0410 16:21:42.388705 26653 net.cpp:129] Top shape: 50 (50)
I0410 16:21:42.388707 26653 net.cpp:137] Memory required for data: 37500200
I0410 16:21:42.388713 26653 layer_factory.hpp:77] Creating layer label_data_1_split
I0410 16:21:42.388725 26653 net.cpp:84] Creating Layer label_data_1_split
I0410 16:21:42.388728 26653 net.cpp:406] label_data_1_split <- label
I0410 16:21:42.388736 26653 net.cpp:380] label_data_1_split -> label_data_1_split_0
I0410 16:21:42.388746 26653 net.cpp:380] label_data_1_split -> label_data_1_split_1
I0410 16:21:42.388792 26653 net.cpp:122] Setting up label_data_1_split
I0410 16:21:42.388797 26653 net.cpp:129] Top shape: 50 (50)
I0410 16:21:42.388800 26653 net.cpp:129] Top shape: 50 (50)
I0410 16:21:42.388803 26653 net.cpp:137] Memory required for data: 37500600
I0410 16:21:42.388808 26653 layer_factory.hpp:77] Creating layer conv1
I0410 16:21:42.388816 26653 net.cpp:84] Creating Layer conv1
I0410 16:21:42.388820 26653 net.cpp:406] conv1 <- data
I0410 16:21:42.388826 26653 net.cpp:380] conv1 -> conv1
I0410 16:21:42.393029 26653 net.cpp:122] Setting up conv1
I0410 16:21:42.393039 26653 net.cpp:129] Top shape: 50 96 60 60 (17280000)
I0410 16:21:42.393043 26653 net.cpp:137] Memory required for data: 106620600
I0410 16:21:42.393052 26653 layer_factory.hpp:77] Creating layer relu1
I0410 16:21:42.393060 26653 net.cpp:84] Creating Layer relu1
I0410 16:21:42.393064 26653 net.cpp:406] relu1 <- conv1
I0410 16:21:42.393069 26653 net.cpp:367] relu1 -> conv1 (in-place)
I0410 16:21:42.393180 26653 net.cpp:122] Setting up relu1
I0410 16:21:42.393187 26653 net.cpp:129] Top shape: 50 96 60 60 (17280000)
I0410 16:21:42.393190 26653 net.cpp:137] Memory required for data: 175740600
I0410 16:21:42.393193 26653 layer_factory.hpp:77] Creating layer pool1
I0410 16:21:42.393200 26653 net.cpp:84] Creating Layer pool1
I0410 16:21:42.393204 26653 net.cpp:406] pool1 <- conv1
I0410 16:21:42.393209 26653 net.cpp:380] pool1 -> pool1
I0410 16:21:42.393242 26653 net.cpp:122] Setting up pool1
I0410 16:21:42.393249 26653 net.cpp:129] Top shape: 50 96 30 30 (4320000)
I0410 16:21:42.393252 26653 net.cpp:137] Memory required for data: 193020600
I0410 16:21:42.393255 26653 layer_factory.hpp:77] Creating layer norm1
I0410 16:21:42.393260 26653 net.cpp:84] Creating Layer norm1
I0410 16:21:42.393265 26653 net.cpp:406] norm1 <- pool1
I0410 16:21:42.393273 26653 net.cpp:380] norm1 -> norm1
I0410 16:21:42.393906 26653 net.cpp:122] Setting up norm1
I0410 16:21:42.393915 26653 net.cpp:129] Top shape: 50 96 30 30 (4320000)
I0410 16:21:42.393918 26653 net.cpp:137] Memory required for data: 210300600
I0410 16:21:42.393923 26653 layer_factory.hpp:77] Creating layer conv2
I0410 16:21:42.393929 26653 net.cpp:84] Creating Layer conv2
I0410 16:21:42.393934 26653 net.cpp:406] conv2 <- norm1
I0410 16:21:42.393940 26653 net.cpp:380] conv2 -> conv2
I0410 16:21:42.397691 26653 net.cpp:122] Setting up conv2
I0410 16:21:42.397703 26653 net.cpp:129] Top shape: 50 256 30 30 (11520000)
I0410 16:21:42.397706 26653 net.cpp:137] Memory required for data: 256380600
I0410 16:21:42.397716 26653 layer_factory.hpp:77] Creating layer relu2
I0410 16:21:42.397723 26653 net.cpp:84] Creating Layer relu2
I0410 16:21:42.397740 26653 net.cpp:406] relu2 <- conv2
I0410 16:21:42.397747 26653 net.cpp:367] relu2 -> conv2 (in-place)
I0410 16:21:42.398442 26653 net.cpp:122] Setting up relu2
I0410 16:21:42.398453 26653 net.cpp:129] Top shape: 50 256 30 30 (11520000)
I0410 16:21:42.398455 26653 net.cpp:137] Memory required for data: 302460600
I0410 16:21:42.398458 26653 layer_factory.hpp:77] Creating layer pool2
I0410 16:21:42.398463 26653 net.cpp:84] Creating Layer pool2
I0410 16:21:42.398465 26653 net.cpp:406] pool2 <- conv2
I0410 16:21:42.398469 26653 net.cpp:380] pool2 -> pool2
I0410 16:21:42.398504 26653 net.cpp:122] Setting up pool2
I0410 16:21:42.398509 26653 net.cpp:129] Top shape: 50 256 15 15 (2880000)
I0410 16:21:42.398511 26653 net.cpp:137] Memory required for data: 313980600
I0410 16:21:42.398514 26653 layer_factory.hpp:77] Creating layer norm2
I0410 16:21:42.398516 26653 net.cpp:84] Creating Layer norm2
I0410 16:21:42.398519 26653 net.cpp:406] norm2 <- pool2
I0410 16:21:42.398521 26653 net.cpp:380] norm2 -> norm2
I0410 16:21:42.398648 26653 net.cpp:122] Setting up norm2
I0410 16:21:42.398654 26653 net.cpp:129] Top shape: 50 256 15 15 (2880000)
I0410 16:21:42.398656 26653 net.cpp:137] Memory required for data: 325500600
I0410 16:21:42.398658 26653 layer_factory.hpp:77] Creating layer conv3
I0410 16:21:42.398663 26653 net.cpp:84] Creating Layer conv3
I0410 16:21:42.398666 26653 net.cpp:406] conv3 <- norm2
I0410 16:21:42.398669 26653 net.cpp:380] conv3 -> conv3
I0410 16:21:42.408222 26653 net.cpp:122] Setting up conv3
I0410 16:21:42.408239 26653 net.cpp:129] Top shape: 50 384 15 15 (4320000)
I0410 16:21:42.408242 26653 net.cpp:137] Memory required for data: 342780600
I0410 16:21:42.408251 26653 layer_factory.hpp:77] Creating layer relu3
I0410 16:21:42.408257 26653 net.cpp:84] Creating Layer relu3
I0410 16:21:42.408259 26653 net.cpp:406] relu3 <- conv3
I0410 16:21:42.408263 26653 net.cpp:367] relu3 -> conv3 (in-place)
I0410 16:21:42.408382 26653 net.cpp:122] Setting up relu3
I0410 16:21:42.408388 26653 net.cpp:129] Top shape: 50 384 15 15 (4320000)
I0410 16:21:42.408390 26653 net.cpp:137] Memory required for data: 360060600
I0410 16:21:42.408392 26653 layer_factory.hpp:77] Creating layer conv4
I0410 16:21:42.408398 26653 net.cpp:84] Creating Layer conv4
I0410 16:21:42.408401 26653 net.cpp:406] conv4 <- conv3
I0410 16:21:42.408404 26653 net.cpp:380] conv4 -> conv4
I0410 16:21:42.416978 26653 net.cpp:122] Setting up conv4
I0410 16:21:42.416991 26653 net.cpp:129] Top shape: 50 384 15 15 (4320000)
I0410 16:21:42.416995 26653 net.cpp:137] Memory required for data: 377340600
I0410 16:21:42.416999 26653 layer_factory.hpp:77] Creating layer relu4
I0410 16:21:42.417004 26653 net.cpp:84] Creating Layer relu4
I0410 16:21:42.417006 26653 net.cpp:406] relu4 <- conv4
I0410 16:21:42.417011 26653 net.cpp:367] relu4 -> conv4 (in-place)
I0410 16:21:42.417136 26653 net.cpp:122] Setting up relu4
I0410 16:21:42.417141 26653 net.cpp:129] Top shape: 50 384 15 15 (4320000)
I0410 16:21:42.417143 26653 net.cpp:137] Memory required for data: 394620600
I0410 16:21:42.417146 26653 layer_factory.hpp:77] Creating layer conv5
I0410 16:21:42.417151 26653 net.cpp:84] Creating Layer conv5
I0410 16:21:42.417153 26653 net.cpp:406] conv5 <- conv4
I0410 16:21:42.417157 26653 net.cpp:380] conv5 -> conv5
I0410 16:21:42.423454 26653 net.cpp:122] Setting up conv5
I0410 16:21:42.423468 26653 net.cpp:129] Top shape: 50 256 15 15 (2880000)
I0410 16:21:42.423470 26653 net.cpp:137] Memory required for data: 406140600
I0410 16:21:42.423478 26653 layer_factory.hpp:77] Creating layer relu5
I0410 16:21:42.423483 26653 net.cpp:84] Creating Layer relu5
I0410 16:21:42.423486 26653 net.cpp:406] relu5 <- conv5
I0410 16:21:42.423490 26653 net.cpp:367] relu5 -> conv5 (in-place)
I0410 16:21:42.423609 26653 net.cpp:122] Setting up relu5
I0410 16:21:42.423615 26653 net.cpp:129] Top shape: 50 256 15 15 (2880000)
I0410 16:21:42.423617 26653 net.cpp:137] Memory required for data: 417660600
I0410 16:21:42.423619 26653 layer_factory.hpp:77] Creating layer pool5
I0410 16:21:42.423625 26653 net.cpp:84] Creating Layer pool5
I0410 16:21:42.423627 26653 net.cpp:406] pool5 <- conv5
I0410 16:21:42.423630 26653 net.cpp:380] pool5 -> pool5
I0410 16:21:42.423676 26653 net.cpp:122] Setting up pool5
I0410 16:21:42.423681 26653 net.cpp:129] Top shape: 50 256 7 7 (627200)
I0410 16:21:42.423682 26653 net.cpp:137] Memory required for data: 420169400
I0410 16:21:42.423684 26653 layer_factory.hpp:77] Creating layer fc6
I0410 16:21:42.423689 26653 net.cpp:84] Creating Layer fc6
I0410 16:21:42.423691 26653 net.cpp:406] fc6 <- pool5
I0410 16:21:42.423694 26653 net.cpp:380] fc6 -> fc6
I0410 16:21:42.772537 26653 net.cpp:122] Setting up fc6
I0410 16:21:42.772557 26653 net.cpp:129] Top shape: 50 4096 (204800)
I0410 16:21:42.772559 26653 net.cpp:137] Memory required for data: 420988600
I0410 16:21:42.772565 26653 layer_factory.hpp:77] Creating layer relu6
I0410 16:21:42.772572 26653 net.cpp:84] Creating Layer relu6
I0410 16:21:42.772573 26653 net.cpp:406] relu6 <- fc6
I0410 16:21:42.772577 26653 net.cpp:367] relu6 -> fc6 (in-place)
I0410 16:21:42.772732 26653 net.cpp:122] Setting up relu6
I0410 16:21:42.772738 26653 net.cpp:129] Top shape: 50 4096 (204800)
I0410 16:21:42.772740 26653 net.cpp:137] Memory required for data: 421807800
I0410 16:21:42.772742 26653 layer_factory.hpp:77] Creating layer drop6
I0410 16:21:42.772745 26653 net.cpp:84] Creating Layer drop6
I0410 16:21:42.772747 26653 net.cpp:406] drop6 <- fc6
I0410 16:21:42.772750 26653 net.cpp:367] drop6 -> fc6 (in-place)
I0410 16:21:42.772769 26653 net.cpp:122] Setting up drop6
I0410 16:21:42.772773 26653 net.cpp:129] Top shape: 50 4096 (204800)
I0410 16:21:42.772774 26653 net.cpp:137] Memory required for data: 422627000
I0410 16:21:42.772776 26653 layer_factory.hpp:77] Creating layer fc7
I0410 16:21:42.772780 26653 net.cpp:84] Creating Layer fc7
I0410 16:21:42.772783 26653 net.cpp:406] fc7 <- fc6
I0410 16:21:42.772785 26653 net.cpp:380] fc7 -> fc7
I0410 16:21:42.885589 26653 net.cpp:122] Setting up fc7
I0410 16:21:42.885607 26653 net.cpp:129] Top shape: 50 4096 (204800)
I0410 16:21:42.885609 26653 net.cpp:137] Memory required for data: 423446200
I0410 16:21:42.885615 26653 layer_factory.hpp:77] Creating layer relu7
I0410 16:21:42.885620 26653 net.cpp:84] Creating Layer relu7
I0410 16:21:42.885622 26653 net.cpp:406] relu7 <- fc7
I0410 16:21:42.885627 26653 net.cpp:367] relu7 -> fc7 (in-place)
I0410 16:21:42.886334 26653 net.cpp:122] Setting up relu7
I0410 16:21:42.886342 26653 net.cpp:129] Top shape: 50 4096 (204800)
I0410 16:21:42.886343 26653 net.cpp:137] Memory required for data: 424265400
I0410 16:21:42.886345 26653 layer_factory.hpp:77] Creating layer drop7
I0410 16:21:42.886350 26653 net.cpp:84] Creating Layer drop7
I0410 16:21:42.886353 26653 net.cpp:406] drop7 <- fc7
I0410 16:21:42.886354 26653 net.cpp:367] drop7 -> fc7 (in-place)
I0410 16:21:42.886378 26653 net.cpp:122] Setting up drop7
I0410 16:21:42.886382 26653 net.cpp:129] Top shape: 50 4096 (204800)
I0410 16:21:42.886384 26653 net.cpp:137] Memory required for data: 425084600
I0410 16:21:42.886385 26653 layer_factory.hpp:77] Creating layer fc8
I0410 16:21:42.886389 26653 net.cpp:84] Creating Layer fc8
I0410 16:21:42.886392 26653 net.cpp:406] fc8 <- fc7
I0410 16:21:42.886395 26653 net.cpp:380] fc8 -> fc8
I0410 16:21:42.887517 26653 net.cpp:122] Setting up fc8
I0410 16:21:42.887522 26653 net.cpp:129] Top shape: 50 42 (2100)
I0410 16:21:42.887524 26653 net.cpp:137] Memory required for data: 425093000
I0410 16:21:42.887527 26653 layer_factory.hpp:77] Creating layer fc8_fc8_0_split
I0410 16:21:42.887531 26653 net.cpp:84] Creating Layer fc8_fc8_0_split
I0410 16:21:42.887532 26653 net.cpp:406] fc8_fc8_0_split <- fc8
I0410 16:21:42.887536 26653 net.cpp:380] fc8_fc8_0_split -> fc8_fc8_0_split_0
I0410 16:21:42.887539 26653 net.cpp:380] fc8_fc8_0_split -> fc8_fc8_0_split_1
I0410 16:21:42.887562 26653 net.cpp:122] Setting up fc8_fc8_0_split
I0410 16:21:42.887564 26653 net.cpp:129] Top shape: 50 42 (2100)
I0410 16:21:42.887567 26653 net.cpp:129] Top shape: 50 42 (2100)
I0410 16:21:42.887568 26653 net.cpp:137] Memory required for data: 425109800
I0410 16:21:42.887570 26653 layer_factory.hpp:77] Creating layer accuracy
I0410 16:21:42.887586 26653 net.cpp:84] Creating Layer accuracy
I0410 16:21:42.887589 26653 net.cpp:406] accuracy <- fc8_fc8_0_split_0
I0410 16:21:42.887591 26653 net.cpp:406] accuracy <- label_data_1_split_0
I0410 16:21:42.887594 26653 net.cpp:380] accuracy -> accuracy
…
