…
I0410 18:50:36.290711 28917 net.cpp:294] The NetState phase (0) differed from the phase (1) specified by a rule in layer accuracy
I0410 18:50:36.290815 28917 net.cpp:51] Initializing net from parameters: 
name: "CaffeNet"
state {
  phase: TRAIN
  level: 0
  stage: ""
}
layer {
  name: "data"
  type: "Data"
  top: "data"
  top: "label"
  include {
    phase: TRAIN
  }
  transform_param {
    mirror: true
    crop_size: 250
    mean_file: "/home/user1/GTSRB/input/mean.binaryproto"
  }
  data_param {
    source: "/home/user1/GTSRB/input/train_lmdb"
    batch_size: 256
    backend: LMDB
  }
}
layer {
  name: "conv1"
  type: "Convolution"
  bottom: "data"
  top: "conv1"
  param {
    lr_mult: 1
    decay_mult: 1
  }
  param {
    lr_mult: 2
    decay_mult: 0
  }
  convolution_param {
    num_output: 96
    kernel_size: 11
    stride: 4
    weight_filler {
      type: "gaussian"
      std: 0.01
    }
    bias_filler {
      type: "constant"
      value: 0
    }
  }
}
layer {
  name: "relu1"
  type: "ReLU"
  bottom: "conv1"
  top: "conv1"
}
layer {
  name: "pool1"
  type: "Pooling"
  bottom: "conv1"
  top: "pool1"
  pooling_param {
    pool: MAX
    kernel_size: 3
    stride: 2
  }
}
layer {
  name: "norm1"
  type: "LRN"
  bottom: "pool1"
  top: "norm1"
  lrn_param {
    local_size: 5
    alpha: 0.0001
    beta: 0.75
  }
}
layer {
  name: "conv2"
  type: "Convolution"
  bottom: "norm1"
  top: "conv2"
  param {
    lr_mult: 1
    decay_mult: 1
  }
  param {
    lr_mult: 2
    decay_mult: 0
  }
  convolution_param {
    num_output: 256
    pad: 2
    kernel_size: 5
    group: 2
    weight_filler {
      type: "gaussian"
      std: 0.01
    }
    bias_filler {
      type: "constant"
      value: 1
    }
  }
}
layer {
  name: "relu2"
  type: "ReLU"
  bottom: "conv2"
  top: "conv2"
}
layer {
  name: "pool2"
  type: "Pooling"
  bottom: "conv2"
  top: "pool2"
  pooling_param {
    pool: MAX
    kernel_size: 3
    stride: 2
  }
}
layer {
  name: "norm2"
  type: "LRN"
  bottom: "pool2"
  top: "norm2"
  lrn_param {
    local_size: 5
    alpha: 0.0001
    beta: 0.75
  }
}
layer {
  name: "conv3"
  type: "Convolution"
  bottom: "norm2"
  top: "conv3"
  param {
    lr_mult: 1
    decay_mult: 1
  }
  param {
    lr_mult: 2
    decay_mult: 0
  }
  convolution_param {
    num_output: 384
    pad: 1
    kernel_size: 3
    weight_filler {
      type: "gaussian"
      std: 0.01
    }
    bias_filler {
      type: "constant"
      value: 0
    }
  }
}
layer {
  name: "relu3"
  type: "ReLU"
  bottom: "conv3"
  top: "conv3"
}
layer {
  name: "conv4"
  type: "Convolution"
  bottom: "conv3"
  top: "conv4"
  param {
    lr_mult: 1
    decay_mult: 1
  }
  param {
    lr_mult: 2
    decay_mult: 0
  }
  convolution_param {
    num_output: 384
    pad: 1
    kernel_size: 3
    group: 2
    weight_filler {
      type: "gaussian"
      std: 0.01
    }
    bias_filler {
      type: "constant"
      value: 1
    }
  }
}
layer {
  name: "relu4"
  type: "ReLU"
  bottom: "conv4"
  top: "conv4"
}
layer {
  name: "conv5"
  type: "Convolution"
  bottom: "conv4"
  top: "conv5"
  param {
    lr_mult: 1
    decay_mult: 1
  }
  param {
    lr_mult: 2
    decay_mult: 0
  }
  convolution_param {
    num_output: 256
    pad: 1
    kernel_size: 3
    group: 2
    weight_filler {
      type: "gaussian"
      std: 0.01
    }
    bias_filler {
      type: "constant"
      value: 1
    }
  }
}
layer {
  name: "relu5"
  type: "ReLU"
  bottom: "conv5"
  top: "conv5"
}
layer {
  name: "pool5"
  type: "Pooling"
  bottom: "conv5"
  top: "pool5"
  pooling_param {
    pool: MAX
    kernel_size: 3
    stride: 2
  }
}
layer {
  name: "fc6"
  type: "InnerProduct"
  bottom: "pool5"
  top: "fc6"
  param {
    lr_mult: 1
    decay_mult: 1
  }
  param {
    lr_mult: 2
    decay_mult: 0
  }
  inner_product_param {
    num_output: 4096
    weight_filler {
      type: "gaussian"
      std: 0.005
    }
    bias_filler {
      type: "constant"
      value: 1
    }
  }
}
layer {
  name: "relu6"
  type: "ReLU"
  bottom: "fc6"
  top: "fc6"
}
layer {
  name: "drop6"
  type: "Dropout"
  bottom: "fc6"
  top: "fc6"
  dropout_param {
    dropout_ratio: 0.5
  }
}
layer {
  name: "fc7"
  type: "InnerProduct"
  bottom: "fc6"
  top: "fc7"
  param {
    lr_mult: 1
    decay_mult: 1
  }
  param {
    lr_mult: 2
    decay_mult: 0
  }
  inner_product_param {
    num_output: 4096
    weight_filler {
      type: "gaussian"
      std: 0.005
    }
    bias_filler {
      type: "constant"
      value: 1
    }
  }
}
layer {
  name: "relu7"
  type: "ReLU"
  bottom: "fc7"
  top: "fc7"
}
layer {
  name: "drop7"
  type: "Dropout"
  bottom: "fc7"
  top: "fc7"
  dropout_param {
    dropout_ratio: 0.5
  }
}
layer {
  name: "fc8"
  type: "InnerProduct"
  bottom: "fc7"
  top: "fc8"
  param {
    lr_mult: 1
    decay_mult: 1
  }
  param {
    lr_mult: 2
    decay_mult: 0
  }
  inner_product_param {
    num_output: 43
    weight_filler {
      type: "gaussian"
      std: 0.01
    }
    bias_filler {
      type: "constant"
      value: 0
    }
  }
}
layer {
  name: "loss"
  type: "SoftmaxWithLoss"
  bottom: "fc8"
  bottom: "label"
  top: "loss"
}
I0410 18:50:36.290879 28917 layer_factory.hpp:77] Creating layer data
I0410 18:50:36.290962 28917 db_lmdb.cpp:35] Opened lmdb /home/user1/GTSRB/input/train_lmdb
I0410 18:50:36.290982 28917 net.cpp:84] Creating Layer data
I0410 18:50:36.290987 28917 net.cpp:380] data -> data
I0410 18:50:36.291000 28917 net.cpp:380] data -> label
I0410 18:50:36.291008 28917 data_transformer.cpp:25] Loading mean file from: /home/user1/GTSRB/input/mean.binaryproto
I0410 18:50:36.293108 28917 data_layer.cpp:45] output data size: 256,3,250,250
I0410 18:50:36.498984 28917 net.cpp:122] Setting up data
I0410 18:50:36.499001 28917 net.cpp:129] Top shape: 256 3 250 250 (48000000)
I0410 18:50:36.499004 28917 net.cpp:129] Top shape: 256 (256)
I0410 18:50:36.499006 28917 net.cpp:137] Memory required for data: 192001024
I0410 18:50:36.499013 28917 layer_factory.hpp:77] Creating layer conv1
I0410 18:50:36.499027 28917 net.cpp:84] Creating Layer conv1
I0410 18:50:36.499030 28917 net.cpp:406] conv1 <- data
I0410 18:50:36.499039 28917 net.cpp:380] conv1 -> conv1
I0410 18:50:36.763993 28917 net.cpp:122] Setting up conv1
I0410 18:50:36.764012 28917 net.cpp:129] Top shape: 256 96 60 60 (88473600)
I0410 18:50:36.764014 28917 net.cpp:137] Memory required for data: 545895424
I0410 18:50:36.764031 28917 layer_factory.hpp:77] Creating layer relu1
I0410 18:50:36.764039 28917 net.cpp:84] Creating Layer relu1
I0410 18:50:36.764042 28917 net.cpp:406] relu1 <- conv1
I0410 18:50:36.764046 28917 net.cpp:367] relu1 -> conv1 (in-place)
I0410 18:50:36.764169 28917 net.cpp:122] Setting up relu1
I0410 18:50:36.764175 28917 net.cpp:129] Top shape: 256 96 60 60 (88473600)
I0410 18:50:36.764176 28917 net.cpp:137] Memory required for data: 899789824
I0410 18:50:36.764178 28917 layer_factory.hpp:77] Creating layer pool1
I0410 18:50:36.764183 28917 net.cpp:84] Creating Layer pool1
I0410 18:50:36.764185 28917 net.cpp:406] pool1 <- conv1
I0410 18:50:36.764188 28917 net.cpp:380] pool1 -> pool1
I0410 18:50:36.764227 28917 net.cpp:122] Setting up pool1
I0410 18:50:36.764232 28917 net.cpp:129] Top shape: 256 96 30 30 (22118400)
I0410 18:50:36.764235 28917 net.cpp:137] Memory required for data: 988263424
I0410 18:50:36.764235 28917 layer_factory.hpp:77] Creating layer norm1
I0410 18:50:36.764242 28917 net.cpp:84] Creating Layer norm1
I0410 18:50:36.764257 28917 net.cpp:406] norm1 <- pool1
I0410 18:50:36.764261 28917 net.cpp:380] norm1 -> norm1
I0410 18:50:36.764870 28917 net.cpp:122] Setting up norm1
I0410 18:50:36.764878 28917 net.cpp:129] Top shape: 256 96 30 30 (22118400)
I0410 18:50:36.764881 28917 net.cpp:137] Memory required for data: 1076737024
I0410 18:50:36.764883 28917 layer_factory.hpp:77] Creating layer conv2
I0410 18:50:36.764890 28917 net.cpp:84] Creating Layer conv2
I0410 18:50:36.764892 28917 net.cpp:406] conv2 <- norm1
I0410 18:50:36.764896 28917 net.cpp:380] conv2 -> conv2
I0410 18:50:36.768558 28917 net.cpp:122] Setting up conv2
I0410 18:50:36.768568 28917 net.cpp:129] Top shape: 256 256 30 30 (58982400)
I0410 18:50:36.768570 28917 net.cpp:137] Memory required for data: 1312666624
I0410 18:50:36.768577 28917 layer_factory.hpp:77] Creating layer relu2
I0410 18:50:36.768582 28917 net.cpp:84] Creating Layer relu2
I0410 18:50:36.768584 28917 net.cpp:406] relu2 <- conv2
I0410 18:50:36.768586 28917 net.cpp:367] relu2 -> conv2 (in-place)
I0410 18:50:36.769171 28917 net.cpp:122] Setting up relu2
I0410 18:50:36.769178 28917 net.cpp:129] Top shape: 256 256 30 30 (58982400)
I0410 18:50:36.769181 28917 net.cpp:137] Memory required for data: 1548596224
I0410 18:50:36.769182 28917 layer_factory.hpp:77] Creating layer pool2
I0410 18:50:36.769186 28917 net.cpp:84] Creating Layer pool2
I0410 18:50:36.769188 28917 net.cpp:406] pool2 <- conv2
I0410 18:50:36.769191 28917 net.cpp:380] pool2 -> pool2
I0410 18:50:36.769218 28917 net.cpp:122] Setting up pool2
I0410 18:50:36.769222 28917 net.cpp:129] Top shape: 256 256 15 15 (14745600)
I0410 18:50:36.769224 28917 net.cpp:137] Memory required for data: 1607578624
I0410 18:50:36.769225 28917 layer_factory.hpp:77] Creating layer norm2
I0410 18:50:36.769230 28917 net.cpp:84] Creating Layer norm2
I0410 18:50:36.769232 28917 net.cpp:406] norm2 <- pool2
I0410 18:50:36.769234 28917 net.cpp:380] norm2 -> norm2
I0410 18:50:36.769351 28917 net.cpp:122] Setting up norm2
I0410 18:50:36.769356 28917 net.cpp:129] Top shape: 256 256 15 15 (14745600)
I0410 18:50:36.769358 28917 net.cpp:137] Memory required for data: 1666561024
I0410 18:50:36.769359 28917 layer_factory.hpp:77] Creating layer conv3
I0410 18:50:36.769366 28917 net.cpp:84] Creating Layer conv3
I0410 18:50:36.769366 28917 net.cpp:406] conv3 <- norm2
I0410 18:50:36.769371 28917 net.cpp:380] conv3 -> conv3
I0410 18:50:36.777256 28917 net.cpp:122] Setting up conv3
I0410 18:50:36.777276 28917 net.cpp:129] Top shape: 256 384 15 15 (22118400)
I0410 18:50:36.777279 28917 net.cpp:137] Memory required for data: 1755034624
I0410 18:50:36.777289 28917 layer_factory.hpp:77] Creating layer relu3
I0410 18:50:36.777295 28917 net.cpp:84] Creating Layer relu3
I0410 18:50:36.777298 28917 net.cpp:406] relu3 <- conv3
I0410 18:50:36.777302 28917 net.cpp:367] relu3 -> conv3 (in-place)
I0410 18:50:36.777431 28917 net.cpp:122] Setting up relu3
I0410 18:50:36.777438 28917 net.cpp:129] Top shape: 256 384 15 15 (22118400)
I0410 18:50:36.777441 28917 net.cpp:137] Memory required for data: 1843508224
I0410 18:50:36.777442 28917 layer_factory.hpp:77] Creating layer conv4
I0410 18:50:36.777449 28917 net.cpp:84] Creating Layer conv4
I0410 18:50:36.777452 28917 net.cpp:406] conv4 <- conv3
I0410 18:50:36.777456 28917 net.cpp:380] conv4 -> conv4
I0410 18:50:36.784521 28917 net.cpp:122] Setting up conv4
I0410 18:50:36.784538 28917 net.cpp:129] Top shape: 256 384 15 15 (22118400)
I0410 18:50:36.784539 28917 net.cpp:137] Memory required for data: 1931981824
I0410 18:50:36.784545 28917 layer_factory.hpp:77] Creating layer relu4
I0410 18:50:36.784550 28917 net.cpp:84] Creating Layer relu4
I0410 18:50:36.784554 28917 net.cpp:406] relu4 <- conv4
I0410 18:50:36.784559 28917 net.cpp:367] relu4 -> conv4 (in-place)
I0410 18:50:36.784669 28917 net.cpp:122] Setting up relu4
I0410 18:50:36.784674 28917 net.cpp:129] Top shape: 256 384 15 15 (22118400)
I0410 18:50:36.784677 28917 net.cpp:137] Memory required for data: 2020455424
I0410 18:50:36.784678 28917 layer_factory.hpp:77] Creating layer conv5
I0410 18:50:36.784698 28917 net.cpp:84] Creating Layer conv5
I0410 18:50:36.784700 28917 net.cpp:406] conv5 <- conv4
I0410 18:50:36.784704 28917 net.cpp:380] conv5 -> conv5
I0410 18:50:36.790220 28917 net.cpp:122] Setting up conv5
I0410 18:50:36.790233 28917 net.cpp:129] Top shape: 256 256 15 15 (14745600)
I0410 18:50:36.790235 28917 net.cpp:137] Memory required for data: 2079437824
I0410 18:50:36.790244 28917 layer_factory.hpp:77] Creating layer relu5
I0410 18:50:36.790249 28917 net.cpp:84] Creating Layer relu5
I0410 18:50:36.790252 28917 net.cpp:406] relu5 <- conv5
I0410 18:50:36.790257 28917 net.cpp:367] relu5 -> conv5 (in-place)
I0410 18:50:36.790377 28917 net.cpp:122] Setting up relu5
I0410 18:50:36.790385 28917 net.cpp:129] Top shape: 256 256 15 15 (14745600)
I0410 18:50:36.790388 28917 net.cpp:137] Memory required for data: 2138420224
I0410 18:50:36.790391 28917 layer_factory.hpp:77] Creating layer pool5
I0410 18:50:36.790400 28917 net.cpp:84] Creating Layer pool5
I0410 18:50:36.790402 28917 net.cpp:406] pool5 <- conv5
I0410 18:50:36.790407 28917 net.cpp:380] pool5 -> pool5
I0410 18:50:36.790448 28917 net.cpp:122] Setting up pool5
I0410 18:50:36.790468 28917 net.cpp:129] Top shape: 256 256 7 7 (3211264)
I0410 18:50:36.790473 28917 net.cpp:137] Memory required for data: 2151265280
I0410 18:50:36.790477 28917 layer_factory.hpp:77] Creating layer fc6
I0410 18:50:36.790488 28917 net.cpp:84] Creating Layer fc6
I0410 18:50:36.790493 28917 net.cpp:406] fc6 <- pool5
I0410 18:50:36.790498 28917 net.cpp:380] fc6 -> fc6
I0410 18:50:37.142416 28917 net.cpp:122] Setting up fc6
I0410 18:50:37.142436 28917 net.cpp:129] Top shape: 256 4096 (1048576)
I0410 18:50:37.142437 28917 net.cpp:137] Memory required for data: 2155459584
I0410 18:50:37.142443 28917 layer_factory.hpp:77] Creating layer relu6
I0410 18:50:37.142448 28917 net.cpp:84] Creating Layer relu6
I0410 18:50:37.142451 28917 net.cpp:406] relu6 <- fc6
I0410 18:50:37.142455 28917 net.cpp:367] relu6 -> fc6 (in-place)
I0410 18:50:37.143128 28917 net.cpp:122] Setting up relu6
I0410 18:50:37.143136 28917 net.cpp:129] Top shape: 256 4096 (1048576)
I0410 18:50:37.143137 28917 net.cpp:137] Memory required for data: 2159653888
I0410 18:50:37.143141 28917 layer_factory.hpp:77] Creating layer drop6
I0410 18:50:37.143144 28917 net.cpp:84] Creating Layer drop6
I0410 18:50:37.143146 28917 net.cpp:406] drop6 <- fc6
I0410 18:50:37.143149 28917 net.cpp:367] drop6 -> fc6 (in-place)
I0410 18:50:37.143167 28917 net.cpp:122] Setting up drop6
I0410 18:50:37.143170 28917 net.cpp:129] Top shape: 256 4096 (1048576)
I0410 18:50:37.143172 28917 net.cpp:137] Memory required for data: 2163848192
I0410 18:50:37.143173 28917 layer_factory.hpp:77] Creating layer fc7
I0410 18:50:37.143178 28917 net.cpp:84] Creating Layer fc7
I0410 18:50:37.143180 28917 net.cpp:406] fc7 <- fc6
I0410 18:50:37.143185 28917 net.cpp:380] fc7 -> fc7
I0410 18:50:37.256861 28917 net.cpp:122] Setting up fc7
I0410 18:50:37.256881 28917 net.cpp:129] Top shape: 256 4096 (1048576)
I0410 18:50:37.256883 28917 net.cpp:137] Memory required for data: 2168042496
I0410 18:50:37.256889 28917 layer_factory.hpp:77] Creating layer relu7
I0410 18:50:37.256896 28917 net.cpp:84] Creating Layer relu7
I0410 18:50:37.256899 28917 net.cpp:406] relu7 <- fc7
I0410 18:50:37.256903 28917 net.cpp:367] relu7 -> fc7 (in-place)
I0410 18:50:37.257050 28917 net.cpp:122] Setting up relu7
I0410 18:50:37.257055 28917 net.cpp:129] Top shape: 256 4096 (1048576)
I0410 18:50:37.257057 28917 net.cpp:137] Memory required for data: 2172236800
I0410 18:50:37.257060 28917 layer_factory.hpp:77] Creating layer drop7
I0410 18:50:37.257063 28917 net.cpp:84] Creating Layer drop7
I0410 18:50:37.257066 28917 net.cpp:406] drop7 <- fc7
I0410 18:50:37.257069 28917 net.cpp:367] drop7 -> fc7 (in-place)
I0410 18:50:37.257083 28917 net.cpp:122] Setting up drop7
I0410 18:50:37.257086 28917 net.cpp:129] Top shape: 256 4096 (1048576)
I0410 18:50:37.257088 28917 net.cpp:137] Memory required for data: 2176431104
I0410 18:50:37.257091 28917 layer_factory.hpp:77] Creating layer fc8
I0410 18:50:37.257107 28917 net.cpp:84] Creating Layer fc8
I0410 18:50:37.257108 28917 net.cpp:406] fc8 <- fc7
I0410 18:50:37.257112 28917 net.cpp:380] fc8 -> fc8
I0410 18:50:37.258817 28917 net.cpp:122] Setting up fc8
I0410 18:50:37.258824 28917 net.cpp:129] Top shape: 256 43 (11008)
I0410 18:50:37.258826 28917 net.cpp:137] Memory required for data: 2176475136
I0410 18:50:37.258829 28917 layer_factory.hpp:77] Creating layer loss
I0410 18:50:37.258834 28917 net.cpp:84] Creating Layer loss
I0410 18:50:37.258836 28917 net.cpp:406] loss <- fc8
I0410 18:50:37.258838 28917 net.cpp:406] loss <- label
I0410 18:50:37.258843 28917 net.cpp:380] loss -> loss
I0410 18:50:37.258852 28917 layer_factory.hpp:77] Creating layer loss
…
I0410 18:50:37.259829 28917 net.cpp:294] The NetState phase (1) differed from the phase (0) specified by a rule in layer data
I0410 18:50:37.259933 28917 net.cpp:51] Initializing net from parameters: 
name: "CaffeNet"
state {
  phase: TEST
}
layer {
  name: "data"
  type: "Data"
  top: "data"
  top: "label"
  include {
    phase: TEST
  }
  transform_param {
    mirror: false
    crop_size: 250
    mean_file: "/home/user1/GTSRB/input/mean.binaryproto"
  }
  data_param {
    source: "/home/user1/GTSRB/input/validation_lmdb"
    batch_size: 50
    backend: LMDB
  }
}
layer {
  name: "conv1"
  type: "Convolution"
  bottom: "data"
  top: "conv1"
  param {
    lr_mult: 1
    decay_mult: 1
  }
  param {
    lr_mult: 2
    decay_mult: 0
  }
  convolution_param {
    num_output: 96
    kernel_size: 11
    stride: 4
    weight_filler {
      type: "gaussian"
      std: 0.01
    }
    bias_filler {
      type: "constant"
      value: 0
    }
  }
}
layer {
  name: "relu1"
  type: "ReLU"
  bottom: "conv1"
  top: "conv1"
}
layer {
  name: "pool1"
  type: "Pooling"
  bottom: "conv1"
  top: "pool1"
  pooling_param {
    pool: MAX
    kernel_size: 3
    stride: 2
  }
}
layer {
  name: "norm1"
  type: "LRN"
  bottom: "pool1"
  top: "norm1"
  lrn_param {
    local_size: 5
    alpha: 0.0001
    beta: 0.75
  }
}
layer {
  name: "conv2"
  type: "Convolution"
  bottom: "norm1"
  top: "conv2"
  param {
    lr_mult: 1
    decay_mult: 1
  }
  param {
    lr_mult: 2
    decay_mult: 0
  }
  convolution_param {
    num_output: 256
    pad: 2
    kernel_size: 5
    group: 2
    weight_filler {
      type: "gaussian"
      std: 0.01
    }
    bias_filler {
      type: "constant"
      value: 1
    }
  }
}
layer {
  name: "relu2"
  type: "ReLU"
  bottom: "conv2"
  top: "conv2"
}
layer {
  name: "pool2"
  type: "Pooling"
  bottom: "conv2"
  top: "pool2"
  pooling_param {
    pool: MAX
    kernel_size: 3
    stride: 2
  }
}
layer {
  name: "norm2"
  type: "LRN"
  bottom: "pool2"
  top: "norm2"
  lrn_param {
    local_size: 5
    alpha: 0.0001
    beta: 0.75
  }
}
layer {
  name: "conv3"
  type: "Convolution"
  bottom: "norm2"
  top: "conv3"
  param {
    lr_mult: 1
    decay_mult: 1
  }
  param {
    lr_mult: 2
    decay_mult: 0
  }
  convolution_param {
    num_output: 384
    pad: 1
    kernel_size: 3
    weight_filler {
      type: "gaussian"
      std: 0.01
    }
    bias_filler {
      type: "constant"
      value: 0
    }
  }
}
layer {
  name: "relu3"
  type: "ReLU"
  bottom: "conv3"
  top: "conv3"
}
layer {
  name: "conv4"
  type: "Convolution"
  bottom: "conv3"
  top: "conv4"
  param {
    lr_mult: 1
    decay_mult: 1
  }
  param {
    lr_mult: 2
    decay_mult: 0
  }
  convolution_param {
    num_output: 384
    pad: 1
    kernel_size: 3
    group: 2
    weight_filler {
      type: "gaussian"
      std: 0.01
    }
    bias_filler {
      type: "constant"
      value: 1
    }
  }
}
layer {
  name: "relu4"
  type: "ReLU"
  bottom: "conv4"
  top: "conv4"
}
layer {
  name: "conv5"
  type: "Convolution"
  bottom: "conv4"
  top: "conv5"
  param {
    lr_mult: 1
    decay_mult: 1
  }
  param {
    lr_mult: 2
    decay_mult: 0
  }
  convolution_param {
    num_output: 256
    pad: 1
    kernel_size: 3
    group: 2
    weight_filler {
      type: "gaussian"
      std: 0.01
    }
    bias_filler {
      type: "constant"
      value: 1
    }
  }
}
layer {
  name: "relu5"
  type: "ReLU"
  bottom: "conv5"
  top: "conv5"
}
layer {
  name: "pool5"
  type: "Pooling"
  bottom: "conv5"
  top: "pool5"
  pooling_param {
    pool: MAX
    kernel_size: 3
    stride: 2
  }
}
layer {
  name: "fc6"
  type: "InnerProduct"
  bottom: "pool5"
  top: "fc6"
  param {
    lr_mult: 1
    decay_mult: 1
  }
  param {
    lr_mult: 2
    decay_mult: 0
  }
  inner_product_param {
    num_output: 4096
    weight_filler {
      type: "gaussian"
      std: 0.005
    }
    bias_filler {
      type: "constant"
      value: 1
    }
  }
}
layer {
  name: "relu6"
  type: "ReLU"
  bottom: "fc6"
  top: "fc6"
}
layer {
  name: "drop6"
  type: "Dropout"
  bottom: "fc6"
  top: "fc6"
  dropout_param {
    dropout_ratio: 0.5
  }
}
layer {
  name: "fc7"
  type: "InnerProduct"
  bottom: "fc6"
  top: "fc7"
  param {
    lr_mult: 1
    decay_mult: 1
  }
  param {
    lr_mult: 2
    decay_mult: 0
  }
  inner_product_param {
    num_output: 4096
    weight_filler {
      type: "gaussian"
      std: 0.005
    }
    bias_filler {
      type: "constant"
      value: 1
    }
  }
}
layer {
  name: "relu7"
  type: "ReLU"
  bottom: "fc7"
  top: "fc7"
}
layer {
  name: "drop7"
  type: "Dropout"
  bottom: "fc7"
  top: "fc7"
  dropout_param {
    dropout_ratio: 0.5
  }
}
layer {
  name: "fc8"
  type: "InnerProduct"
  bottom: "fc7"
  top: "fc8"
  param {
    lr_mult: 1
    decay_mult: 1
  }
  param {
    lr_mult: 2
    decay_mult: 0
  }
  inner_product_param {
    num_output: 43
    weight_filler {
      type: "gaussian"
      std: 0.01
    }
    bias_filler {
      type: "constant"
      value: 0
    }
  }
}
layer {
  name: "accuracy"
  type: "Accuracy"
  bottom: "fc8"
  bottom: "label"
  top: "accuracy"
  include {
    phase: TEST
  }
}
layer {
  name: "loss"
  type: "SoftmaxWithLoss"
  bottom: "fc8"
  bottom: "label"
  top: "loss"
}
I0410 18:50:37.260005 28917 layer_factory.hpp:77] Creating layer data
I0410 18:50:37.260043 28917 db_lmdb.cpp:35] Opened lmdb /home/user1/GTSRB/input/validation_lmdb
I0410 18:50:37.260053 28917 net.cpp:84] Creating Layer data
I0410 18:50:37.260058 28917 net.cpp:380] data -> data
I0410 18:50:37.260062 28917 net.cpp:380] data -> label
I0410 18:50:37.260067 28917 data_transformer.cpp:25] Loading mean file from: /home/user1/GTSRB/input/mean.binaryproto
I0410 18:50:37.261035 28917 data_layer.cpp:45] output data size: 50,3,250,250
I0410 18:50:37.305105 28917 net.cpp:122] Setting up data
I0410 18:50:37.305124 28917 net.cpp:129] Top shape: 50 3 250 250 (9375000)
I0410 18:50:37.305126 28917 net.cpp:129] Top shape: 50 (50)
I0410 18:50:37.305129 28917 net.cpp:137] Memory required for data: 37500200
I0410 18:50:37.305132 28917 layer_factory.hpp:77] Creating layer label_data_1_split
I0410 18:50:37.305140 28917 net.cpp:84] Creating Layer label_data_1_split
I0410 18:50:37.305142 28917 net.cpp:406] label_data_1_split <- label
I0410 18:50:37.305146 28917 net.cpp:380] label_data_1_split -> label_data_1_split_0
I0410 18:50:37.305152 28917 net.cpp:380] label_data_1_split -> label_data_1_split_1
I0410 18:50:37.305246 28917 net.cpp:122] Setting up label_data_1_split
I0410 18:50:37.305251 28917 net.cpp:129] Top shape: 50 (50)
I0410 18:50:37.305253 28917 net.cpp:129] Top shape: 50 (50)
I0410 18:50:37.305255 28917 net.cpp:137] Memory required for data: 37500600
I0410 18:50:37.305256 28917 layer_factory.hpp:77] Creating layer conv1
I0410 18:50:37.305263 28917 net.cpp:84] Creating Layer conv1
I0410 18:50:37.305266 28917 net.cpp:406] conv1 <- data
I0410 18:50:37.305269 28917 net.cpp:380] conv1 -> conv1
I0410 18:50:37.309437 28917 net.cpp:122] Setting up conv1
I0410 18:50:37.309447 28917 net.cpp:129] Top shape: 50 96 60 60 (17280000)
I0410 18:50:37.309449 28917 net.cpp:137] Memory required for data: 106620600
I0410 18:50:37.309456 28917 layer_factory.hpp:77] Creating layer relu1
I0410 18:50:37.309460 28917 net.cpp:84] Creating Layer relu1
I0410 18:50:37.309463 28917 net.cpp:406] relu1 <- conv1
I0410 18:50:37.309465 28917 net.cpp:367] relu1 -> conv1 (in-place)
I0410 18:50:37.309569 28917 net.cpp:122] Setting up relu1
I0410 18:50:37.309574 28917 net.cpp:129] Top shape: 50 96 60 60 (17280000)
I0410 18:50:37.309576 28917 net.cpp:137] Memory required for data: 175740600
I0410 18:50:37.309578 28917 layer_factory.hpp:77] Creating layer pool1
I0410 18:50:37.309583 28917 net.cpp:84] Creating Layer pool1
I0410 18:50:37.309586 28917 net.cpp:406] pool1 <- conv1
I0410 18:50:37.309588 28917 net.cpp:380] pool1 -> pool1
I0410 18:50:37.309617 28917 net.cpp:122] Setting up pool1
I0410 18:50:37.309620 28917 net.cpp:129] Top shape: 50 96 30 30 (4320000)
I0410 18:50:37.309623 28917 net.cpp:137] Memory required for data: 193020600
I0410 18:50:37.309623 28917 layer_factory.hpp:77] Creating layer norm1
I0410 18:50:37.309628 28917 net.cpp:84] Creating Layer norm1
I0410 18:50:37.309629 28917 net.cpp:406] norm1 <- pool1
I0410 18:50:37.309633 28917 net.cpp:380] norm1 -> norm1
I0410 18:50:37.310246 28917 net.cpp:122] Setting up norm1
I0410 18:50:37.310256 28917 net.cpp:129] Top shape: 50 96 30 30 (4320000)
I0410 18:50:37.310257 28917 net.cpp:137] Memory required for data: 210300600
I0410 18:50:37.310259 28917 layer_factory.hpp:77] Creating layer conv2
I0410 18:50:37.310264 28917 net.cpp:84] Creating Layer conv2
I0410 18:50:37.310266 28917 net.cpp:406] conv2 <- norm1
I0410 18:50:37.310271 28917 net.cpp:380] conv2 -> conv2
I0410 18:50:37.313998 28917 net.cpp:122] Setting up conv2
I0410 18:50:37.314008 28917 net.cpp:129] Top shape: 50 256 30 30 (11520000)
I0410 18:50:37.314012 28917 net.cpp:137] Memory required for data: 256380600
I0410 18:50:37.314016 28917 layer_factory.hpp:77] Creating layer relu2
I0410 18:50:37.314020 28917 net.cpp:84] Creating Layer relu2
I0410 18:50:37.314023 28917 net.cpp:406] relu2 <- conv2
I0410 18:50:37.314025 28917 net.cpp:367] relu2 -> conv2 (in-place)
I0410 18:50:37.314635 28917 net.cpp:122] Setting up relu2
I0410 18:50:37.314643 28917 net.cpp:129] Top shape: 50 256 30 30 (11520000)
I0410 18:50:37.314647 28917 net.cpp:137] Memory required for data: 302460600
I0410 18:50:37.314651 28917 layer_factory.hpp:77] Creating layer pool2
I0410 18:50:37.314659 28917 net.cpp:84] Creating Layer pool2
I0410 18:50:37.314664 28917 net.cpp:406] pool2 <- conv2
I0410 18:50:37.314671 28917 net.cpp:380] pool2 -> pool2
I0410 18:50:37.314708 28917 net.cpp:122] Setting up pool2
I0410 18:50:37.314715 28917 net.cpp:129] Top shape: 50 256 15 15 (2880000)
I0410 18:50:37.314718 28917 net.cpp:137] Memory required for data: 313980600
I0410 18:50:37.314720 28917 layer_factory.hpp:77] Creating layer norm2
I0410 18:50:37.314728 28917 net.cpp:84] Creating Layer norm2
I0410 18:50:37.314731 28917 net.cpp:406] norm2 <- pool2
I0410 18:50:37.314736 28917 net.cpp:380] norm2 -> norm2
I0410 18:50:37.314884 28917 net.cpp:122] Setting up norm2
I0410 18:50:37.314906 28917 net.cpp:129] Top shape: 50 256 15 15 (2880000)
I0410 18:50:37.314919 28917 net.cpp:137] Memory required for data: 325500600
I0410 18:50:37.314924 28917 layer_factory.hpp:77] Creating layer conv3
I0410 18:50:37.314934 28917 net.cpp:84] Creating Layer conv3
I0410 18:50:37.314939 28917 net.cpp:406] conv3 <- norm2
I0410 18:50:37.314944 28917 net.cpp:380] conv3 -> conv3
I0410 18:50:37.323720 28917 net.cpp:122] Setting up conv3
I0410 18:50:37.323738 28917 net.cpp:129] Top shape: 50 384 15 15 (4320000)
I0410 18:50:37.323742 28917 net.cpp:137] Memory required for data: 342780600
I0410 18:50:37.323753 28917 layer_factory.hpp:77] Creating layer relu3
I0410 18:50:37.323761 28917 net.cpp:84] Creating Layer relu3
I0410 18:50:37.323767 28917 net.cpp:406] relu3 <- conv3
I0410 18:50:37.323774 28917 net.cpp:367] relu3 -> conv3 (in-place)
I0410 18:50:37.323901 28917 net.cpp:122] Setting up relu3
I0410 18:50:37.323909 28917 net.cpp:129] Top shape: 50 384 15 15 (4320000)
I0410 18:50:37.323910 28917 net.cpp:137] Memory required for data: 360060600
I0410 18:50:37.323915 28917 layer_factory.hpp:77] Creating layer conv4
I0410 18:50:37.323923 28917 net.cpp:84] Creating Layer conv4
I0410 18:50:37.323926 28917 net.cpp:406] conv4 <- conv3
I0410 18:50:37.323932 28917 net.cpp:380] conv4 -> conv4
I0410 18:50:37.332499 28917 net.cpp:122] Setting up conv4
I0410 18:50:37.332512 28917 net.cpp:129] Top shape: 50 384 15 15 (4320000)
I0410 18:50:37.332515 28917 net.cpp:137] Memory required for data: 377340600
I0410 18:50:37.332522 28917 layer_factory.hpp:77] Creating layer relu4
I0410 18:50:37.332530 28917 net.cpp:84] Creating Layer relu4
I0410 18:50:37.332535 28917 net.cpp:406] relu4 <- conv4
I0410 18:50:37.332540 28917 net.cpp:367] relu4 -> conv4 (in-place)
I0410 18:50:37.332670 28917 net.cpp:122] Setting up relu4
I0410 18:50:37.332679 28917 net.cpp:129] Top shape: 50 384 15 15 (4320000)
I0410 18:50:37.332681 28917 net.cpp:137] Memory required for data: 394620600
I0410 18:50:37.332684 28917 layer_factory.hpp:77] Creating layer conv5
I0410 18:50:37.332692 28917 net.cpp:84] Creating Layer conv5
I0410 18:50:37.332696 28917 net.cpp:406] conv5 <- conv4
I0410 18:50:37.332702 28917 net.cpp:380] conv5 -> conv5
I0410 18:50:37.338963 28917 net.cpp:122] Setting up conv5
I0410 18:50:37.338979 28917 net.cpp:129] Top shape: 50 256 15 15 (2880000)
I0410 18:50:37.338981 28917 net.cpp:137] Memory required for data: 406140600
I0410 18:50:37.338994 28917 layer_factory.hpp:77] Creating layer relu5
I0410 18:50:37.339001 28917 net.cpp:84] Creating Layer relu5
I0410 18:50:37.339006 28917 net.cpp:406] relu5 <- conv5
I0410 18:50:37.339012 28917 net.cpp:367] relu5 -> conv5 (in-place)
I0410 18:50:37.339136 28917 net.cpp:122] Setting up relu5
I0410 18:50:37.339143 28917 net.cpp:129] Top shape: 50 256 15 15 (2880000)
I0410 18:50:37.339146 28917 net.cpp:137] Memory required for data: 417660600
I0410 18:50:37.339150 28917 layer_factory.hpp:77] Creating layer pool5
I0410 18:50:37.339159 28917 net.cpp:84] Creating Layer pool5
I0410 18:50:37.339162 28917 net.cpp:406] pool5 <- conv5
I0410 18:50:37.339167 28917 net.cpp:380] pool5 -> pool5
I0410 18:50:37.339215 28917 net.cpp:122] Setting up pool5
I0410 18:50:37.339221 28917 net.cpp:129] Top shape: 50 256 7 7 (627200)
I0410 18:50:37.339224 28917 net.cpp:137] Memory required for data: 420169400
I0410 18:50:37.339227 28917 layer_factory.hpp:77] Creating layer fc6
I0410 18:50:37.339234 28917 net.cpp:84] Creating Layer fc6
I0410 18:50:37.339238 28917 net.cpp:406] fc6 <- pool5
I0410 18:50:37.339243 28917 net.cpp:380] fc6 -> fc6
I0410 18:50:37.688964 28917 net.cpp:122] Setting up fc6
I0410 18:50:37.688982 28917 net.cpp:129] Top shape: 50 4096 (204800)
I0410 18:50:37.688985 28917 net.cpp:137] Memory required for data: 420988600
I0410 18:50:37.688993 28917 layer_factory.hpp:77] Creating layer relu6
I0410 18:50:37.689000 28917 net.cpp:84] Creating Layer relu6
I0410 18:50:37.689004 28917 net.cpp:406] relu6 <- fc6
I0410 18:50:37.689010 28917 net.cpp:367] relu6 -> fc6 (in-place)
I0410 18:50:37.689167 28917 net.cpp:122] Setting up relu6
I0410 18:50:37.689173 28917 net.cpp:129] Top shape: 50 4096 (204800)
I0410 18:50:37.689177 28917 net.cpp:137] Memory required for data: 421807800
I0410 18:50:37.689180 28917 layer_factory.hpp:77] Creating layer drop6
I0410 18:50:37.689188 28917 net.cpp:84] Creating Layer drop6
I0410 18:50:37.689191 28917 net.cpp:406] drop6 <- fc6
I0410 18:50:37.689196 28917 net.cpp:367] drop6 -> fc6 (in-place)
I0410 18:50:37.689220 28917 net.cpp:122] Setting up drop6
I0410 18:50:37.689225 28917 net.cpp:129] Top shape: 50 4096 (204800)
I0410 18:50:37.689229 28917 net.cpp:137] Memory required for data: 422627000
I0410 18:50:37.689231 28917 layer_factory.hpp:77] Creating layer fc7
I0410 18:50:37.689239 28917 net.cpp:84] Creating Layer fc7
I0410 18:50:37.689241 28917 net.cpp:406] fc7 <- fc6
I0410 18:50:37.689246 28917 net.cpp:380] fc7 -> fc7
I0410 18:50:37.802424 28917 net.cpp:122] Setting up fc7
I0410 18:50:37.802443 28917 net.cpp:129] Top shape: 50 4096 (204800)
I0410 18:50:37.802446 28917 net.cpp:137] Memory required for data: 423446200
I0410 18:50:37.802454 28917 layer_factory.hpp:77] Creating layer relu7
I0410 18:50:37.802462 28917 net.cpp:84] Creating Layer relu7
I0410 18:50:37.802469 28917 net.cpp:406] relu7 <- fc7
I0410 18:50:37.802474 28917 net.cpp:367] relu7 -> fc7 (in-place)
I0410 18:50:37.803172 28917 net.cpp:122] Setting up relu7
I0410 18:50:37.803181 28917 net.cpp:129] Top shape: 50 4096 (204800)
I0410 18:50:37.803184 28917 net.cpp:137] Memory required for data: 424265400
I0410 18:50:37.803187 28917 layer_factory.hpp:77] Creating layer drop7
I0410 18:50:37.803194 28917 net.cpp:84] Creating Layer drop7
I0410 18:50:37.803198 28917 net.cpp:406] drop7 <- fc7
I0410 18:50:37.803202 28917 net.cpp:367] drop7 -> fc7 (in-place)
I0410 18:50:37.803228 28917 net.cpp:122] Setting up drop7
I0410 18:50:37.803233 28917 net.cpp:129] Top shape: 50 4096 (204800)
I0410 18:50:37.803236 28917 net.cpp:137] Memory required for data: 425084600
I0410 18:50:37.803239 28917 layer_factory.hpp:77] Creating layer fc8
I0410 18:50:37.803246 28917 net.cpp:84] Creating Layer fc8
I0410 18:50:37.803249 28917 net.cpp:406] fc8 <- fc7
I0410 18:50:37.803254 28917 net.cpp:380] fc8 -> fc8
I0410 18:50:37.804407 28917 net.cpp:122] Setting up fc8
I0410 18:50:37.804414 28917 net.cpp:129] Top shape: 50 43 (2150)
I0410 18:50:37.804416 28917 net.cpp:137] Memory required for data: 425093200
I0410 18:50:37.804422 28917 layer_factory.hpp:77] Creating layer fc8_fc8_0_split
I0410 18:50:37.804428 28917 net.cpp:84] Creating Layer fc8_fc8_0_split
I0410 18:50:37.804432 28917 net.cpp:406] fc8_fc8_0_split <- fc8
I0410 18:50:37.804436 28917 net.cpp:380] fc8_fc8_0_split -> fc8_fc8_0_split_0
I0410 18:50:37.804445 28917 net.cpp:380] fc8_fc8_0_split -> fc8_fc8_0_split_1
I0410 18:50:37.804472 28917 net.cpp:122] Setting up fc8_fc8_0_split
I0410 18:50:37.804477 28917 net.cpp:129] Top shape: 50 43 (2150)
I0410 18:50:37.804481 28917 net.cpp:129] Top shape: 50 43 (2150)
I0410 18:50:37.804486 28917 net.cpp:137] Memory required for data: 425110400
I0410 18:50:37.804488 28917 layer_factory.hpp:77] Creating layer accuracy
I0410 18:50:37.804507 28917 net.cpp:84] Creating Layer accuracy
I0410 18:50:37.804510 28917 net.cpp:406] accuracy <- fc8_fc8_0_split_0
I0410 18:50:37.804515 28917 net.cpp:406] accuracy <- label_data_1_split_0
I0410 18:50:37.804522 28917 net.cpp:380] accuracy -> accuracy
…
