…
I0511 13:15:26.589392 24587 net.cpp:294] The NetState phase (0) differed from the phase (1) specified by a rule in layer accuracy
I0511 13:15:26.589509 24587 net.cpp:51] Initializing net from parameters: 
name: "CaffeNet"
state {
  phase: TRAIN
  level: 0
  stage: ""
}
layer {
  name: "data"
  type: "Data"
  top: "data"
  top: "label"
  include {
    phase: TRAIN
  }
  transform_param {
    mirror: true
    crop_size: 256
    mean_file: "/home/user1/GTSRB/input/mean_256.binaryproto"
  }
  data_param {
    source: "/home/user1/GTSRB/input/train_lmdb_256"
    batch_size: 256
    backend: LMDB
  }
}
layer {
  name: "conv1"
  type: "Convolution"
  bottom: "data"
  top: "conv1"
  param {
    lr_mult: 1
    decay_mult: 1
  }
  param {
    lr_mult: 2
    decay_mult: 0
  }
  convolution_param {
    num_output: 96
    kernel_size: 11
    stride: 4
    weight_filler {
      type: "gaussian"
      std: 0.01
    }
    bias_filler {
      type: "constant"
      value: 0
    }
  }
}
layer {
  name: "relu1"
  type: "ReLU"
  bottom: "conv1"
  top: "conv1"
}
layer {
  name: "pool1"
  type: "Pooling"
  bottom: "conv1"
  top: "pool1"
  pooling_param {
    pool: MAX
    kernel_size: 3
    stride: 2
  }
}
layer {
  name: "norm1"
  type: "LRN"
  bottom: "pool1"
  top: "norm1"
  lrn_param {
    local_size: 5
    alpha: 0.0001
    beta: 0.75
  }
}
layer {
  name: "conv2"
  type: "Convolution"
  bottom: "norm1"
  top: "conv2"
  param {
    lr_mult: 1
    decay_mult: 1
  }
  param {
    lr_mult: 2
    decay_mult: 0
  }
  convolution_param {
    num_output: 256
    pad: 2
    kernel_size: 5
    group: 2
    weight_filler {
      type: "gaussian"
      std: 0.01
    }
    bias_filler {
      type: "constant"
      value: 1
    }
  }
}
layer {
  name: "relu2"
  type: "ReLU"
  bottom: "conv2"
  top: "conv2"
}
layer {
  name: "pool2"
  type: "Pooling"
  bottom: "conv2"
  top: "pool2"
  pooling_param {
    pool: MAX
    kernel_size: 3
    stride: 2
  }
}
layer {
  name: "norm2"
  type: "LRN"
  bottom: "pool2"
  top: "norm2"
  lrn_param {
    local_size: 5
    alpha: 0.0001
    beta: 0.75
  }
}
layer {
  name: "conv3"
  type: "Convolution"
  bottom: "norm2"
  top: "conv3"
  param {
    lr_mult: 1
    decay_mult: 1
  }
  param {
    lr_mult: 2
    decay_mult: 0
  }
  convolution_param {
    num_output: 384
    pad: 1
    kernel_size: 3
    weight_filler {
      type: "gaussian"
      std: 0.01
    }
    bias_filler {
      type: "constant"
      value: 0
    }
  }
}
layer {
  name: "relu3"
  type: "ReLU"
  bottom: "conv3"
  top: "conv3"
}
layer {
  name: "conv4"
  type: "Convolution"
  bottom: "conv3"
  top: "conv4"
  param {
    lr_mult: 1
    decay_mult: 1
  }
  param {
    lr_mult: 2
    decay_mult: 0
  }
  convolution_param {
    num_output: 384
    pad: 1
    kernel_size: 3
    group: 2
    weight_filler {
      type: "gaussian"
      std: 0.01
    }
    bias_filler {
      type: "constant"
      value: 1
    }
  }
}
layer {
  name: "relu4"
  type: "ReLU"
  bottom: "conv4"
  top: "conv4"
}
layer {
  name: "conv5"
  type: "Convolution"
  bottom: "conv4"
  top: "conv5"
  param {
    lr_mult: 1
    decay_mult: 1
  }
  param {
    lr_mult: 2
    decay_mult: 0
  }
  convolution_param {
    num_output: 256
    pad: 1
    kernel_size: 3
    group: 2
    weight_filler {
      type: "gaussian"
      std: 0.01
    }
    bias_filler {
      type: "constant"
      value: 1
    }
  }
}
layer {
  name: "relu5"
  type: "ReLU"
  bottom: "conv5"
  top: "conv5"
}
layer {
  name: "pool5"
  type: "Pooling"
  bottom: "conv5"
  top: "pool5"
  pooling_param {
    pool: MAX
    kernel_size: 3
    stride: 2
  }
}
layer {
  name: "fc6"
  type: "InnerProduct"
  bottom: "pool5"
  top: "fc6"
  param {
    lr_mult: 1
    decay_mult: 1
  }
  param {
    lr_mult: 2
    decay_mult: 0
  }
  inner_product_param {
    num_output: 4096
    weight_filler {
      type: "gaussian"
      std: 0.005
    }
    bias_filler {
      type: "constant"
      value: 1
    }
  }
}
layer {
  name: "relu6"
  type: "ReLU"
  bottom: "fc6"
  top: "fc6"
}
layer {
  name: "drop6"
  type: "Dropout"
  bottom: "fc6"
  top: "fc6"
  dropout_param {
    dropout_ratio: 0.5
  }
}
layer {
  name: "fc7"
  type: "InnerProduct"
  bottom: "fc6"
  top: "fc7"
  param {
    lr_mult: 1
    decay_mult: 1
  }
  param {
    lr_mult: 2
    decay_mult: 0
  }
  inner_product_param {
    num_output: 4096
    weight_filler {
      type: "gaussian"
      std: 0.005
    }
    bias_filler {
      type: "constant"
      value: 1
    }
  }
}
layer {
  name: "relu7"
  type: "ReLU"
  bottom: "fc7"
  top: "fc7"
}
layer {
  name: "drop7"
  type: "Dropout"
  bottom: "fc7"
  top: "fc7"
  dropout_param {
    dropout_ratio: 0.5
  }
}
layer {
  name: "fc8"
  type: "InnerProduct"
  bottom: "fc7"
  top: "fc8"
  param {
    lr_mult: 1
    decay_mult: 1
  }
  param {
    lr_mult: 2
    decay_mult: 0
  }
  inner_product_param {
    num_output: 43
    weight_filler {
      type: "gaussian"
      std: 0.01
    }
    bias_filler {
      type: "constant"
      value: 0
    }
  }
}
layer {
  name: "loss"
  type: "SoftmaxWithLoss"
  bottom: "fc8"
  bottom: "label"
  top: "loss"
}
I0511 13:15:26.589573 24587 layer_factory.hpp:77] Creating layer data
I0511 13:15:26.589659 24587 db_lmdb.cpp:35] Opened lmdb /home/user1/GTSRB/input/train_lmdb_256
I0511 13:15:26.589679 24587 net.cpp:84] Creating Layer data
I0511 13:15:26.589685 24587 net.cpp:380] data -> data
I0511 13:15:26.589699 24587 net.cpp:380] data -> label
I0511 13:15:26.589711 24587 data_transformer.cpp:25] Loading mean file from: /home/user1/GTSRB/input/mean_256.binaryproto
I0511 13:15:26.591857 24587 data_layer.cpp:45] output data size: 256,3,256,256
I0511 13:15:26.806382 24587 net.cpp:122] Setting up data
I0511 13:15:26.806399 24587 net.cpp:129] Top shape: 256 3 256 256 (50331648)
I0511 13:15:26.806403 24587 net.cpp:129] Top shape: 256 (256)
I0511 13:15:26.806406 24587 net.cpp:137] Memory required for data: 201327616
I0511 13:15:26.806411 24587 layer_factory.hpp:77] Creating layer conv1
I0511 13:15:26.806427 24587 net.cpp:84] Creating Layer conv1
I0511 13:15:26.806430 24587 net.cpp:406] conv1 <- data
I0511 13:15:26.806438 24587 net.cpp:380] conv1 -> conv1
I0511 13:15:27.239822 24587 net.cpp:122] Setting up conv1
I0511 13:15:27.239841 24587 net.cpp:129] Top shape: 256 96 62 62 (94470144)
I0511 13:15:27.239845 24587 net.cpp:137] Memory required for data: 579208192
I0511 13:15:27.239874 24587 layer_factory.hpp:77] Creating layer relu1
I0511 13:15:27.239886 24587 net.cpp:84] Creating Layer relu1
I0511 13:15:27.239890 24587 net.cpp:406] relu1 <- conv1
I0511 13:15:27.239897 24587 net.cpp:367] relu1 -> conv1 (in-place)
I0511 13:15:27.240021 24587 net.cpp:122] Setting up relu1
I0511 13:15:27.240028 24587 net.cpp:129] Top shape: 256 96 62 62 (94470144)
I0511 13:15:27.240031 24587 net.cpp:137] Memory required for data: 957088768
I0511 13:15:27.240032 24587 layer_factory.hpp:77] Creating layer pool1
I0511 13:15:27.240036 24587 net.cpp:84] Creating Layer pool1
I0511 13:15:27.240038 24587 net.cpp:406] pool1 <- conv1
I0511 13:15:27.240041 24587 net.cpp:380] pool1 -> pool1
I0511 13:15:27.240078 24587 net.cpp:122] Setting up pool1
I0511 13:15:27.240082 24587 net.cpp:129] Top shape: 256 96 31 31 (23617536)
I0511 13:15:27.240085 24587 net.cpp:137] Memory required for data: 1051558912
I0511 13:15:27.240087 24587 layer_factory.hpp:77] Creating layer norm1
I0511 13:15:27.240104 24587 net.cpp:84] Creating Layer norm1
I0511 13:15:27.240106 24587 net.cpp:406] norm1 <- pool1
I0511 13:15:27.240109 24587 net.cpp:380] norm1 -> norm1
I0511 13:15:27.240710 24587 net.cpp:122] Setting up norm1
I0511 13:15:27.240718 24587 net.cpp:129] Top shape: 256 96 31 31 (23617536)
I0511 13:15:27.240720 24587 net.cpp:137] Memory required for data: 1146029056
I0511 13:15:27.240722 24587 layer_factory.hpp:77] Creating layer conv2
I0511 13:15:27.240730 24587 net.cpp:84] Creating Layer conv2
I0511 13:15:27.240731 24587 net.cpp:406] conv2 <- norm1
I0511 13:15:27.240734 24587 net.cpp:380] conv2 -> conv2
I0511 13:15:27.244586 24587 net.cpp:122] Setting up conv2
I0511 13:15:27.244595 24587 net.cpp:129] Top shape: 256 256 31 31 (62980096)
I0511 13:15:27.244597 24587 net.cpp:137] Memory required for data: 1397949440
I0511 13:15:27.244602 24587 layer_factory.hpp:77] Creating layer relu2
I0511 13:15:27.244606 24587 net.cpp:84] Creating Layer relu2
I0511 13:15:27.244608 24587 net.cpp:406] relu2 <- conv2
I0511 13:15:27.244611 24587 net.cpp:367] relu2 -> conv2 (in-place)
I0511 13:15:27.245178 24587 net.cpp:122] Setting up relu2
I0511 13:15:27.245187 24587 net.cpp:129] Top shape: 256 256 31 31 (62980096)
I0511 13:15:27.245188 24587 net.cpp:137] Memory required for data: 1649869824
I0511 13:15:27.245190 24587 layer_factory.hpp:77] Creating layer pool2
I0511 13:15:27.245193 24587 net.cpp:84] Creating Layer pool2
I0511 13:15:27.245195 24587 net.cpp:406] pool2 <- conv2
I0511 13:15:27.245198 24587 net.cpp:380] pool2 -> pool2
I0511 13:15:27.245227 24587 net.cpp:122] Setting up pool2
I0511 13:15:27.245239 24587 net.cpp:129] Top shape: 256 256 15 15 (14745600)
I0511 13:15:27.245242 24587 net.cpp:137] Memory required for data: 1708852224
I0511 13:15:27.245244 24587 layer_factory.hpp:77] Creating layer norm2
I0511 13:15:27.245249 24587 net.cpp:84] Creating Layer norm2
I0511 13:15:27.245250 24587 net.cpp:406] norm2 <- pool2
I0511 13:15:27.245254 24587 net.cpp:380] norm2 -> norm2
I0511 13:15:27.245374 24587 net.cpp:122] Setting up norm2
I0511 13:15:27.245381 24587 net.cpp:129] Top shape: 256 256 15 15 (14745600)
I0511 13:15:27.245383 24587 net.cpp:137] Memory required for data: 1767834624
I0511 13:15:27.245385 24587 layer_factory.hpp:77] Creating layer conv3
I0511 13:15:27.245391 24587 net.cpp:84] Creating Layer conv3
I0511 13:15:27.245393 24587 net.cpp:406] conv3 <- norm2
I0511 13:15:27.245396 24587 net.cpp:380] conv3 -> conv3
I0511 13:15:27.252974 24587 net.cpp:122] Setting up conv3
I0511 13:15:27.252992 24587 net.cpp:129] Top shape: 256 384 15 15 (22118400)
I0511 13:15:27.252996 24587 net.cpp:137] Memory required for data: 1856308224
I0511 13:15:27.253007 24587 layer_factory.hpp:77] Creating layer relu3
I0511 13:15:27.253016 24587 net.cpp:84] Creating Layer relu3
I0511 13:15:27.253021 24587 net.cpp:406] relu3 <- conv3
I0511 13:15:27.253026 24587 net.cpp:367] relu3 -> conv3 (in-place)
I0511 13:15:27.253185 24587 net.cpp:122] Setting up relu3
I0511 13:15:27.253196 24587 net.cpp:129] Top shape: 256 384 15 15 (22118400)
I0511 13:15:27.253201 24587 net.cpp:137] Memory required for data: 1944781824
I0511 13:15:27.253202 24587 layer_factory.hpp:77] Creating layer conv4
I0511 13:15:27.253211 24587 net.cpp:84] Creating Layer conv4
I0511 13:15:27.253216 24587 net.cpp:406] conv4 <- conv3
I0511 13:15:27.253221 24587 net.cpp:380] conv4 -> conv4
I0511 13:15:27.260018 24587 net.cpp:122] Setting up conv4
I0511 13:15:27.260028 24587 net.cpp:129] Top shape: 256 384 15 15 (22118400)
I0511 13:15:27.260031 24587 net.cpp:137] Memory required for data: 2033255424
I0511 13:15:27.260035 24587 layer_factory.hpp:77] Creating layer relu4
I0511 13:15:27.260040 24587 net.cpp:84] Creating Layer relu4
I0511 13:15:27.260042 24587 net.cpp:406] relu4 <- conv4
I0511 13:15:27.260046 24587 net.cpp:367] relu4 -> conv4 (in-place)
I0511 13:15:27.260161 24587 net.cpp:122] Setting up relu4
I0511 13:15:27.260167 24587 net.cpp:129] Top shape: 256 384 15 15 (22118400)
I0511 13:15:27.260169 24587 net.cpp:137] Memory required for data: 2121729024
I0511 13:15:27.260181 24587 layer_factory.hpp:77] Creating layer conv5
I0511 13:15:27.260187 24587 net.cpp:84] Creating Layer conv5
I0511 13:15:27.260190 24587 net.cpp:406] conv5 <- conv4
I0511 13:15:27.260193 24587 net.cpp:380] conv5 -> conv5
I0511 13:15:27.265462 24587 net.cpp:122] Setting up conv5
I0511 13:15:27.265471 24587 net.cpp:129] Top shape: 256 256 15 15 (14745600)
I0511 13:15:27.265473 24587 net.cpp:137] Memory required for data: 2180711424
I0511 13:15:27.265480 24587 layer_factory.hpp:77] Creating layer relu5
I0511 13:15:27.265486 24587 net.cpp:84] Creating Layer relu5
I0511 13:15:27.265487 24587 net.cpp:406] relu5 <- conv5
I0511 13:15:27.265491 24587 net.cpp:367] relu5 -> conv5 (in-place)
I0511 13:15:27.265606 24587 net.cpp:122] Setting up relu5
I0511 13:15:27.265612 24587 net.cpp:129] Top shape: 256 256 15 15 (14745600)
I0511 13:15:27.265614 24587 net.cpp:137] Memory required for data: 2239693824
I0511 13:15:27.265615 24587 layer_factory.hpp:77] Creating layer pool5
I0511 13:15:27.265620 24587 net.cpp:84] Creating Layer pool5
I0511 13:15:27.265624 24587 net.cpp:406] pool5 <- conv5
I0511 13:15:27.265626 24587 net.cpp:380] pool5 -> pool5
I0511 13:15:27.265655 24587 net.cpp:122] Setting up pool5
I0511 13:15:27.265660 24587 net.cpp:129] Top shape: 256 256 7 7 (3211264)
I0511 13:15:27.265661 24587 net.cpp:137] Memory required for data: 2252538880
I0511 13:15:27.265662 24587 layer_factory.hpp:77] Creating layer fc6
I0511 13:15:27.265669 24587 net.cpp:84] Creating Layer fc6
I0511 13:15:27.265671 24587 net.cpp:406] fc6 <- pool5
I0511 13:15:27.265676 24587 net.cpp:380] fc6 -> fc6
I0511 13:15:27.609061 24587 net.cpp:122] Setting up fc6
I0511 13:15:27.609079 24587 net.cpp:129] Top shape: 256 4096 (1048576)
I0511 13:15:27.609081 24587 net.cpp:137] Memory required for data: 2256733184
I0511 13:15:27.609087 24587 layer_factory.hpp:77] Creating layer relu6
I0511 13:15:27.609093 24587 net.cpp:84] Creating Layer relu6
I0511 13:15:27.609096 24587 net.cpp:406] relu6 <- fc6
I0511 13:15:27.609100 24587 net.cpp:367] relu6 -> fc6 (in-place)
I0511 13:15:27.609786 24587 net.cpp:122] Setting up relu6
I0511 13:15:27.609794 24587 net.cpp:129] Top shape: 256 4096 (1048576)
I0511 13:15:27.609797 24587 net.cpp:137] Memory required for data: 2260927488
I0511 13:15:27.609798 24587 layer_factory.hpp:77] Creating layer drop6
I0511 13:15:27.609802 24587 net.cpp:84] Creating Layer drop6
I0511 13:15:27.609804 24587 net.cpp:406] drop6 <- fc6
I0511 13:15:27.609807 24587 net.cpp:367] drop6 -> fc6 (in-place)
I0511 13:15:27.609824 24587 net.cpp:122] Setting up drop6
I0511 13:15:27.609828 24587 net.cpp:129] Top shape: 256 4096 (1048576)
I0511 13:15:27.609830 24587 net.cpp:137] Memory required for data: 2265121792
I0511 13:15:27.609833 24587 layer_factory.hpp:77] Creating layer fc7
I0511 13:15:27.609838 24587 net.cpp:84] Creating Layer fc7
I0511 13:15:27.609840 24587 net.cpp:406] fc7 <- fc6
I0511 13:15:27.609843 24587 net.cpp:380] fc7 -> fc7
I0511 13:15:27.722446 24587 net.cpp:122] Setting up fc7
I0511 13:15:27.722466 24587 net.cpp:129] Top shape: 256 4096 (1048576)
I0511 13:15:27.722470 24587 net.cpp:137] Memory required for data: 2269316096
I0511 13:15:27.722476 24587 layer_factory.hpp:77] Creating layer relu7
I0511 13:15:27.722481 24587 net.cpp:84] Creating Layer relu7
I0511 13:15:27.722483 24587 net.cpp:406] relu7 <- fc7
I0511 13:15:27.722488 24587 net.cpp:367] relu7 -> fc7 (in-place)
I0511 13:15:27.722640 24587 net.cpp:122] Setting up relu7
I0511 13:15:27.722645 24587 net.cpp:129] Top shape: 256 4096 (1048576)
I0511 13:15:27.722647 24587 net.cpp:137] Memory required for data: 2273510400
I0511 13:15:27.722650 24587 layer_factory.hpp:77] Creating layer drop7
I0511 13:15:27.722653 24587 net.cpp:84] Creating Layer drop7
I0511 13:15:27.722657 24587 net.cpp:406] drop7 <- fc7
I0511 13:15:27.722661 24587 net.cpp:367] drop7 -> fc7 (in-place)
I0511 13:15:27.722673 24587 net.cpp:122] Setting up drop7
I0511 13:15:27.722676 24587 net.cpp:129] Top shape: 256 4096 (1048576)
I0511 13:15:27.722678 24587 net.cpp:137] Memory required for data: 2277704704
I0511 13:15:27.722692 24587 layer_factory.hpp:77] Creating layer fc8
I0511 13:15:27.722697 24587 net.cpp:84] Creating Layer fc8
I0511 13:15:27.722699 24587 net.cpp:406] fc8 <- fc7
I0511 13:15:27.722703 24587 net.cpp:380] fc8 -> fc8
I0511 13:15:27.724387 24587 net.cpp:122] Setting up fc8
I0511 13:15:27.724395 24587 net.cpp:129] Top shape: 256 43 (11008)
I0511 13:15:27.724397 24587 net.cpp:137] Memory required for data: 2277748736
I0511 13:15:27.724401 24587 layer_factory.hpp:77] Creating layer loss
I0511 13:15:27.724406 24587 net.cpp:84] Creating Layer loss
I0511 13:15:27.724408 24587 net.cpp:406] loss <- fc8
I0511 13:15:27.724411 24587 net.cpp:406] loss <- label
I0511 13:15:27.724416 24587 net.cpp:380] loss -> loss
I0511 13:15:27.724424 24587 layer_factory.hpp:77] Creating layer loss
…
I0511 13:15:27.727385 24587 net.cpp:294] The NetState phase (1) differed from the phase (0) specified by a rule in layer data
I0511 13:15:27.727490 24587 net.cpp:51] Initializing net from parameters: 
name: "CaffeNet"
state {
  phase: TEST
}
layer {
  name: "data"
  type: "Data"
  top: "data"
  top: "label"
  include {
    phase: TEST
  }
  transform_param {
    mirror: false
    crop_size: 256
    mean_file: "/home/user1/GTSRB/input/mean_256.binaryproto"
  }
  data_param {
    source: "/home/user1/GTSRB/input/validation_lmdb_256"
    batch_size: 50
    backend: LMDB
  }
}
layer {
  name: "conv1"
  type: "Convolution"
  bottom: "data"
  top: "conv1"
  param {
    lr_mult: 1
    decay_mult: 1
  }
  param {
    lr_mult: 2
    decay_mult: 0
  }
  convolution_param {
    num_output: 96
    kernel_size: 11
    stride: 4
    weight_filler {
      type: "gaussian"
      std: 0.01
    }
    bias_filler {
      type: "constant"
      value: 0
    }
  }
}
layer {
  name: "relu1"
  type: "ReLU"
  bottom: "conv1"
  top: "conv1"
}
layer {
  name: "pool1"
  type: "Pooling"
  bottom: "conv1"
  top: "pool1"
  pooling_param {
    pool: MAX
    kernel_size: 3
    stride: 2
  }
}
layer {
  name: "norm1"
  type: "LRN"
  bottom: "pool1"
  top: "norm1"
  lrn_param {
    local_size: 5
    alpha: 0.0001
    beta: 0.75
  }
}
layer {
  name: "conv2"
  type: "Convolution"
  bottom: "norm1"
  top: "conv2"
  param {
    lr_mult: 1
    decay_mult: 1
  }
  param {
    lr_mult: 2
    decay_mult: 0
  }
  convolution_param {
    num_output: 256
    pad: 2
    kernel_size: 5
    group: 2
    weight_filler {
      type: "gaussian"
      std: 0.01
    }
    bias_filler {
      type: "constant"
      value: 1
    }
  }
}
layer {
  name: "relu2"
  type: "ReLU"
  bottom: "conv2"
  top: "conv2"
}
layer {
  name: "pool2"
  type: "Pooling"
  bottom: "conv2"
  top: "pool2"
  pooling_param {
    pool: MAX
    kernel_size: 3
    stride: 2
  }
}
layer {
  name: "norm2"
  type: "LRN"
  bottom: "pool2"
  top: "norm2"
  lrn_param {
    local_size: 5
    alpha: 0.0001
    beta: 0.75
  }
}
layer {
  name: "conv3"
  type: "Convolution"
  bottom: "norm2"
  top: "conv3"
  param {
    lr_mult: 1
    decay_mult: 1
  }
  param {
    lr_mult: 2
    decay_mult: 0
  }
  convolution_param {
    num_output: 384
    pad: 1
    kernel_size: 3
    weight_filler {
      type: "gaussian"
      std: 0.01
    }
    bias_filler {
      type: "constant"
      value: 0
    }
  }
}
layer {
  name: "relu3"
  type: "ReLU"
  bottom: "conv3"
  top: "conv3"
}
layer {
  name: "conv4"
  type: "Convolution"
  bottom: "conv3"
  top: "conv4"
  param {
    lr_mult: 1
    decay_mult: 1
  }
  param {
    lr_mult: 2
    decay_mult: 0
  }
  convolution_param {
    num_output: 384
    pad: 1
    kernel_size: 3
    group: 2
    weight_filler {
      type: "gaussian"
      std: 0.01
    }
    bias_filler {
      type: "constant"
      value: 1
    }
  }
}
layer {
  name: "relu4"
  type: "ReLU"
  bottom: "conv4"
  top: "conv4"
}
layer {
  name: "conv5"
  type: "Convolution"
  bottom: "conv4"
  top: "conv5"
  param {
    lr_mult: 1
    decay_mult: 1
  }
  param {
    lr_mult: 2
    decay_mult: 0
  }
  convolution_param {
    num_output: 256
    pad: 1
    kernel_size: 3
    group: 2
    weight_filler {
      type: "gaussian"
      std: 0.01
    }
    bias_filler {
      type: "constant"
      value: 1
    }
  }
}
layer {
  name: "relu5"
  type: "ReLU"
  bottom: "conv5"
  top: "conv5"
}
layer {
  name: "pool5"
  type: "Pooling"
  bottom: "conv5"
  top: "pool5"
  pooling_param {
    pool: MAX
    kernel_size: 3
    stride: 2
  }
}
layer {
  name: "fc6"
  type: "InnerProduct"
  bottom: "pool5"
  top: "fc6"
  param {
    lr_mult: 1
    decay_mult: 1
  }
  param {
    lr_mult: 2
    decay_mult: 0
  }
  inner_product_param {
    num_output: 4096
    weight_filler {
      type: "gaussian"
      std: 0.005
    }
    bias_filler {
      type: "constant"
      value: 1
    }
  }
}
layer {
  name: "relu6"
  type: "ReLU"
  bottom: "fc6"
  top: "fc6"
}
layer {
  name: "drop6"
  type: "Dropout"
  bottom: "fc6"
  top: "fc6"
  dropout_param {
    dropout_ratio: 0.5
  }
}
layer {
  name: "fc7"
  type: "InnerProduct"
  bottom: "fc6"
  top: "fc7"
  param {
    lr_mult: 1
    decay_mult: 1
  }
  param {
    lr_mult: 2
    decay_mult: 0
  }
  inner_product_param {
    num_output: 4096
    weight_filler {
      type: "gaussian"
      std: 0.005
    }
    bias_filler {
      type: "constant"
      value: 1
    }
  }
}
layer {
  name: "relu7"
  type: "ReLU"
  bottom: "fc7"
  top: "fc7"
}
layer {
  name: "drop7"
  type: "Dropout"
  bottom: "fc7"
  top: "fc7"
  dropout_param {
    dropout_ratio: 0.5
  }
}
layer {
  name: "fc8"
  type: "InnerProduct"
  bottom: "fc7"
  top: "fc8"
  param {
    lr_mult: 1
    decay_mult: 1
  }
  param {
    lr_mult: 2
    decay_mult: 0
  }
  inner_product_param {
    num_output: 43
    weight_filler {
      type: "gaussian"
      std: 0.01
    }
    bias_filler {
      type: "constant"
      value: 0
    }
  }
}
layer {
  name: "accuracy"
  type: "Accuracy"
  bottom: "fc8"
  bottom: "label"
  top: "accuracy"
  include {
    phase: TEST
  }
}
layer {
  name: "loss"
  type: "SoftmaxWithLoss"
  bottom: "fc8"
  bottom: "label"
  top: "loss"
}
I0511 13:15:27.727562 24587 layer_factory.hpp:77] Creating layer data
I0511 13:15:27.727597 24587 db_lmdb.cpp:35] Opened lmdb /home/user1/GTSRB/input/validation_lmdb_256
I0511 13:15:27.727608 24587 net.cpp:84] Creating Layer data
I0511 13:15:27.727613 24587 net.cpp:380] data -> data
I0511 13:15:27.727618 24587 net.cpp:380] data -> label
I0511 13:15:27.727622 24587 data_transformer.cpp:25] Loading mean file from: /home/user1/GTSRB/input/mean_256.binaryproto
I0511 13:15:27.728677 24587 data_layer.cpp:45] output data size: 50,3,256,256
I0511 13:15:27.773869 24587 net.cpp:122] Setting up data
I0511 13:15:27.773888 24587 net.cpp:129] Top shape: 50 3 256 256 (9830400)
I0511 13:15:27.773891 24587 net.cpp:129] Top shape: 50 (50)
I0511 13:15:27.773893 24587 net.cpp:137] Memory required for data: 39321800
I0511 13:15:27.773897 24587 layer_factory.hpp:77] Creating layer label_data_1_split
I0511 13:15:27.773905 24587 net.cpp:84] Creating Layer label_data_1_split
I0511 13:15:27.773908 24587 net.cpp:406] label_data_1_split <- label
I0511 13:15:27.773912 24587 net.cpp:380] label_data_1_split -> label_data_1_split_0
I0511 13:15:27.773917 24587 net.cpp:380] label_data_1_split -> label_data_1_split_1
I0511 13:15:27.773977 24587 net.cpp:122] Setting up label_data_1_split
I0511 13:15:27.773982 24587 net.cpp:129] Top shape: 50 (50)
I0511 13:15:27.773984 24587 net.cpp:129] Top shape: 50 (50)
I0511 13:15:27.773986 24587 net.cpp:137] Memory required for data: 39322200
I0511 13:15:27.773988 24587 layer_factory.hpp:77] Creating layer conv1
I0511 13:15:27.773995 24587 net.cpp:84] Creating Layer conv1
I0511 13:15:27.773998 24587 net.cpp:406] conv1 <- data
I0511 13:15:27.774003 24587 net.cpp:380] conv1 -> conv1
I0511 13:15:27.778313 24587 net.cpp:122] Setting up conv1
I0511 13:15:27.778322 24587 net.cpp:129] Top shape: 50 96 62 62 (18451200)
I0511 13:15:27.778324 24587 net.cpp:137] Memory required for data: 113127000
I0511 13:15:27.778331 24587 layer_factory.hpp:77] Creating layer relu1
I0511 13:15:27.778336 24587 net.cpp:84] Creating Layer relu1
I0511 13:15:27.778342 24587 net.cpp:406] relu1 <- conv1
I0511 13:15:27.778345 24587 net.cpp:367] relu1 -> conv1 (in-place)
I0511 13:15:27.778455 24587 net.cpp:122] Setting up relu1
I0511 13:15:27.778460 24587 net.cpp:129] Top shape: 50 96 62 62 (18451200)
I0511 13:15:27.778461 24587 net.cpp:137] Memory required for data: 186931800
I0511 13:15:27.778463 24587 layer_factory.hpp:77] Creating layer pool1
I0511 13:15:27.778468 24587 net.cpp:84] Creating Layer pool1
I0511 13:15:27.778475 24587 net.cpp:406] pool1 <- conv1
I0511 13:15:27.778477 24587 net.cpp:380] pool1 -> pool1
I0511 13:15:27.778503 24587 net.cpp:122] Setting up pool1
I0511 13:15:27.778508 24587 net.cpp:129] Top shape: 50 96 31 31 (4612800)
I0511 13:15:27.778509 24587 net.cpp:137] Memory required for data: 205383000
I0511 13:15:27.778512 24587 layer_factory.hpp:77] Creating layer norm1
I0511 13:15:27.778514 24587 net.cpp:84] Creating Layer norm1
I0511 13:15:27.778520 24587 net.cpp:406] norm1 <- pool1
I0511 13:15:27.778523 24587 net.cpp:380] norm1 -> norm1
I0511 13:15:27.779125 24587 net.cpp:122] Setting up norm1
I0511 13:15:27.779132 24587 net.cpp:129] Top shape: 50 96 31 31 (4612800)
I0511 13:15:27.779135 24587 net.cpp:137] Memory required for data: 223834200
I0511 13:15:27.779137 24587 layer_factory.hpp:77] Creating layer conv2
I0511 13:15:27.779142 24587 net.cpp:84] Creating Layer conv2
I0511 13:15:27.779147 24587 net.cpp:406] conv2 <- norm1
I0511 13:15:27.779151 24587 net.cpp:380] conv2 -> conv2
I0511 13:15:27.783207 24587 net.cpp:122] Setting up conv2
I0511 13:15:27.783223 24587 net.cpp:129] Top shape: 50 256 31 31 (12300800)
I0511 13:15:27.783226 24587 net.cpp:137] Memory required for data: 273037400
I0511 13:15:27.783234 24587 layer_factory.hpp:77] Creating layer relu2
I0511 13:15:27.783241 24587 net.cpp:84] Creating Layer relu2
I0511 13:15:27.783253 24587 net.cpp:406] relu2 <- conv2
I0511 13:15:27.783267 24587 net.cpp:367] relu2 -> conv2 (in-place)
I0511 13:15:27.783815 24587 net.cpp:122] Setting up relu2
I0511 13:15:27.783823 24587 net.cpp:129] Top shape: 50 256 31 31 (12300800)
I0511 13:15:27.783825 24587 net.cpp:137] Memory required for data: 322240600
I0511 13:15:27.783828 24587 layer_factory.hpp:77] Creating layer pool2
I0511 13:15:27.783834 24587 net.cpp:84] Creating Layer pool2
I0511 13:15:27.783836 24587 net.cpp:406] pool2 <- conv2
I0511 13:15:27.783840 24587 net.cpp:380] pool2 -> pool2
I0511 13:15:27.783872 24587 net.cpp:122] Setting up pool2
I0511 13:15:27.783877 24587 net.cpp:129] Top shape: 50 256 15 15 (2880000)
I0511 13:15:27.783879 24587 net.cpp:137] Memory required for data: 333760600
I0511 13:15:27.783880 24587 layer_factory.hpp:77] Creating layer norm2
I0511 13:15:27.783885 24587 net.cpp:84] Creating Layer norm2
I0511 13:15:27.783886 24587 net.cpp:406] norm2 <- pool2
I0511 13:15:27.783890 24587 net.cpp:380] norm2 -> norm2
I0511 13:15:27.784011 24587 net.cpp:122] Setting up norm2
I0511 13:15:27.784016 24587 net.cpp:129] Top shape: 50 256 15 15 (2880000)
I0511 13:15:27.784018 24587 net.cpp:137] Memory required for data: 345280600
I0511 13:15:27.784020 24587 layer_factory.hpp:77] Creating layer conv3
I0511 13:15:27.784026 24587 net.cpp:84] Creating Layer conv3
I0511 13:15:27.784029 24587 net.cpp:406] conv3 <- norm2
I0511 13:15:27.784032 24587 net.cpp:380] conv3 -> conv3
I0511 13:15:27.793929 24587 net.cpp:122] Setting up conv3
I0511 13:15:27.793944 24587 net.cpp:129] Top shape: 50 384 15 15 (4320000)
I0511 13:15:27.793946 24587 net.cpp:137] Memory required for data: 362560600
I0511 13:15:27.793953 24587 layer_factory.hpp:77] Creating layer relu3
I0511 13:15:27.793959 24587 net.cpp:84] Creating Layer relu3
I0511 13:15:27.793962 24587 net.cpp:406] relu3 <- conv3
I0511 13:15:27.793965 24587 net.cpp:367] relu3 -> conv3 (in-place)
I0511 13:15:27.794081 24587 net.cpp:122] Setting up relu3
I0511 13:15:27.794086 24587 net.cpp:129] Top shape: 50 384 15 15 (4320000)
I0511 13:15:27.794088 24587 net.cpp:137] Memory required for data: 379840600
I0511 13:15:27.794090 24587 layer_factory.hpp:77] Creating layer conv4
I0511 13:15:27.794096 24587 net.cpp:84] Creating Layer conv4
I0511 13:15:27.794098 24587 net.cpp:406] conv4 <- conv3
I0511 13:15:27.794102 24587 net.cpp:380] conv4 -> conv4
I0511 13:15:27.802731 24587 net.cpp:122] Setting up conv4
I0511 13:15:27.802742 24587 net.cpp:129] Top shape: 50 384 15 15 (4320000)
I0511 13:15:27.802744 24587 net.cpp:137] Memory required for data: 397120600
I0511 13:15:27.802749 24587 layer_factory.hpp:77] Creating layer relu4
I0511 13:15:27.802754 24587 net.cpp:84] Creating Layer relu4
I0511 13:15:27.802757 24587 net.cpp:406] relu4 <- conv4
I0511 13:15:27.802760 24587 net.cpp:367] relu4 -> conv4 (in-place)
I0511 13:15:27.802882 24587 net.cpp:122] Setting up relu4
I0511 13:15:27.802888 24587 net.cpp:129] Top shape: 50 384 15 15 (4320000)
I0511 13:15:27.802891 24587 net.cpp:137] Memory required for data: 414400600
I0511 13:15:27.802892 24587 layer_factory.hpp:77] Creating layer conv5
I0511 13:15:27.802898 24587 net.cpp:84] Creating Layer conv5
I0511 13:15:27.802901 24587 net.cpp:406] conv5 <- conv4
I0511 13:15:27.802904 24587 net.cpp:380] conv5 -> conv5
I0511 13:15:27.809332 24587 net.cpp:122] Setting up conv5
I0511 13:15:27.809345 24587 net.cpp:129] Top shape: 50 256 15 15 (2880000)
I0511 13:15:27.809346 24587 net.cpp:137] Memory required for data: 425920600
I0511 13:15:27.809355 24587 layer_factory.hpp:77] Creating layer relu5
I0511 13:15:27.809360 24587 net.cpp:84] Creating Layer relu5
I0511 13:15:27.809361 24587 net.cpp:406] relu5 <- conv5
I0511 13:15:27.809365 24587 net.cpp:367] relu5 -> conv5 (in-place)
I0511 13:15:27.809478 24587 net.cpp:122] Setting up relu5
I0511 13:15:27.809484 24587 net.cpp:129] Top shape: 50 256 15 15 (2880000)
I0511 13:15:27.809486 24587 net.cpp:137] Memory required for data: 437440600
I0511 13:15:27.809487 24587 layer_factory.hpp:77] Creating layer pool5
I0511 13:15:27.809494 24587 net.cpp:84] Creating Layer pool5
I0511 13:15:27.809506 24587 net.cpp:406] pool5 <- conv5
I0511 13:15:27.809509 24587 net.cpp:380] pool5 -> pool5
I0511 13:15:27.809542 24587 net.cpp:122] Setting up pool5
I0511 13:15:27.809546 24587 net.cpp:129] Top shape: 50 256 7 7 (627200)
I0511 13:15:27.809548 24587 net.cpp:137] Memory required for data: 439949400
I0511 13:15:27.809551 24587 layer_factory.hpp:77] Creating layer fc6
I0511 13:15:27.809554 24587 net.cpp:84] Creating Layer fc6
I0511 13:15:27.809557 24587 net.cpp:406] fc6 <- pool5
I0511 13:15:27.809561 24587 net.cpp:380] fc6 -> fc6
I0511 13:15:28.156144 24587 net.cpp:122] Setting up fc6
I0511 13:15:28.156163 24587 net.cpp:129] Top shape: 50 4096 (204800)
I0511 13:15:28.156165 24587 net.cpp:137] Memory required for data: 440768600
I0511 13:15:28.156172 24587 layer_factory.hpp:77] Creating layer relu6
I0511 13:15:28.156178 24587 net.cpp:84] Creating Layer relu6
I0511 13:15:28.156180 24587 net.cpp:406] relu6 <- fc6
I0511 13:15:28.156184 24587 net.cpp:367] relu6 -> fc6 (in-place)
I0511 13:15:28.156338 24587 net.cpp:122] Setting up relu6
I0511 13:15:28.156343 24587 net.cpp:129] Top shape: 50 4096 (204800)
I0511 13:15:28.156345 24587 net.cpp:137] Memory required for data: 441587800
I0511 13:15:28.156347 24587 layer_factory.hpp:77] Creating layer drop6
I0511 13:15:28.156352 24587 net.cpp:84] Creating Layer drop6
I0511 13:15:28.156353 24587 net.cpp:406] drop6 <- fc6
I0511 13:15:28.156357 24587 net.cpp:367] drop6 -> fc6 (in-place)
I0511 13:15:28.156376 24587 net.cpp:122] Setting up drop6
I0511 13:15:28.156380 24587 net.cpp:129] Top shape: 50 4096 (204800)
I0511 13:15:28.156383 24587 net.cpp:137] Memory required for data: 442407000
I0511 13:15:28.156384 24587 layer_factory.hpp:77] Creating layer fc7
I0511 13:15:28.156388 24587 net.cpp:84] Creating Layer fc7
I0511 13:15:28.156391 24587 net.cpp:406] fc7 <- fc6
I0511 13:15:28.156394 24587 net.cpp:380] fc7 -> fc7
I0511 13:15:28.268837 24587 net.cpp:122] Setting up fc7
I0511 13:15:28.268857 24587 net.cpp:129] Top shape: 50 4096 (204800)
I0511 13:15:28.268859 24587 net.cpp:137] Memory required for data: 443226200
I0511 13:15:28.268865 24587 layer_factory.hpp:77] Creating layer relu7
I0511 13:15:28.268872 24587 net.cpp:84] Creating Layer relu7
I0511 13:15:28.268874 24587 net.cpp:406] relu7 <- fc7
I0511 13:15:28.268878 24587 net.cpp:367] relu7 -> fc7 (in-place)
I0511 13:15:28.269515 24587 net.cpp:122] Setting up relu7
I0511 13:15:28.269522 24587 net.cpp:129] Top shape: 50 4096 (204800)
I0511 13:15:28.269525 24587 net.cpp:137] Memory required for data: 444045400
I0511 13:15:28.269526 24587 layer_factory.hpp:77] Creating layer drop7
I0511 13:15:28.269531 24587 net.cpp:84] Creating Layer drop7
I0511 13:15:28.269532 24587 net.cpp:406] drop7 <- fc7
I0511 13:15:28.269536 24587 net.cpp:367] drop7 -> fc7 (in-place)
I0511 13:15:28.269558 24587 net.cpp:122] Setting up drop7
I0511 13:15:28.269562 24587 net.cpp:129] Top shape: 50 4096 (204800)
I0511 13:15:28.269563 24587 net.cpp:137] Memory required for data: 444864600
I0511 13:15:28.269565 24587 layer_factory.hpp:77] Creating layer fc8
I0511 13:15:28.269569 24587 net.cpp:84] Creating Layer fc8
I0511 13:15:28.269572 24587 net.cpp:406] fc8 <- fc7
I0511 13:15:28.269575 24587 net.cpp:380] fc8 -> fc8
I0511 13:15:28.270715 24587 net.cpp:122] Setting up fc8
I0511 13:15:28.270720 24587 net.cpp:129] Top shape: 50 43 (2150)
I0511 13:15:28.270722 24587 net.cpp:137] Memory required for data: 444873200
I0511 13:15:28.270725 24587 layer_factory.hpp:77] Creating layer fc8_fc8_0_split
I0511 13:15:28.270730 24587 net.cpp:84] Creating Layer fc8_fc8_0_split
I0511 13:15:28.270731 24587 net.cpp:406] fc8_fc8_0_split <- fc8
I0511 13:15:28.270735 24587 net.cpp:380] fc8_fc8_0_split -> fc8_fc8_0_split_0
I0511 13:15:28.270737 24587 net.cpp:380] fc8_fc8_0_split -> fc8_fc8_0_split_1
I0511 13:15:28.270761 24587 net.cpp:122] Setting up fc8_fc8_0_split
I0511 13:15:28.270764 24587 net.cpp:129] Top shape: 50 43 (2150)
I0511 13:15:28.270766 24587 net.cpp:129] Top shape: 50 43 (2150)
I0511 13:15:28.270768 24587 net.cpp:137] Memory required for data: 444890400
I0511 13:15:28.270781 24587 layer_factory.hpp:77] Creating layer accuracy
I0511 13:15:28.270784 24587 net.cpp:84] Creating Layer accuracy
I0511 13:15:28.270787 24587 net.cpp:406] accuracy <- fc8_fc8_0_split_0
I0511 13:15:28.270790 24587 net.cpp:406] accuracy <- label_data_1_split_0
I0511 13:15:28.270793 24587 net.cpp:380] accuracy -> accuracy
…
